{"weightsManifest": [{"paths": ["group1-shard1of16.bin", "group1-shard2of16.bin", "group1-shard3of16.bin", "group1-shard4of16.bin", "group1-shard5of16.bin", "group1-shard6of16.bin", "group1-shard7of16.bin", "group1-shard8of16.bin", "group1-shard9of16.bin", "group1-shard10of16.bin", "group1-shard11of16.bin", "group1-shard12of16.bin", "group1-shard13of16.bin", "group1-shard14of16.bin", "group1-shard15of16.bin", "group1-shard16of16.bin"], "weights": [{"dtype": "float32", "shape": [1, 1284, 4], "name": "Postprocessor/ExpandDims"}, {"dtype": "float32", "shape": [], "name": "ConstantFolding/Postprocessor/Decode/get_center_coordinates_and_sizes/div_recip"}, {"dtype": "float32", "shape": [], "name": "ConstantFolding/Postprocessor/Decode/div_2_recip"}, {"dtype": "float32", "shape": [], "name": "ConstantFolding/Postprocessor/Decode/div_recip"}, {"dtype": "float32", "shape": [], "name": "ConstantFolding/Postprocessor/div_recip"}, {"dtype": "float32", "shape": [], "name": "Preprocessor/mul/x"}, {"dtype": "float32", "shape": [7, 7, 3, 8], "name": "FeatureExtractor/InceptionV2/Conv2d_1a_7x7/depthwise_weights"}, {"dtype": "float32", "shape": [1, 1, 24, 64], "name": "FeatureExtractor/InceptionV2/Conv2d_1a_7x7/pointwise_weights"}, {"dtype": "float32", "shape": [64], "name": "FeatureExtractor/InceptionV2/Conv2d_1a_7x7/BatchNorm/gamma"}, {"dtype": "float32", "shape": [64], "name": "FeatureExtractor/InceptionV2/Conv2d_1a_7x7/BatchNorm/beta"}, {"dtype": "float32", "shape": [64], "name": "FeatureExtractor/InceptionV2/Conv2d_1a_7x7/BatchNorm/moving_mean"}, {"dtype": "float32", "shape": [64], "name": "FeatureExtractor/InceptionV2/Conv2d_1a_7x7/BatchNorm/moving_variance"}, {"dtype": "float32", "shape": [1, 1, 64, 64], "name": "FeatureExtractor/InceptionV2/Conv2d_2b_1x1/weights"}, {"dtype": "float32", "shape": [64], "name": "FeatureExtractor/InceptionV2/Conv2d_2b_1x1/BatchNorm/gamma"}, {"dtype": "float32", "shape": [64], "name": "FeatureExtractor/InceptionV2/Conv2d_2b_1x1/BatchNorm/beta"}, {"dtype": "float32", "shape": [64], "name": "FeatureExtractor/InceptionV2/Conv2d_2b_1x1/BatchNorm/moving_mean"}, {"dtype": "float32", "shape": [64], "name": "FeatureExtractor/InceptionV2/Conv2d_2b_1x1/BatchNorm/moving_variance"}, {"dtype": "float32", "shape": [3, 3, 64, 192], "name": "FeatureExtractor/InceptionV2/Conv2d_2c_3x3/weights"}, {"dtype": "float32", "shape": [192], "name": "FeatureExtractor/InceptionV2/Conv2d_2c_3x3/BatchNorm/gamma"}, {"dtype": "float32", "shape": [192], "name": "FeatureExtractor/InceptionV2/Conv2d_2c_3x3/BatchNorm/beta"}, {"dtype": "float32", "shape": [192], "name": "FeatureExtractor/InceptionV2/Conv2d_2c_3x3/BatchNorm/moving_mean"}, {"dtype": "float32", "shape": [192], "name": "FeatureExtractor/InceptionV2/Conv2d_2c_3x3/BatchNorm/moving_variance"}, {"dtype": "float32", "shape": [1, 1, 192, 64], "name": "FeatureExtractor/InceptionV2/Mixed_3b/Branch_0/Conv2d_0a_1x1/weights"}, {"dtype": "float32", "shape": [64], "name": "FeatureExtractor/InceptionV2/Mixed_3b/Branch_0/Conv2d_0a_1x1/BatchNorm/gamma"}, {"dtype": "float32", "shape": [64], "name": "FeatureExtractor/InceptionV2/Mixed_3b/Branch_0/Conv2d_0a_1x1/BatchNorm/beta"}, {"dtype": "float32", "shape": [64], "name": "FeatureExtractor/InceptionV2/Mixed_3b/Branch_0/Conv2d_0a_1x1/BatchNorm/moving_mean"}, {"dtype": "float32", "shape": [64], "name": "FeatureExtractor/InceptionV2/Mixed_3b/Branch_0/Conv2d_0a_1x1/BatchNorm/moving_variance"}, {"dtype": "float32", "shape": [1, 1, 192, 64], "name": "FeatureExtractor/InceptionV2/Mixed_3b/Branch_1/Conv2d_0a_1x1/weights"}, {"dtype": "float32", "shape": [64], "name": "FeatureExtractor/InceptionV2/Mixed_3b/Branch_1/Conv2d_0a_1x1/BatchNorm/gamma"}, {"dtype": "float32", "shape": [64], "name": "FeatureExtractor/InceptionV2/Mixed_3b/Branch_1/Conv2d_0a_1x1/BatchNorm/beta"}, {"dtype": "float32", "shape": [64], "name": "FeatureExtractor/InceptionV2/Mixed_3b/Branch_1/Conv2d_0a_1x1/BatchNorm/moving_mean"}, {"dtype": "float32", "shape": [64], "name": "FeatureExtractor/InceptionV2/Mixed_3b/Branch_1/Conv2d_0a_1x1/BatchNorm/moving_variance"}, {"dtype": "float32", "shape": [3, 3, 64, 64], "name": "FeatureExtractor/InceptionV2/Mixed_3b/Branch_1/Conv2d_0b_3x3/weights"}, {"dtype": "float32", "shape": [64], "name": "FeatureExtractor/InceptionV2/Mixed_3b/Branch_1/Conv2d_0b_3x3/BatchNorm/gamma"}, {"dtype": "float32", "shape": [64], "name": "FeatureExtractor/InceptionV2/Mixed_3b/Branch_1/Conv2d_0b_3x3/BatchNorm/beta"}, {"dtype": "float32", "shape": [64], "name": "FeatureExtractor/InceptionV2/Mixed_3b/Branch_1/Conv2d_0b_3x3/BatchNorm/moving_mean"}, {"dtype": "float32", "shape": [64], "name": "FeatureExtractor/InceptionV2/Mixed_3b/Branch_1/Conv2d_0b_3x3/BatchNorm/moving_variance"}, {"dtype": "float32", "shape": [1, 1, 192, 64], "name": "FeatureExtractor/InceptionV2/Mixed_3b/Branch_2/Conv2d_0a_1x1/weights"}, {"dtype": "float32", "shape": [64], "name": "FeatureExtractor/InceptionV2/Mixed_3b/Branch_2/Conv2d_0a_1x1/BatchNorm/gamma"}, {"dtype": "float32", "shape": [64], "name": "FeatureExtractor/InceptionV2/Mixed_3b/Branch_2/Conv2d_0a_1x1/BatchNorm/beta"}, {"dtype": "float32", "shape": [64], "name": "FeatureExtractor/InceptionV2/Mixed_3b/Branch_2/Conv2d_0a_1x1/BatchNorm/moving_mean"}, {"dtype": "float32", "shape": [64], "name": "FeatureExtractor/InceptionV2/Mixed_3b/Branch_2/Conv2d_0a_1x1/BatchNorm/moving_variance"}, {"dtype": "float32", "shape": [3, 3, 64, 96], "name": "FeatureExtractor/InceptionV2/Mixed_3b/Branch_2/Conv2d_0b_3x3/weights"}, {"dtype": "float32", "shape": [96], "name": "FeatureExtractor/InceptionV2/Mixed_3b/Branch_2/Conv2d_0b_3x3/BatchNorm/gamma"}, {"dtype": "float32", "shape": [96], "name": "FeatureExtractor/InceptionV2/Mixed_3b/Branch_2/Conv2d_0b_3x3/BatchNorm/beta"}, {"dtype": "float32", "shape": [96], "name": "FeatureExtractor/InceptionV2/Mixed_3b/Branch_2/Conv2d_0b_3x3/BatchNorm/moving_mean"}, {"dtype": "float32", "shape": [96], "name": "FeatureExtractor/InceptionV2/Mixed_3b/Branch_2/Conv2d_0b_3x3/BatchNorm/moving_variance"}, {"dtype": "float32", "shape": [3, 3, 96, 96], "name": "FeatureExtractor/InceptionV2/Mixed_3b/Branch_2/Conv2d_0c_3x3/weights"}, {"dtype": "float32", "shape": [96], "name": "FeatureExtractor/InceptionV2/Mixed_3b/Branch_2/Conv2d_0c_3x3/BatchNorm/gamma"}, {"dtype": "float32", "shape": [96], "name": "FeatureExtractor/InceptionV2/Mixed_3b/Branch_2/Conv2d_0c_3x3/BatchNorm/beta"}, {"dtype": "float32", "shape": [96], "name": "FeatureExtractor/InceptionV2/Mixed_3b/Branch_2/Conv2d_0c_3x3/BatchNorm/moving_mean"}, {"dtype": "float32", "shape": [96], "name": "FeatureExtractor/InceptionV2/Mixed_3b/Branch_2/Conv2d_0c_3x3/BatchNorm/moving_variance"}, {"dtype": "float32", "shape": [1, 1, 192, 32], "name": "FeatureExtractor/InceptionV2/Mixed_3b/Branch_3/Conv2d_0b_1x1/weights"}, {"dtype": "float32", "shape": [32], "name": "FeatureExtractor/InceptionV2/Mixed_3b/Branch_3/Conv2d_0b_1x1/BatchNorm/gamma"}, {"dtype": "float32", "shape": [32], "name": "FeatureExtractor/InceptionV2/Mixed_3b/Branch_3/Conv2d_0b_1x1/BatchNorm/beta"}, {"dtype": "float32", "shape": [32], "name": "FeatureExtractor/InceptionV2/Mixed_3b/Branch_3/Conv2d_0b_1x1/BatchNorm/moving_mean"}, {"dtype": "float32", "shape": [32], "name": "FeatureExtractor/InceptionV2/Mixed_3b/Branch_3/Conv2d_0b_1x1/BatchNorm/moving_variance"}, {"dtype": "float32", "shape": [1, 1, 256, 64], "name": "FeatureExtractor/InceptionV2/Mixed_3c/Branch_0/Conv2d_0a_1x1/weights"}, {"dtype": "float32", "shape": [64], "name": "FeatureExtractor/InceptionV2/Mixed_3c/Branch_0/Conv2d_0a_1x1/BatchNorm/gamma"}, {"dtype": "float32", "shape": [64], "name": "FeatureExtractor/InceptionV2/Mixed_3c/Branch_0/Conv2d_0a_1x1/BatchNorm/beta"}, {"dtype": "float32", "shape": [64], "name": "FeatureExtractor/InceptionV2/Mixed_3c/Branch_0/Conv2d_0a_1x1/BatchNorm/moving_mean"}, {"dtype": "float32", "shape": [64], "name": "FeatureExtractor/InceptionV2/Mixed_3c/Branch_0/Conv2d_0a_1x1/BatchNorm/moving_variance"}, {"dtype": "float32", "shape": [1, 1, 256, 64], "name": "FeatureExtractor/InceptionV2/Mixed_3c/Branch_1/Conv2d_0a_1x1/weights"}, {"dtype": "float32", "shape": [64], "name": "FeatureExtractor/InceptionV2/Mixed_3c/Branch_1/Conv2d_0a_1x1/BatchNorm/gamma"}, {"dtype": "float32", "shape": [64], "name": "FeatureExtractor/InceptionV2/Mixed_3c/Branch_1/Conv2d_0a_1x1/BatchNorm/beta"}, {"dtype": "float32", "shape": [64], "name": "FeatureExtractor/InceptionV2/Mixed_3c/Branch_1/Conv2d_0a_1x1/BatchNorm/moving_mean"}, {"dtype": "float32", "shape": [64], "name": "FeatureExtractor/InceptionV2/Mixed_3c/Branch_1/Conv2d_0a_1x1/BatchNorm/moving_variance"}, {"dtype": "float32", "shape": [3, 3, 64, 96], "name": "FeatureExtractor/InceptionV2/Mixed_3c/Branch_1/Conv2d_0b_3x3/weights"}, {"dtype": "float32", "shape": [96], "name": "FeatureExtractor/InceptionV2/Mixed_3c/Branch_1/Conv2d_0b_3x3/BatchNorm/gamma"}, {"dtype": "float32", "shape": [96], "name": "FeatureExtractor/InceptionV2/Mixed_3c/Branch_1/Conv2d_0b_3x3/BatchNorm/beta"}, {"dtype": "float32", "shape": [96], "name": "FeatureExtractor/InceptionV2/Mixed_3c/Branch_1/Conv2d_0b_3x3/BatchNorm/moving_mean"}, {"dtype": "float32", "shape": [96], "name": "FeatureExtractor/InceptionV2/Mixed_3c/Branch_1/Conv2d_0b_3x3/BatchNorm/moving_variance"}, {"dtype": "float32", "shape": [1, 1, 256, 64], "name": "FeatureExtractor/InceptionV2/Mixed_3c/Branch_2/Conv2d_0a_1x1/weights"}, {"dtype": "float32", "shape": [64], "name": "FeatureExtractor/InceptionV2/Mixed_3c/Branch_2/Conv2d_0a_1x1/BatchNorm/gamma"}, {"dtype": "float32", "shape": [64], "name": "FeatureExtractor/InceptionV2/Mixed_3c/Branch_2/Conv2d_0a_1x1/BatchNorm/beta"}, {"dtype": "float32", "shape": [64], "name": "FeatureExtractor/InceptionV2/Mixed_3c/Branch_2/Conv2d_0a_1x1/BatchNorm/moving_mean"}, {"dtype": "float32", "shape": [64], "name": "FeatureExtractor/InceptionV2/Mixed_3c/Branch_2/Conv2d_0a_1x1/BatchNorm/moving_variance"}, {"dtype": "float32", "shape": [3, 3, 64, 96], "name": "FeatureExtractor/InceptionV2/Mixed_3c/Branch_2/Conv2d_0b_3x3/weights"}, {"dtype": "float32", "shape": [96], "name": "FeatureExtractor/InceptionV2/Mixed_3c/Branch_2/Conv2d_0b_3x3/BatchNorm/gamma"}, {"dtype": "float32", "shape": [96], "name": "FeatureExtractor/InceptionV2/Mixed_3c/Branch_2/Conv2d_0b_3x3/BatchNorm/beta"}, {"dtype": "float32", "shape": [96], "name": "FeatureExtractor/InceptionV2/Mixed_3c/Branch_2/Conv2d_0b_3x3/BatchNorm/moving_mean"}, {"dtype": "float32", "shape": [96], "name": "FeatureExtractor/InceptionV2/Mixed_3c/Branch_2/Conv2d_0b_3x3/BatchNorm/moving_variance"}, {"dtype": "float32", "shape": [3, 3, 96, 96], "name": "FeatureExtractor/InceptionV2/Mixed_3c/Branch_2/Conv2d_0c_3x3/weights"}, {"dtype": "float32", "shape": [96], "name": "FeatureExtractor/InceptionV2/Mixed_3c/Branch_2/Conv2d_0c_3x3/BatchNorm/gamma"}, {"dtype": "float32", "shape": [96], "name": "FeatureExtractor/InceptionV2/Mixed_3c/Branch_2/Conv2d_0c_3x3/BatchNorm/beta"}, {"dtype": "float32", "shape": [96], "name": "FeatureExtractor/InceptionV2/Mixed_3c/Branch_2/Conv2d_0c_3x3/BatchNorm/moving_mean"}, {"dtype": "float32", "shape": [96], "name": "FeatureExtractor/InceptionV2/Mixed_3c/Branch_2/Conv2d_0c_3x3/BatchNorm/moving_variance"}, {"dtype": "float32", "shape": [1, 1, 256, 64], "name": "FeatureExtractor/InceptionV2/Mixed_3c/Branch_3/Conv2d_0b_1x1/weights"}, {"dtype": "float32", "shape": [64], "name": "FeatureExtractor/InceptionV2/Mixed_3c/Branch_3/Conv2d_0b_1x1/BatchNorm/gamma"}, {"dtype": "float32", "shape": [64], "name": "FeatureExtractor/InceptionV2/Mixed_3c/Branch_3/Conv2d_0b_1x1/BatchNorm/beta"}, {"dtype": "float32", "shape": [64], "name": "FeatureExtractor/InceptionV2/Mixed_3c/Branch_3/Conv2d_0b_1x1/BatchNorm/moving_mean"}, {"dtype": "float32", "shape": [64], "name": "FeatureExtractor/InceptionV2/Mixed_3c/Branch_3/Conv2d_0b_1x1/BatchNorm/moving_variance"}, {"dtype": "float32", "shape": [1, 1, 320, 128], "name": "FeatureExtractor/InceptionV2/Mixed_4a/Branch_0/Conv2d_0a_1x1/weights"}, {"dtype": "float32", "shape": [128], "name": "FeatureExtractor/InceptionV2/Mixed_4a/Branch_0/Conv2d_0a_1x1/BatchNorm/gamma"}, {"dtype": "float32", "shape": [128], "name": "FeatureExtractor/InceptionV2/Mixed_4a/Branch_0/Conv2d_0a_1x1/BatchNorm/beta"}, {"dtype": "float32", "shape": [128], "name": "FeatureExtractor/InceptionV2/Mixed_4a/Branch_0/Conv2d_0a_1x1/BatchNorm/moving_mean"}, {"dtype": "float32", "shape": [128], "name": "FeatureExtractor/InceptionV2/Mixed_4a/Branch_0/Conv2d_0a_1x1/BatchNorm/moving_variance"}, {"dtype": "float32", "shape": [3, 3, 128, 160], "name": "FeatureExtractor/InceptionV2/Mixed_4a/Branch_0/Conv2d_1a_3x3/weights"}, {"dtype": "float32", "shape": [160], "name": "FeatureExtractor/InceptionV2/Mixed_4a/Branch_0/Conv2d_1a_3x3/BatchNorm/gamma"}, {"dtype": "float32", "shape": [160], "name": "FeatureExtractor/InceptionV2/Mixed_4a/Branch_0/Conv2d_1a_3x3/BatchNorm/beta"}, {"dtype": "float32", "shape": [160], "name": "FeatureExtractor/InceptionV2/Mixed_4a/Branch_0/Conv2d_1a_3x3/BatchNorm/moving_mean"}, {"dtype": "float32", "shape": [160], "name": "FeatureExtractor/InceptionV2/Mixed_4a/Branch_0/Conv2d_1a_3x3/BatchNorm/moving_variance"}, {"dtype": "float32", "shape": [1, 1, 320, 64], "name": "FeatureExtractor/InceptionV2/Mixed_4a/Branch_1/Conv2d_0a_1x1/weights"}, {"dtype": "float32", "shape": [64], "name": "FeatureExtractor/InceptionV2/Mixed_4a/Branch_1/Conv2d_0a_1x1/BatchNorm/gamma"}, {"dtype": "float32", "shape": [64], "name": "FeatureExtractor/InceptionV2/Mixed_4a/Branch_1/Conv2d_0a_1x1/BatchNorm/beta"}, {"dtype": "float32", "shape": [64], "name": "FeatureExtractor/InceptionV2/Mixed_4a/Branch_1/Conv2d_0a_1x1/BatchNorm/moving_mean"}, {"dtype": "float32", "shape": [64], "name": "FeatureExtractor/InceptionV2/Mixed_4a/Branch_1/Conv2d_0a_1x1/BatchNorm/moving_variance"}, {"dtype": "float32", "shape": [3, 3, 64, 96], "name": "FeatureExtractor/InceptionV2/Mixed_4a/Branch_1/Conv2d_0b_3x3/weights"}, {"dtype": "float32", "shape": [96], "name": "FeatureExtractor/InceptionV2/Mixed_4a/Branch_1/Conv2d_0b_3x3/BatchNorm/gamma"}, {"dtype": "float32", "shape": [96], "name": "FeatureExtractor/InceptionV2/Mixed_4a/Branch_1/Conv2d_0b_3x3/BatchNorm/beta"}, {"dtype": "float32", "shape": [96], "name": "FeatureExtractor/InceptionV2/Mixed_4a/Branch_1/Conv2d_0b_3x3/BatchNorm/moving_mean"}, {"dtype": "float32", "shape": [96], "name": "FeatureExtractor/InceptionV2/Mixed_4a/Branch_1/Conv2d_0b_3x3/BatchNorm/moving_variance"}, {"dtype": "float32", "shape": [3, 3, 96, 96], "name": "FeatureExtractor/InceptionV2/Mixed_4a/Branch_1/Conv2d_1a_3x3/weights"}, {"dtype": "float32", "shape": [96], "name": "FeatureExtractor/InceptionV2/Mixed_4a/Branch_1/Conv2d_1a_3x3/BatchNorm/gamma"}, {"dtype": "float32", "shape": [96], "name": "FeatureExtractor/InceptionV2/Mixed_4a/Branch_1/Conv2d_1a_3x3/BatchNorm/beta"}, {"dtype": "float32", "shape": [96], "name": "FeatureExtractor/InceptionV2/Mixed_4a/Branch_1/Conv2d_1a_3x3/BatchNorm/moving_mean"}, {"dtype": "float32", "shape": [96], "name": "FeatureExtractor/InceptionV2/Mixed_4a/Branch_1/Conv2d_1a_3x3/BatchNorm/moving_variance"}, {"dtype": "float32", "shape": [1, 1, 576, 224], "name": "FeatureExtractor/InceptionV2/Mixed_4b/Branch_0/Conv2d_0a_1x1/weights"}, {"dtype": "float32", "shape": [224], "name": "FeatureExtractor/InceptionV2/Mixed_4b/Branch_0/Conv2d_0a_1x1/BatchNorm/gamma"}, {"dtype": "float32", "shape": [224], "name": "FeatureExtractor/InceptionV2/Mixed_4b/Branch_0/Conv2d_0a_1x1/BatchNorm/beta"}, {"dtype": "float32", "shape": [224], "name": "FeatureExtractor/InceptionV2/Mixed_4b/Branch_0/Conv2d_0a_1x1/BatchNorm/moving_mean"}, {"dtype": "float32", "shape": [224], "name": "FeatureExtractor/InceptionV2/Mixed_4b/Branch_0/Conv2d_0a_1x1/BatchNorm/moving_variance"}, {"dtype": "float32", "shape": [1, 1, 576, 64], "name": "FeatureExtractor/InceptionV2/Mixed_4b/Branch_1/Conv2d_0a_1x1/weights"}, {"dtype": "float32", "shape": [64], "name": "FeatureExtractor/InceptionV2/Mixed_4b/Branch_1/Conv2d_0a_1x1/BatchNorm/gamma"}, {"dtype": "float32", "shape": [64], "name": "FeatureExtractor/InceptionV2/Mixed_4b/Branch_1/Conv2d_0a_1x1/BatchNorm/beta"}, {"dtype": "float32", "shape": [64], "name": "FeatureExtractor/InceptionV2/Mixed_4b/Branch_1/Conv2d_0a_1x1/BatchNorm/moving_mean"}, {"dtype": "float32", "shape": [64], "name": "FeatureExtractor/InceptionV2/Mixed_4b/Branch_1/Conv2d_0a_1x1/BatchNorm/moving_variance"}, {"dtype": "float32", "shape": [3, 3, 64, 96], "name": "FeatureExtractor/InceptionV2/Mixed_4b/Branch_1/Conv2d_0b_3x3/weights"}, {"dtype": "float32", "shape": [96], "name": "FeatureExtractor/InceptionV2/Mixed_4b/Branch_1/Conv2d_0b_3x3/BatchNorm/gamma"}, {"dtype": "float32", "shape": [96], "name": "FeatureExtractor/InceptionV2/Mixed_4b/Branch_1/Conv2d_0b_3x3/BatchNorm/beta"}, {"dtype": "float32", "shape": [96], "name": "FeatureExtractor/InceptionV2/Mixed_4b/Branch_1/Conv2d_0b_3x3/BatchNorm/moving_mean"}, {"dtype": "float32", "shape": [96], "name": "FeatureExtractor/InceptionV2/Mixed_4b/Branch_1/Conv2d_0b_3x3/BatchNorm/moving_variance"}, {"dtype": "float32", "shape": [1, 1, 576, 96], "name": "FeatureExtractor/InceptionV2/Mixed_4b/Branch_2/Conv2d_0a_1x1/weights"}, {"dtype": "float32", "shape": [96], "name": "FeatureExtractor/InceptionV2/Mixed_4b/Branch_2/Conv2d_0a_1x1/BatchNorm/gamma"}, {"dtype": "float32", "shape": [96], "name": "FeatureExtractor/InceptionV2/Mixed_4b/Branch_2/Conv2d_0a_1x1/BatchNorm/beta"}, {"dtype": "float32", "shape": [96], "name": "FeatureExtractor/InceptionV2/Mixed_4b/Branch_2/Conv2d_0a_1x1/BatchNorm/moving_mean"}, {"dtype": "float32", "shape": [96], "name": "FeatureExtractor/InceptionV2/Mixed_4b/Branch_2/Conv2d_0a_1x1/BatchNorm/moving_variance"}, {"dtype": "float32", "shape": [3, 3, 96, 128], "name": "FeatureExtractor/InceptionV2/Mixed_4b/Branch_2/Conv2d_0b_3x3/weights"}, {"dtype": "float32", "shape": [128], "name": "FeatureExtractor/InceptionV2/Mixed_4b/Branch_2/Conv2d_0b_3x3/BatchNorm/gamma"}, {"dtype": "float32", "shape": [128], "name": "FeatureExtractor/InceptionV2/Mixed_4b/Branch_2/Conv2d_0b_3x3/BatchNorm/beta"}, {"dtype": "float32", "shape": [128], "name": "FeatureExtractor/InceptionV2/Mixed_4b/Branch_2/Conv2d_0b_3x3/BatchNorm/moving_mean"}, {"dtype": "float32", "shape": [128], "name": "FeatureExtractor/InceptionV2/Mixed_4b/Branch_2/Conv2d_0b_3x3/BatchNorm/moving_variance"}, {"dtype": "float32", "shape": [3, 3, 128, 128], "name": "FeatureExtractor/InceptionV2/Mixed_4b/Branch_2/Conv2d_0c_3x3/weights"}, {"dtype": "float32", "shape": [128], "name": "FeatureExtractor/InceptionV2/Mixed_4b/Branch_2/Conv2d_0c_3x3/BatchNorm/gamma"}, {"dtype": "float32", "shape": [128], "name": "FeatureExtractor/InceptionV2/Mixed_4b/Branch_2/Conv2d_0c_3x3/BatchNorm/beta"}, {"dtype": "float32", "shape": [128], "name": "FeatureExtractor/InceptionV2/Mixed_4b/Branch_2/Conv2d_0c_3x3/BatchNorm/moving_mean"}, {"dtype": "float32", "shape": [128], "name": "FeatureExtractor/InceptionV2/Mixed_4b/Branch_2/Conv2d_0c_3x3/BatchNorm/moving_variance"}, {"dtype": "float32", "shape": [1, 1, 576, 128], "name": "FeatureExtractor/InceptionV2/Mixed_4b/Branch_3/Conv2d_0b_1x1/weights"}, {"dtype": "float32", "shape": [128], "name": "FeatureExtractor/InceptionV2/Mixed_4b/Branch_3/Conv2d_0b_1x1/BatchNorm/gamma"}, {"dtype": "float32", "shape": [128], "name": "FeatureExtractor/InceptionV2/Mixed_4b/Branch_3/Conv2d_0b_1x1/BatchNorm/beta"}, {"dtype": "float32", "shape": [128], "name": "FeatureExtractor/InceptionV2/Mixed_4b/Branch_3/Conv2d_0b_1x1/BatchNorm/moving_mean"}, {"dtype": "float32", "shape": [128], "name": "FeatureExtractor/InceptionV2/Mixed_4b/Branch_3/Conv2d_0b_1x1/BatchNorm/moving_variance"}, {"dtype": "float32", "shape": [1, 1, 576, 192], "name": "FeatureExtractor/InceptionV2/Mixed_4c/Branch_0/Conv2d_0a_1x1/weights"}, {"dtype": "float32", "shape": [192], "name": "FeatureExtractor/InceptionV2/Mixed_4c/Branch_0/Conv2d_0a_1x1/BatchNorm/gamma"}, {"dtype": "float32", "shape": [192], "name": "FeatureExtractor/InceptionV2/Mixed_4c/Branch_0/Conv2d_0a_1x1/BatchNorm/beta"}, {"dtype": "float32", "shape": [192], "name": "FeatureExtractor/InceptionV2/Mixed_4c/Branch_0/Conv2d_0a_1x1/BatchNorm/moving_mean"}, {"dtype": "float32", "shape": [192], "name": "FeatureExtractor/InceptionV2/Mixed_4c/Branch_0/Conv2d_0a_1x1/BatchNorm/moving_variance"}, {"dtype": "float32", "shape": [1, 1, 576, 96], "name": "FeatureExtractor/InceptionV2/Mixed_4c/Branch_1/Conv2d_0a_1x1/weights"}, {"dtype": "float32", "shape": [96], "name": "FeatureExtractor/InceptionV2/Mixed_4c/Branch_1/Conv2d_0a_1x1/BatchNorm/gamma"}, {"dtype": "float32", "shape": [96], "name": "FeatureExtractor/InceptionV2/Mixed_4c/Branch_1/Conv2d_0a_1x1/BatchNorm/beta"}, {"dtype": "float32", "shape": [96], "name": "FeatureExtractor/InceptionV2/Mixed_4c/Branch_1/Conv2d_0a_1x1/BatchNorm/moving_mean"}, {"dtype": "float32", "shape": [96], "name": "FeatureExtractor/InceptionV2/Mixed_4c/Branch_1/Conv2d_0a_1x1/BatchNorm/moving_variance"}, {"dtype": "float32", "shape": [3, 3, 96, 128], "name": "FeatureExtractor/InceptionV2/Mixed_4c/Branch_1/Conv2d_0b_3x3/weights"}, {"dtype": "float32", "shape": [128], "name": "FeatureExtractor/InceptionV2/Mixed_4c/Branch_1/Conv2d_0b_3x3/BatchNorm/gamma"}, {"dtype": "float32", "shape": [128], "name": "FeatureExtractor/InceptionV2/Mixed_4c/Branch_1/Conv2d_0b_3x3/BatchNorm/beta"}, {"dtype": "float32", "shape": [128], "name": "FeatureExtractor/InceptionV2/Mixed_4c/Branch_1/Conv2d_0b_3x3/BatchNorm/moving_mean"}, {"dtype": "float32", "shape": [128], "name": "FeatureExtractor/InceptionV2/Mixed_4c/Branch_1/Conv2d_0b_3x3/BatchNorm/moving_variance"}, {"dtype": "float32", "shape": [1, 1, 576, 96], "name": "FeatureExtractor/InceptionV2/Mixed_4c/Branch_2/Conv2d_0a_1x1/weights"}, {"dtype": "float32", "shape": [96], "name": "FeatureExtractor/InceptionV2/Mixed_4c/Branch_2/Conv2d_0a_1x1/BatchNorm/gamma"}, {"dtype": "float32", "shape": [96], "name": "FeatureExtractor/InceptionV2/Mixed_4c/Branch_2/Conv2d_0a_1x1/BatchNorm/beta"}, {"dtype": "float32", "shape": [96], "name": "FeatureExtractor/InceptionV2/Mixed_4c/Branch_2/Conv2d_0a_1x1/BatchNorm/moving_mean"}, {"dtype": "float32", "shape": [96], "name": "FeatureExtractor/InceptionV2/Mixed_4c/Branch_2/Conv2d_0a_1x1/BatchNorm/moving_variance"}, {"dtype": "float32", "shape": [3, 3, 96, 128], "name": "FeatureExtractor/InceptionV2/Mixed_4c/Branch_2/Conv2d_0b_3x3/weights"}, {"dtype": "float32", "shape": [128], "name": "FeatureExtractor/InceptionV2/Mixed_4c/Branch_2/Conv2d_0b_3x3/BatchNorm/gamma"}, {"dtype": "float32", "shape": [128], "name": "FeatureExtractor/InceptionV2/Mixed_4c/Branch_2/Conv2d_0b_3x3/BatchNorm/beta"}, {"dtype": "float32", "shape": [128], "name": "FeatureExtractor/InceptionV2/Mixed_4c/Branch_2/Conv2d_0b_3x3/BatchNorm/moving_mean"}, {"dtype": "float32", "shape": [128], "name": "FeatureExtractor/InceptionV2/Mixed_4c/Branch_2/Conv2d_0b_3x3/BatchNorm/moving_variance"}, {"dtype": "float32", "shape": [3, 3, 128, 128], "name": "FeatureExtractor/InceptionV2/Mixed_4c/Branch_2/Conv2d_0c_3x3/weights"}, {"dtype": "float32", "shape": [128], "name": "FeatureExtractor/InceptionV2/Mixed_4c/Branch_2/Conv2d_0c_3x3/BatchNorm/gamma"}, {"dtype": "float32", "shape": [128], "name": "FeatureExtractor/InceptionV2/Mixed_4c/Branch_2/Conv2d_0c_3x3/BatchNorm/beta"}, {"dtype": "float32", "shape": [128], "name": "FeatureExtractor/InceptionV2/Mixed_4c/Branch_2/Conv2d_0c_3x3/BatchNorm/moving_mean"}, {"dtype": "float32", "shape": [128], "name": "FeatureExtractor/InceptionV2/Mixed_4c/Branch_2/Conv2d_0c_3x3/BatchNorm/moving_variance"}, {"dtype": "float32", "shape": [1, 1, 576, 128], "name": "FeatureExtractor/InceptionV2/Mixed_4c/Branch_3/Conv2d_0b_1x1/weights"}, {"dtype": "float32", "shape": [128], "name": "FeatureExtractor/InceptionV2/Mixed_4c/Branch_3/Conv2d_0b_1x1/BatchNorm/gamma"}, {"dtype": "float32", "shape": [128], "name": "FeatureExtractor/InceptionV2/Mixed_4c/Branch_3/Conv2d_0b_1x1/BatchNorm/beta"}, {"dtype": "float32", "shape": [128], "name": "FeatureExtractor/InceptionV2/Mixed_4c/Branch_3/Conv2d_0b_1x1/BatchNorm/moving_mean"}, {"dtype": "float32", "shape": [128], "name": "FeatureExtractor/InceptionV2/Mixed_4c/Branch_3/Conv2d_0b_1x1/BatchNorm/moving_variance"}, {"dtype": "float32", "shape": [3, 3, 576, 12], "name": "BoxPredictor_0/BoxEncodingPredictor/weights"}, {"dtype": "float32", "shape": [12], "name": "BoxPredictor_0/BoxEncodingPredictor/biases"}, {"dtype": "float32", "shape": [1, 1, 576, 160], "name": "FeatureExtractor/InceptionV2/Mixed_4d/Branch_0/Conv2d_0a_1x1/weights"}, {"dtype": "float32", "shape": [160], "name": "FeatureExtractor/InceptionV2/Mixed_4d/Branch_0/Conv2d_0a_1x1/BatchNorm/gamma"}, {"dtype": "float32", "shape": [160], "name": "FeatureExtractor/InceptionV2/Mixed_4d/Branch_0/Conv2d_0a_1x1/BatchNorm/beta"}, {"dtype": "float32", "shape": [160], "name": "FeatureExtractor/InceptionV2/Mixed_4d/Branch_0/Conv2d_0a_1x1/BatchNorm/moving_mean"}, {"dtype": "float32", "shape": [160], "name": "FeatureExtractor/InceptionV2/Mixed_4d/Branch_0/Conv2d_0a_1x1/BatchNorm/moving_variance"}, {"dtype": "float32", "shape": [1, 1, 576, 128], "name": "FeatureExtractor/InceptionV2/Mixed_4d/Branch_1/Conv2d_0a_1x1/weights"}, {"dtype": "float32", "shape": [128], "name": "FeatureExtractor/InceptionV2/Mixed_4d/Branch_1/Conv2d_0a_1x1/BatchNorm/gamma"}, {"dtype": "float32", "shape": [128], "name": "FeatureExtractor/InceptionV2/Mixed_4d/Branch_1/Conv2d_0a_1x1/BatchNorm/beta"}, {"dtype": "float32", "shape": [128], "name": "FeatureExtractor/InceptionV2/Mixed_4d/Branch_1/Conv2d_0a_1x1/BatchNorm/moving_mean"}, {"dtype": "float32", "shape": [128], "name": "FeatureExtractor/InceptionV2/Mixed_4d/Branch_1/Conv2d_0a_1x1/BatchNorm/moving_variance"}, {"dtype": "float32", "shape": [3, 3, 128, 160], "name": "FeatureExtractor/InceptionV2/Mixed_4d/Branch_1/Conv2d_0b_3x3/weights"}, {"dtype": "float32", "shape": [160], "name": "FeatureExtractor/InceptionV2/Mixed_4d/Branch_1/Conv2d_0b_3x3/BatchNorm/gamma"}, {"dtype": "float32", "shape": [160], "name": "FeatureExtractor/InceptionV2/Mixed_4d/Branch_1/Conv2d_0b_3x3/BatchNorm/beta"}, {"dtype": "float32", "shape": [160], "name": "FeatureExtractor/InceptionV2/Mixed_4d/Branch_1/Conv2d_0b_3x3/BatchNorm/moving_mean"}, {"dtype": "float32", "shape": [160], "name": "FeatureExtractor/InceptionV2/Mixed_4d/Branch_1/Conv2d_0b_3x3/BatchNorm/moving_variance"}, {"dtype": "float32", "shape": [1, 1, 576, 128], "name": "FeatureExtractor/InceptionV2/Mixed_4d/Branch_2/Conv2d_0a_1x1/weights"}, {"dtype": "float32", "shape": [128], "name": "FeatureExtractor/InceptionV2/Mixed_4d/Branch_2/Conv2d_0a_1x1/BatchNorm/gamma"}, {"dtype": "float32", "shape": [128], "name": "FeatureExtractor/InceptionV2/Mixed_4d/Branch_2/Conv2d_0a_1x1/BatchNorm/beta"}, {"dtype": "float32", "shape": [128], "name": "FeatureExtractor/InceptionV2/Mixed_4d/Branch_2/Conv2d_0a_1x1/BatchNorm/moving_mean"}, {"dtype": "float32", "shape": [128], "name": "FeatureExtractor/InceptionV2/Mixed_4d/Branch_2/Conv2d_0a_1x1/BatchNorm/moving_variance"}, {"dtype": "float32", "shape": [3, 3, 128, 160], "name": "FeatureExtractor/InceptionV2/Mixed_4d/Branch_2/Conv2d_0b_3x3/weights"}, {"dtype": "float32", "shape": [160], "name": "FeatureExtractor/InceptionV2/Mixed_4d/Branch_2/Conv2d_0b_3x3/BatchNorm/gamma"}, {"dtype": "float32", "shape": [160], "name": "FeatureExtractor/InceptionV2/Mixed_4d/Branch_2/Conv2d_0b_3x3/BatchNorm/beta"}, {"dtype": "float32", "shape": [160], "name": "FeatureExtractor/InceptionV2/Mixed_4d/Branch_2/Conv2d_0b_3x3/BatchNorm/moving_mean"}, {"dtype": "float32", "shape": [160], "name": "FeatureExtractor/InceptionV2/Mixed_4d/Branch_2/Conv2d_0b_3x3/BatchNorm/moving_variance"}, {"dtype": "float32", "shape": [3, 3, 160, 160], "name": "FeatureExtractor/InceptionV2/Mixed_4d/Branch_2/Conv2d_0c_3x3/weights"}, {"dtype": "float32", "shape": [160], "name": "FeatureExtractor/InceptionV2/Mixed_4d/Branch_2/Conv2d_0c_3x3/BatchNorm/gamma"}, {"dtype": "float32", "shape": [160], "name": "FeatureExtractor/InceptionV2/Mixed_4d/Branch_2/Conv2d_0c_3x3/BatchNorm/beta"}, {"dtype": "float32", "shape": [160], "name": "FeatureExtractor/InceptionV2/Mixed_4d/Branch_2/Conv2d_0c_3x3/BatchNorm/moving_mean"}, {"dtype": "float32", "shape": [160], "name": "FeatureExtractor/InceptionV2/Mixed_4d/Branch_2/Conv2d_0c_3x3/BatchNorm/moving_variance"}, {"dtype": "float32", "shape": [1, 1, 576, 96], "name": "FeatureExtractor/InceptionV2/Mixed_4d/Branch_3/Conv2d_0b_1x1/weights"}, {"dtype": "float32", "shape": [96], "name": "FeatureExtractor/InceptionV2/Mixed_4d/Branch_3/Conv2d_0b_1x1/BatchNorm/gamma"}, {"dtype": "float32", "shape": [96], "name": "FeatureExtractor/InceptionV2/Mixed_4d/Branch_3/Conv2d_0b_1x1/BatchNorm/beta"}, {"dtype": "float32", "shape": [96], "name": "FeatureExtractor/InceptionV2/Mixed_4d/Branch_3/Conv2d_0b_1x1/BatchNorm/moving_mean"}, {"dtype": "float32", "shape": [96], "name": "FeatureExtractor/InceptionV2/Mixed_4d/Branch_3/Conv2d_0b_1x1/BatchNorm/moving_variance"}, {"dtype": "float32", "shape": [1, 1, 576, 96], "name": "FeatureExtractor/InceptionV2/Mixed_4e/Branch_0/Conv2d_0a_1x1/weights"}, {"dtype": "float32", "shape": [96], "name": "FeatureExtractor/InceptionV2/Mixed_4e/Branch_0/Conv2d_0a_1x1/BatchNorm/gamma"}, {"dtype": "float32", "shape": [96], "name": "FeatureExtractor/InceptionV2/Mixed_4e/Branch_0/Conv2d_0a_1x1/BatchNorm/beta"}, {"dtype": "float32", "shape": [96], "name": "FeatureExtractor/InceptionV2/Mixed_4e/Branch_0/Conv2d_0a_1x1/BatchNorm/moving_mean"}, {"dtype": "float32", "shape": [96], "name": "FeatureExtractor/InceptionV2/Mixed_4e/Branch_0/Conv2d_0a_1x1/BatchNorm/moving_variance"}, {"dtype": "float32", "shape": [1, 1, 576, 128], "name": "FeatureExtractor/InceptionV2/Mixed_4e/Branch_1/Conv2d_0a_1x1/weights"}, {"dtype": "float32", "shape": [128], "name": "FeatureExtractor/InceptionV2/Mixed_4e/Branch_1/Conv2d_0a_1x1/BatchNorm/gamma"}, {"dtype": "float32", "shape": [128], "name": "FeatureExtractor/InceptionV2/Mixed_4e/Branch_1/Conv2d_0a_1x1/BatchNorm/beta"}, {"dtype": "float32", "shape": [128], "name": "FeatureExtractor/InceptionV2/Mixed_4e/Branch_1/Conv2d_0a_1x1/BatchNorm/moving_mean"}, {"dtype": "float32", "shape": [128], "name": "FeatureExtractor/InceptionV2/Mixed_4e/Branch_1/Conv2d_0a_1x1/BatchNorm/moving_variance"}, {"dtype": "float32", "shape": [3, 3, 128, 192], "name": "FeatureExtractor/InceptionV2/Mixed_4e/Branch_1/Conv2d_0b_3x3/weights"}, {"dtype": "float32", "shape": [192], "name": "FeatureExtractor/InceptionV2/Mixed_4e/Branch_1/Conv2d_0b_3x3/BatchNorm/gamma"}, {"dtype": "float32", "shape": [192], "name": "FeatureExtractor/InceptionV2/Mixed_4e/Branch_1/Conv2d_0b_3x3/BatchNorm/beta"}, {"dtype": "float32", "shape": [192], "name": "FeatureExtractor/InceptionV2/Mixed_4e/Branch_1/Conv2d_0b_3x3/BatchNorm/moving_mean"}, {"dtype": "float32", "shape": [192], "name": "FeatureExtractor/InceptionV2/Mixed_4e/Branch_1/Conv2d_0b_3x3/BatchNorm/moving_variance"}, {"dtype": "float32", "shape": [1, 1, 576, 160], "name": "FeatureExtractor/InceptionV2/Mixed_4e/Branch_2/Conv2d_0a_1x1/weights"}, {"dtype": "float32", "shape": [160], "name": "FeatureExtractor/InceptionV2/Mixed_4e/Branch_2/Conv2d_0a_1x1/BatchNorm/gamma"}, {"dtype": "float32", "shape": [160], "name": "FeatureExtractor/InceptionV2/Mixed_4e/Branch_2/Conv2d_0a_1x1/BatchNorm/beta"}, {"dtype": "float32", "shape": [160], "name": "FeatureExtractor/InceptionV2/Mixed_4e/Branch_2/Conv2d_0a_1x1/BatchNorm/moving_mean"}, {"dtype": "float32", "shape": [160], "name": "FeatureExtractor/InceptionV2/Mixed_4e/Branch_2/Conv2d_0a_1x1/BatchNorm/moving_variance"}, {"dtype": "float32", "shape": [3, 3, 160, 192], "name": "FeatureExtractor/InceptionV2/Mixed_4e/Branch_2/Conv2d_0b_3x3/weights"}, {"dtype": "float32", "shape": [192], "name": "FeatureExtractor/InceptionV2/Mixed_4e/Branch_2/Conv2d_0b_3x3/BatchNorm/gamma"}, {"dtype": "float32", "shape": [192], "name": "FeatureExtractor/InceptionV2/Mixed_4e/Branch_2/Conv2d_0b_3x3/BatchNorm/beta"}, {"dtype": "float32", "shape": [192], "name": "FeatureExtractor/InceptionV2/Mixed_4e/Branch_2/Conv2d_0b_3x3/BatchNorm/moving_mean"}, {"dtype": "float32", "shape": [192], "name": "FeatureExtractor/InceptionV2/Mixed_4e/Branch_2/Conv2d_0b_3x3/BatchNorm/moving_variance"}, {"dtype": "float32", "shape": [3, 3, 192, 192], "name": "FeatureExtractor/InceptionV2/Mixed_4e/Branch_2/Conv2d_0c_3x3/weights"}, {"dtype": "float32", "shape": [192], "name": "FeatureExtractor/InceptionV2/Mixed_4e/Branch_2/Conv2d_0c_3x3/BatchNorm/gamma"}, {"dtype": "float32", "shape": [192], "name": "FeatureExtractor/InceptionV2/Mixed_4e/Branch_2/Conv2d_0c_3x3/BatchNorm/beta"}, {"dtype": "float32", "shape": [192], "name": "FeatureExtractor/InceptionV2/Mixed_4e/Branch_2/Conv2d_0c_3x3/BatchNorm/moving_mean"}, {"dtype": "float32", "shape": [192], "name": "FeatureExtractor/InceptionV2/Mixed_4e/Branch_2/Conv2d_0c_3x3/BatchNorm/moving_variance"}, {"dtype": "float32", "shape": [1, 1, 576, 96], "name": "FeatureExtractor/InceptionV2/Mixed_4e/Branch_3/Conv2d_0b_1x1/weights"}, {"dtype": "float32", "shape": [96], "name": "FeatureExtractor/InceptionV2/Mixed_4e/Branch_3/Conv2d_0b_1x1/BatchNorm/gamma"}, {"dtype": "float32", "shape": [96], "name": "FeatureExtractor/InceptionV2/Mixed_4e/Branch_3/Conv2d_0b_1x1/BatchNorm/beta"}, {"dtype": "float32", "shape": [96], "name": "FeatureExtractor/InceptionV2/Mixed_4e/Branch_3/Conv2d_0b_1x1/BatchNorm/moving_mean"}, {"dtype": "float32", "shape": [96], "name": "FeatureExtractor/InceptionV2/Mixed_4e/Branch_3/Conv2d_0b_1x1/BatchNorm/moving_variance"}, {"dtype": "float32", "shape": [1, 1, 576, 128], "name": "FeatureExtractor/InceptionV2/Mixed_5a/Branch_0/Conv2d_0a_1x1/weights"}, {"dtype": "float32", "shape": [128], "name": "FeatureExtractor/InceptionV2/Mixed_5a/Branch_0/Conv2d_0a_1x1/BatchNorm/gamma"}, {"dtype": "float32", "shape": [128], "name": "FeatureExtractor/InceptionV2/Mixed_5a/Branch_0/Conv2d_0a_1x1/BatchNorm/beta"}, {"dtype": "float32", "shape": [128], "name": "FeatureExtractor/InceptionV2/Mixed_5a/Branch_0/Conv2d_0a_1x1/BatchNorm/moving_mean"}, {"dtype": "float32", "shape": [128], "name": "FeatureExtractor/InceptionV2/Mixed_5a/Branch_0/Conv2d_0a_1x1/BatchNorm/moving_variance"}, {"dtype": "float32", "shape": [3, 3, 128, 192], "name": "FeatureExtractor/InceptionV2/Mixed_5a/Branch_0/Conv2d_1a_3x3/weights"}, {"dtype": "float32", "shape": [192], "name": "FeatureExtractor/InceptionV2/Mixed_5a/Branch_0/Conv2d_1a_3x3/BatchNorm/gamma"}, {"dtype": "float32", "shape": [192], "name": "FeatureExtractor/InceptionV2/Mixed_5a/Branch_0/Conv2d_1a_3x3/BatchNorm/beta"}, {"dtype": "float32", "shape": [192], "name": "FeatureExtractor/InceptionV2/Mixed_5a/Branch_0/Conv2d_1a_3x3/BatchNorm/moving_mean"}, {"dtype": "float32", "shape": [192], "name": "FeatureExtractor/InceptionV2/Mixed_5a/Branch_0/Conv2d_1a_3x3/BatchNorm/moving_variance"}, {"dtype": "float32", "shape": [1, 1, 576, 192], "name": "FeatureExtractor/InceptionV2/Mixed_5a/Branch_1/Conv2d_0a_1x1/weights"}, {"dtype": "float32", "shape": [192], "name": "FeatureExtractor/InceptionV2/Mixed_5a/Branch_1/Conv2d_0a_1x1/BatchNorm/gamma"}, {"dtype": "float32", "shape": [192], "name": "FeatureExtractor/InceptionV2/Mixed_5a/Branch_1/Conv2d_0a_1x1/BatchNorm/beta"}, {"dtype": "float32", "shape": [192], "name": "FeatureExtractor/InceptionV2/Mixed_5a/Branch_1/Conv2d_0a_1x1/BatchNorm/moving_mean"}, {"dtype": "float32", "shape": [192], "name": "FeatureExtractor/InceptionV2/Mixed_5a/Branch_1/Conv2d_0a_1x1/BatchNorm/moving_variance"}, {"dtype": "float32", "shape": [3, 3, 192, 256], "name": "FeatureExtractor/InceptionV2/Mixed_5a/Branch_1/Conv2d_0b_3x3/weights"}, {"dtype": "float32", "shape": [256], "name": "FeatureExtractor/InceptionV2/Mixed_5a/Branch_1/Conv2d_0b_3x3/BatchNorm/gamma"}, {"dtype": "float32", "shape": [256], "name": "FeatureExtractor/InceptionV2/Mixed_5a/Branch_1/Conv2d_0b_3x3/BatchNorm/beta"}, {"dtype": "float32", "shape": [256], "name": "FeatureExtractor/InceptionV2/Mixed_5a/Branch_1/Conv2d_0b_3x3/BatchNorm/moving_mean"}, {"dtype": "float32", "shape": [256], "name": "FeatureExtractor/InceptionV2/Mixed_5a/Branch_1/Conv2d_0b_3x3/BatchNorm/moving_variance"}, {"dtype": "float32", "shape": [3, 3, 256, 256], "name": "FeatureExtractor/InceptionV2/Mixed_5a/Branch_1/Conv2d_1a_3x3/weights"}, {"dtype": "float32", "shape": [256], "name": "FeatureExtractor/InceptionV2/Mixed_5a/Branch_1/Conv2d_1a_3x3/BatchNorm/gamma"}, {"dtype": "float32", "shape": [256], "name": "FeatureExtractor/InceptionV2/Mixed_5a/Branch_1/Conv2d_1a_3x3/BatchNorm/beta"}, {"dtype": "float32", "shape": [256], "name": "FeatureExtractor/InceptionV2/Mixed_5a/Branch_1/Conv2d_1a_3x3/BatchNorm/moving_mean"}, {"dtype": "float32", "shape": [256], "name": "FeatureExtractor/InceptionV2/Mixed_5a/Branch_1/Conv2d_1a_3x3/BatchNorm/moving_variance"}, {"dtype": "float32", "shape": [1, 1, 1024, 352], "name": "FeatureExtractor/InceptionV2/Mixed_5b/Branch_0/Conv2d_0a_1x1/weights"}, {"dtype": "float32", "shape": [352], "name": "FeatureExtractor/InceptionV2/Mixed_5b/Branch_0/Conv2d_0a_1x1/BatchNorm/gamma"}, {"dtype": "float32", "shape": [352], "name": "FeatureExtractor/InceptionV2/Mixed_5b/Branch_0/Conv2d_0a_1x1/BatchNorm/beta"}, {"dtype": "float32", "shape": [352], "name": "FeatureExtractor/InceptionV2/Mixed_5b/Branch_0/Conv2d_0a_1x1/BatchNorm/moving_mean"}, {"dtype": "float32", "shape": [352], "name": "FeatureExtractor/InceptionV2/Mixed_5b/Branch_0/Conv2d_0a_1x1/BatchNorm/moving_variance"}, {"dtype": "float32", "shape": [1, 1, 1024, 192], "name": "FeatureExtractor/InceptionV2/Mixed_5b/Branch_1/Conv2d_0a_1x1/weights"}, {"dtype": "float32", "shape": [192], "name": "FeatureExtractor/InceptionV2/Mixed_5b/Branch_1/Conv2d_0a_1x1/BatchNorm/gamma"}, {"dtype": "float32", "shape": [192], "name": "FeatureExtractor/InceptionV2/Mixed_5b/Branch_1/Conv2d_0a_1x1/BatchNorm/beta"}, {"dtype": "float32", "shape": [192], "name": "FeatureExtractor/InceptionV2/Mixed_5b/Branch_1/Conv2d_0a_1x1/BatchNorm/moving_mean"}, {"dtype": "float32", "shape": [192], "name": "FeatureExtractor/InceptionV2/Mixed_5b/Branch_1/Conv2d_0a_1x1/BatchNorm/moving_variance"}, {"dtype": "float32", "shape": [3, 3, 192, 320], "name": "FeatureExtractor/InceptionV2/Mixed_5b/Branch_1/Conv2d_0b_3x3/weights"}, {"dtype": "float32", "shape": [320], "name": "FeatureExtractor/InceptionV2/Mixed_5b/Branch_1/Conv2d_0b_3x3/BatchNorm/gamma"}, {"dtype": "float32", "shape": [320], "name": "FeatureExtractor/InceptionV2/Mixed_5b/Branch_1/Conv2d_0b_3x3/BatchNorm/beta"}, {"dtype": "float32", "shape": [320], "name": "FeatureExtractor/InceptionV2/Mixed_5b/Branch_1/Conv2d_0b_3x3/BatchNorm/moving_mean"}, {"dtype": "float32", "shape": [320], "name": "FeatureExtractor/InceptionV2/Mixed_5b/Branch_1/Conv2d_0b_3x3/BatchNorm/moving_variance"}, {"dtype": "float32", "shape": [1, 1, 1024, 160], "name": "FeatureExtractor/InceptionV2/Mixed_5b/Branch_2/Conv2d_0a_1x1/weights"}, {"dtype": "float32", "shape": [160], "name": "FeatureExtractor/InceptionV2/Mixed_5b/Branch_2/Conv2d_0a_1x1/BatchNorm/gamma"}, {"dtype": "float32", "shape": [160], "name": "FeatureExtractor/InceptionV2/Mixed_5b/Branch_2/Conv2d_0a_1x1/BatchNorm/beta"}, {"dtype": "float32", "shape": [160], "name": "FeatureExtractor/InceptionV2/Mixed_5b/Branch_2/Conv2d_0a_1x1/BatchNorm/moving_mean"}, {"dtype": "float32", "shape": [160], "name": "FeatureExtractor/InceptionV2/Mixed_5b/Branch_2/Conv2d_0a_1x1/BatchNorm/moving_variance"}, {"dtype": "float32", "shape": [3, 3, 160, 224], "name": "FeatureExtractor/InceptionV2/Mixed_5b/Branch_2/Conv2d_0b_3x3/weights"}, {"dtype": "float32", "shape": [224], "name": "FeatureExtractor/InceptionV2/Mixed_5b/Branch_2/Conv2d_0b_3x3/BatchNorm/gamma"}, {"dtype": "float32", "shape": [224], "name": "FeatureExtractor/InceptionV2/Mixed_5b/Branch_2/Conv2d_0b_3x3/BatchNorm/beta"}, {"dtype": "float32", "shape": [224], "name": "FeatureExtractor/InceptionV2/Mixed_5b/Branch_2/Conv2d_0b_3x3/BatchNorm/moving_mean"}, {"dtype": "float32", "shape": [224], "name": "FeatureExtractor/InceptionV2/Mixed_5b/Branch_2/Conv2d_0b_3x3/BatchNorm/moving_variance"}, {"dtype": "float32", "shape": [3, 3, 224, 224], "name": "FeatureExtractor/InceptionV2/Mixed_5b/Branch_2/Conv2d_0c_3x3/weights"}, {"dtype": "float32", "shape": [224], "name": "FeatureExtractor/InceptionV2/Mixed_5b/Branch_2/Conv2d_0c_3x3/BatchNorm/gamma"}, {"dtype": "float32", "shape": [224], "name": "FeatureExtractor/InceptionV2/Mixed_5b/Branch_2/Conv2d_0c_3x3/BatchNorm/beta"}, {"dtype": "float32", "shape": [224], "name": "FeatureExtractor/InceptionV2/Mixed_5b/Branch_2/Conv2d_0c_3x3/BatchNorm/moving_mean"}, {"dtype": "float32", "shape": [224], "name": "FeatureExtractor/InceptionV2/Mixed_5b/Branch_2/Conv2d_0c_3x3/BatchNorm/moving_variance"}, {"dtype": "float32", "shape": [1, 1, 1024, 128], "name": "FeatureExtractor/InceptionV2/Mixed_5b/Branch_3/Conv2d_0b_1x1/weights"}, {"dtype": "float32", "shape": [128], "name": "FeatureExtractor/InceptionV2/Mixed_5b/Branch_3/Conv2d_0b_1x1/BatchNorm/gamma"}, {"dtype": "float32", "shape": [128], "name": "FeatureExtractor/InceptionV2/Mixed_5b/Branch_3/Conv2d_0b_1x1/BatchNorm/beta"}, {"dtype": "float32", "shape": [128], "name": "FeatureExtractor/InceptionV2/Mixed_5b/Branch_3/Conv2d_0b_1x1/BatchNorm/moving_mean"}, {"dtype": "float32", "shape": [128], "name": "FeatureExtractor/InceptionV2/Mixed_5b/Branch_3/Conv2d_0b_1x1/BatchNorm/moving_variance"}, {"dtype": "float32", "shape": [1, 1, 1024, 352], "name": "FeatureExtractor/InceptionV2/Mixed_5c/Branch_0/Conv2d_0a_1x1/weights"}, {"dtype": "float32", "shape": [352], "name": "FeatureExtractor/InceptionV2/Mixed_5c/Branch_0/Conv2d_0a_1x1/BatchNorm/gamma"}, {"dtype": "float32", "shape": [352], "name": "FeatureExtractor/InceptionV2/Mixed_5c/Branch_0/Conv2d_0a_1x1/BatchNorm/beta"}, {"dtype": "float32", "shape": [352], "name": "FeatureExtractor/InceptionV2/Mixed_5c/Branch_0/Conv2d_0a_1x1/BatchNorm/moving_mean"}, {"dtype": "float32", "shape": [352], "name": "FeatureExtractor/InceptionV2/Mixed_5c/Branch_0/Conv2d_0a_1x1/BatchNorm/moving_variance"}, {"dtype": "float32", "shape": [1, 1, 1024, 192], "name": "FeatureExtractor/InceptionV2/Mixed_5c/Branch_1/Conv2d_0a_1x1/weights"}, {"dtype": "float32", "shape": [192], "name": "FeatureExtractor/InceptionV2/Mixed_5c/Branch_1/Conv2d_0a_1x1/BatchNorm/gamma"}, {"dtype": "float32", "shape": [192], "name": "FeatureExtractor/InceptionV2/Mixed_5c/Branch_1/Conv2d_0a_1x1/BatchNorm/beta"}, {"dtype": "float32", "shape": [192], "name": "FeatureExtractor/InceptionV2/Mixed_5c/Branch_1/Conv2d_0a_1x1/BatchNorm/moving_mean"}, {"dtype": "float32", "shape": [192], "name": "FeatureExtractor/InceptionV2/Mixed_5c/Branch_1/Conv2d_0a_1x1/BatchNorm/moving_variance"}, {"dtype": "float32", "shape": [3, 3, 192, 320], "name": "FeatureExtractor/InceptionV2/Mixed_5c/Branch_1/Conv2d_0b_3x3/weights"}, {"dtype": "float32", "shape": [320], "name": "FeatureExtractor/InceptionV2/Mixed_5c/Branch_1/Conv2d_0b_3x3/BatchNorm/gamma"}, {"dtype": "float32", "shape": [320], "name": "FeatureExtractor/InceptionV2/Mixed_5c/Branch_1/Conv2d_0b_3x3/BatchNorm/beta"}, {"dtype": "float32", "shape": [320], "name": "FeatureExtractor/InceptionV2/Mixed_5c/Branch_1/Conv2d_0b_3x3/BatchNorm/moving_mean"}, {"dtype": "float32", "shape": [320], "name": "FeatureExtractor/InceptionV2/Mixed_5c/Branch_1/Conv2d_0b_3x3/BatchNorm/moving_variance"}, {"dtype": "float32", "shape": [1, 1, 1024, 192], "name": "FeatureExtractor/InceptionV2/Mixed_5c/Branch_2/Conv2d_0a_1x1/weights"}, {"dtype": "float32", "shape": [192], "name": "FeatureExtractor/InceptionV2/Mixed_5c/Branch_2/Conv2d_0a_1x1/BatchNorm/gamma"}, {"dtype": "float32", "shape": [192], "name": "FeatureExtractor/InceptionV2/Mixed_5c/Branch_2/Conv2d_0a_1x1/BatchNorm/beta"}, {"dtype": "float32", "shape": [192], "name": "FeatureExtractor/InceptionV2/Mixed_5c/Branch_2/Conv2d_0a_1x1/BatchNorm/moving_mean"}, {"dtype": "float32", "shape": [192], "name": "FeatureExtractor/InceptionV2/Mixed_5c/Branch_2/Conv2d_0a_1x1/BatchNorm/moving_variance"}, {"dtype": "float32", "shape": [3, 3, 192, 224], "name": "FeatureExtractor/InceptionV2/Mixed_5c/Branch_2/Conv2d_0b_3x3/weights"}, {"dtype": "float32", "shape": [224], "name": "FeatureExtractor/InceptionV2/Mixed_5c/Branch_2/Conv2d_0b_3x3/BatchNorm/gamma"}, {"dtype": "float32", "shape": [224], "name": "FeatureExtractor/InceptionV2/Mixed_5c/Branch_2/Conv2d_0b_3x3/BatchNorm/beta"}, {"dtype": "float32", "shape": [224], "name": "FeatureExtractor/InceptionV2/Mixed_5c/Branch_2/Conv2d_0b_3x3/BatchNorm/moving_mean"}, {"dtype": "float32", "shape": [224], "name": "FeatureExtractor/InceptionV2/Mixed_5c/Branch_2/Conv2d_0b_3x3/BatchNorm/moving_variance"}, {"dtype": "float32", "shape": [3, 3, 224, 224], "name": "FeatureExtractor/InceptionV2/Mixed_5c/Branch_2/Conv2d_0c_3x3/weights"}, {"dtype": "float32", "shape": [224], "name": "FeatureExtractor/InceptionV2/Mixed_5c/Branch_2/Conv2d_0c_3x3/BatchNorm/gamma"}, {"dtype": "float32", "shape": [224], "name": "FeatureExtractor/InceptionV2/Mixed_5c/Branch_2/Conv2d_0c_3x3/BatchNorm/beta"}, {"dtype": "float32", "shape": [224], "name": "FeatureExtractor/InceptionV2/Mixed_5c/Branch_2/Conv2d_0c_3x3/BatchNorm/moving_mean"}, {"dtype": "float32", "shape": [224], "name": "FeatureExtractor/InceptionV2/Mixed_5c/Branch_2/Conv2d_0c_3x3/BatchNorm/moving_variance"}, {"dtype": "float32", "shape": [1, 1, 1024, 128], "name": "FeatureExtractor/InceptionV2/Mixed_5c/Branch_3/Conv2d_0b_1x1/weights"}, {"dtype": "float32", "shape": [128], "name": "FeatureExtractor/InceptionV2/Mixed_5c/Branch_3/Conv2d_0b_1x1/BatchNorm/gamma"}, {"dtype": "float32", "shape": [128], "name": "FeatureExtractor/InceptionV2/Mixed_5c/Branch_3/Conv2d_0b_1x1/BatchNorm/beta"}, {"dtype": "float32", "shape": [128], "name": "FeatureExtractor/InceptionV2/Mixed_5c/Branch_3/Conv2d_0b_1x1/BatchNorm/moving_mean"}, {"dtype": "float32", "shape": [128], "name": "FeatureExtractor/InceptionV2/Mixed_5c/Branch_3/Conv2d_0b_1x1/BatchNorm/moving_variance"}, {"dtype": "int32", "shape": [], "name": "FeatureExtractor/InceptionV2/InceptionV2/Mixed_5c/concat/axis"}, {"dtype": "float32", "shape": [3, 3, 1024, 24], "name": "BoxPredictor_1/BoxEncodingPredictor/weights"}, {"dtype": "float32", "shape": [24], "name": "BoxPredictor_1/BoxEncodingPredictor/biases"}, {"dtype": "float32", "shape": [1, 1, 1024, 256], "name": "FeatureExtractor/InceptionV2/Mixed_5c_1_Conv2d_2_1x1_256/weights"}, {"dtype": "float32", "shape": [256], "name": "FeatureExtractor/InceptionV2/Mixed_5c_1_Conv2d_2_1x1_256/BatchNorm/gamma"}, {"dtype": "float32", "shape": [256], "name": "FeatureExtractor/InceptionV2/Mixed_5c_1_Conv2d_2_1x1_256/BatchNorm/beta"}, {"dtype": "float32", "shape": [256], "name": "FeatureExtractor/InceptionV2/Mixed_5c_1_Conv2d_2_1x1_256/BatchNorm/moving_mean"}, {"dtype": "float32", "shape": [256], "name": "FeatureExtractor/InceptionV2/Mixed_5c_1_Conv2d_2_1x1_256/BatchNorm/moving_variance"}, {"dtype": "float32", "shape": [3, 3, 256, 512], "name": "FeatureExtractor/InceptionV2/Mixed_5c_2_Conv2d_2_3x3_s2_512/weights"}, {"dtype": "float32", "shape": [512], "name": "FeatureExtractor/InceptionV2/Mixed_5c_2_Conv2d_2_3x3_s2_512/BatchNorm/gamma"}, {"dtype": "float32", "shape": [512], "name": "FeatureExtractor/InceptionV2/Mixed_5c_2_Conv2d_2_3x3_s2_512/BatchNorm/beta"}, {"dtype": "float32", "shape": [512], "name": "FeatureExtractor/InceptionV2/Mixed_5c_2_Conv2d_2_3x3_s2_512/BatchNorm/moving_mean"}, {"dtype": "float32", "shape": [512], "name": "FeatureExtractor/InceptionV2/Mixed_5c_2_Conv2d_2_3x3_s2_512/BatchNorm/moving_variance"}, {"dtype": "float32", "shape": [3, 3, 512, 24], "name": "BoxPredictor_2/BoxEncodingPredictor/weights"}, {"dtype": "float32", "shape": [24], "name": "BoxPredictor_2/BoxEncodingPredictor/biases"}, {"dtype": "float32", "shape": [3, 3, 256, 24], "name": "BoxPredictor_3/BoxEncodingPredictor/weights"}, {"dtype": "float32", "shape": [24], "name": "BoxPredictor_3/BoxEncodingPredictor/biases"}, {"dtype": "float32", "shape": [1, 1, 256, 128], "name": "FeatureExtractor/InceptionV2/Mixed_5c_1_Conv2d_4_1x1_128/weights"}, {"dtype": "float32", "shape": [128], "name": "FeatureExtractor/InceptionV2/Mixed_5c_1_Conv2d_4_1x1_128/BatchNorm/gamma"}, {"dtype": "float32", "shape": [128], "name": "FeatureExtractor/InceptionV2/Mixed_5c_1_Conv2d_4_1x1_128/BatchNorm/beta"}, {"dtype": "float32", "shape": [128], "name": "FeatureExtractor/InceptionV2/Mixed_5c_1_Conv2d_4_1x1_128/BatchNorm/moving_mean"}, {"dtype": "float32", "shape": [128], "name": "FeatureExtractor/InceptionV2/Mixed_5c_1_Conv2d_4_1x1_128/BatchNorm/moving_variance"}, {"dtype": "float32", "shape": [3, 3, 128, 256], "name": "FeatureExtractor/InceptionV2/Mixed_5c_2_Conv2d_4_3x3_s2_256/weights"}, {"dtype": "float32", "shape": [256], "name": "FeatureExtractor/InceptionV2/Mixed_5c_2_Conv2d_4_3x3_s2_256/BatchNorm/gamma"}, {"dtype": "float32", "shape": [256], "name": "FeatureExtractor/InceptionV2/Mixed_5c_2_Conv2d_4_3x3_s2_256/BatchNorm/beta"}, {"dtype": "float32", "shape": [256], "name": "FeatureExtractor/InceptionV2/Mixed_5c_2_Conv2d_4_3x3_s2_256/BatchNorm/moving_mean"}, {"dtype": "float32", "shape": [256], "name": "FeatureExtractor/InceptionV2/Mixed_5c_2_Conv2d_4_3x3_s2_256/BatchNorm/moving_variance"}, {"dtype": "float32", "shape": [3, 3, 256, 24], "name": "BoxPredictor_4/BoxEncodingPredictor/weights"}, {"dtype": "float32", "shape": [24], "name": "BoxPredictor_4/BoxEncodingPredictor/biases"}, {"dtype": "float32", "shape": [1, 1, 256, 64], "name": "FeatureExtractor/InceptionV2/Mixed_5c_1_Conv2d_5_1x1_64/weights"}, {"dtype": "float32", "shape": [64], "name": "FeatureExtractor/InceptionV2/Mixed_5c_1_Conv2d_5_1x1_64/BatchNorm/gamma"}, {"dtype": "float32", "shape": [64], "name": "FeatureExtractor/InceptionV2/Mixed_5c_1_Conv2d_5_1x1_64/BatchNorm/beta"}, {"dtype": "float32", "shape": [64], "name": "FeatureExtractor/InceptionV2/Mixed_5c_1_Conv2d_5_1x1_64/BatchNorm/moving_mean"}, {"dtype": "float32", "shape": [64], "name": "FeatureExtractor/InceptionV2/Mixed_5c_1_Conv2d_5_1x1_64/BatchNorm/moving_variance"}, {"dtype": "float32", "shape": [3, 3, 64, 128], "name": "FeatureExtractor/InceptionV2/Mixed_5c_2_Conv2d_5_3x3_s2_128/weights"}, {"dtype": "float32", "shape": [128], "name": "FeatureExtractor/InceptionV2/Mixed_5c_2_Conv2d_5_3x3_s2_128/BatchNorm/gamma"}, {"dtype": "float32", "shape": [128], "name": "FeatureExtractor/InceptionV2/Mixed_5c_2_Conv2d_5_3x3_s2_128/BatchNorm/beta"}, {"dtype": "float32", "shape": [128], "name": "FeatureExtractor/InceptionV2/Mixed_5c_2_Conv2d_5_3x3_s2_128/BatchNorm/moving_mean"}, {"dtype": "float32", "shape": [128], "name": "FeatureExtractor/InceptionV2/Mixed_5c_2_Conv2d_5_3x3_s2_128/BatchNorm/moving_variance"}, {"dtype": "float32", "shape": [3, 3, 128, 24], "name": "BoxPredictor_5/BoxEncodingPredictor/weights"}, {"dtype": "float32", "shape": [24], "name": "BoxPredictor_5/BoxEncodingPredictor/biases"}, {"dtype": "int32", "shape": [2], "name": "Postprocessor/Reshape/shape"}, {"dtype": "int32", "shape": [2], "name": "Postprocessor/Decode/transpose_1/perm"}, {"dtype": "int32", "shape": [], "name": "Postprocessor/stack/2"}, {"dtype": "int32", "shape": [], "name": "Postprocessor/ExpandDims_1/dim"}, {"dtype": "int32", "shape": [1], "name": "Postprocessor/BatchMultiClassNonMaxSuppression/strided_slice_1/stack_1"}, {"dtype": "float32", "shape": [1, 1, 512, 128], "name": "FeatureExtractor/InceptionV2/Mixed_5c_1_Conv2d_3_1x1_128/weights"}, {"dtype": "float32", "shape": [128], "name": "FeatureExtractor/InceptionV2/Mixed_5c_1_Conv2d_3_1x1_128/BatchNorm/gamma"}, {"dtype": "float32", "shape": [128], "name": "FeatureExtractor/InceptionV2/Mixed_5c_1_Conv2d_3_1x1_128/BatchNorm/beta"}, {"dtype": "float32", "shape": [128], "name": "FeatureExtractor/InceptionV2/Mixed_5c_1_Conv2d_3_1x1_128/BatchNorm/moving_mean"}, {"dtype": "float32", "shape": [128], "name": "FeatureExtractor/InceptionV2/Mixed_5c_1_Conv2d_3_1x1_128/BatchNorm/moving_variance"}, {"dtype": "float32", "shape": [3, 3, 128, 256], "name": "FeatureExtractor/InceptionV2/Mixed_5c_2_Conv2d_3_3x3_s2_256/weights"}, {"dtype": "float32", "shape": [256], "name": "FeatureExtractor/InceptionV2/Mixed_5c_2_Conv2d_3_3x3_s2_256/BatchNorm/gamma"}, {"dtype": "float32", "shape": [256], "name": "FeatureExtractor/InceptionV2/Mixed_5c_2_Conv2d_3_3x3_s2_256/BatchNorm/beta"}, {"dtype": "float32", "shape": [256], "name": "FeatureExtractor/InceptionV2/Mixed_5c_2_Conv2d_3_3x3_s2_256/BatchNorm/moving_mean"}, {"dtype": "float32", "shape": [256], "name": "FeatureExtractor/InceptionV2/Mixed_5c_2_Conv2d_3_3x3_s2_256/BatchNorm/moving_variance"}, {"dtype": "int32", "shape": [3], "name": "Postprocessor/Slice/begin"}, {"dtype": "int32", "shape": [3], "name": "Postprocessor/Slice/size"}, {"dtype": "float32", "shape": [3, 3, 576, 66], "name": "BoxPredictor_0/ClassPredictor/weights"}, {"dtype": "float32", "shape": [66], "name": "BoxPredictor_0/ClassPredictor/biases"}, {"dtype": "float32", "shape": [3, 3, 1024, 132], "name": "BoxPredictor_1/ClassPredictor/weights"}, {"dtype": "float32", "shape": [132], "name": "BoxPredictor_1/ClassPredictor/biases"}, {"dtype": "float32", "shape": [3, 3, 512, 132], "name": "BoxPredictor_2/ClassPredictor/weights"}, {"dtype": "float32", "shape": [132], "name": "BoxPredictor_2/ClassPredictor/biases"}, {"dtype": "float32", "shape": [3, 3, 256, 132], "name": "BoxPredictor_3/ClassPredictor/weights"}, {"dtype": "float32", "shape": [132], "name": "BoxPredictor_3/ClassPredictor/biases"}, {"dtype": "float32", "shape": [3, 3, 256, 132], "name": "BoxPredictor_4/ClassPredictor/weights"}, {"dtype": "float32", "shape": [132], "name": "BoxPredictor_4/ClassPredictor/biases"}, {"dtype": "float32", "shape": [3, 3, 128, 132], "name": "BoxPredictor_5/ClassPredictor/weights"}, {"dtype": "float32", "shape": [132], "name": "BoxPredictor_5/ClassPredictor/biases"}, {"dtype": "int32", "shape": [], "name": "BoxPredictor_5/Reshape_1/shape/1"}, {"dtype": "int32", "shape": [], "name": "BoxPredictor_5/Reshape_1/shape/2"}, {"dtype": "int32", "shape": [1], "name": "Postprocessor/BatchMultiClassNonMaxSuppression/map/strided_slice/stack"}, {"dtype": "int32", "shape": [1], "name": "Postprocessor/BatchMultiClassNonMaxSuppression/map/strided_slice/stack_2"}, {"dtype": "float32", "shape": [], "name": "add/y"}, {"dtype": "int32", "shape": [], "name": "Postprocessor/BatchMultiClassNonMaxSuppression/map/TensorArrayStack_4/range/start"}, {"dtype": "int32", "shape": [], "name": "Postprocessor/BatchMultiClassNonMaxSuppression/map/TensorArrayStack_4/range/delta"}, {"dtype": "int32", "shape": [], "name": "Preprocessor/map/while/add_1/y"}, {"dtype": "int32", "shape": [], "name": "Preprocessor/map/while/ResizeImage/resize/ExpandDims/dim"}, {"dtype": "int32", "shape": [2], "name": "Preprocessor/map/while/ResizeImage/stack"}, {"dtype": "int32", "shape": [3], "name": "Preprocessor/map/while/ResizeImage/stack_1"}, {"dtype": "int32", "shape": [], "name": "ConstantFolding/Postprocessor/BatchMultiClassNonMaxSuppression/ones/packed_const_axis"}, {"dtype": "float32", "shape": [], "name": "Postprocessor/BatchMultiClassNonMaxSuppression/map/while/MultiClassNonMaxSuppression/ClipToWindow/Greater/y"}, {"dtype": "int32", "shape": [], "name": "Postprocessor/BatchMultiClassNonMaxSuppression/map/while/PadOrClipBoxList/sub_5/y"}, {"dtype": "int32", "shape": [3], "name": "Postprocessor/BatchMultiClassNonMaxSuppression/map/while/Slice/begin"}, {"dtype": "int32", "shape": [3], "name": "Postprocessor/BatchMultiClassNonMaxSuppression/map/while/Reshape/shape"}, {"dtype": "int32", "shape": [], "name": "Postprocessor/BatchMultiClassNonMaxSuppression/map/while/PadOrClipBoxList/sub_1/y"}, {"dtype": "int32", "shape": [2], "name": "Postprocessor/BatchMultiClassNonMaxSuppression/map/while/Reshape_1/shape"}, {"dtype": "int32", "shape": [2], "name": "Postprocessor/BatchMultiClassNonMaxSuppression/map/while/MultiClassNonMaxSuppression/Slice_17/begin"}, {"dtype": "int32", "shape": [], "name": "Postprocessor/BatchMultiClassNonMaxSuppression/map/while/add/y"}, {"dtype": "int32", "shape": [1], "name": "Postprocessor/BatchMultiClassNonMaxSuppression/map/while/PadOrClipBoxList/zeros_3/shape_as_tensor"}, {"dtype": "int32", "shape": [], "name": "Postprocessor/BatchMultiClassNonMaxSuppression/map/while/PadOrClipBoxList/zeros_3/Const"}, {"dtype": "int32", "shape": [], "name": "Postprocessor/BatchMultiClassNonMaxSuppression/map/while/PadOrClipBoxList/sub_6/x"}, {"dtype": "int32", "shape": [2], "name": "Postprocessor/BatchMultiClassNonMaxSuppression/map/while/Slice_3/begin"}, {"dtype": "int32", "shape": [], "name": "Postprocessor/BatchMultiClassNonMaxSuppression/map/while/stack_3/1"}, {"dtype": "int32", "shape": [2], "name": "Postprocessor/BatchMultiClassNonMaxSuppression/map/while/Reshape_3/shape"}, {"dtype": "int32", "shape": [1], "name": "Postprocessor/BatchMultiClassNonMaxSuppression/map/while/MultiClassNonMaxSuppression/strided_slice/stack"}, {"dtype": "int32", "shape": [1], "name": "Postprocessor/BatchMultiClassNonMaxSuppression/map/while/MultiClassNonMaxSuppression/strided_slice/stack_1"}, {"dtype": "int32", "shape": [1], "name": "Postprocessor/BatchMultiClassNonMaxSuppression/map/while/MultiClassNonMaxSuppression/Reshape/shape"}, {"dtype": "float32", "shape": [], "name": "Postprocessor/BatchMultiClassNonMaxSuppression/map/while/MultiClassNonMaxSuppression/non_max_suppression/iou_threshold"}, {"dtype": "float32", "shape": [], "name": "Postprocessor/BatchMultiClassNonMaxSuppression/map/while/MultiClassNonMaxSuppression/non_max_suppression/score_threshold"}, {"dtype": "int32", "shape": [2], "name": "Postprocessor/BatchMultiClassNonMaxSuppression/map/while/MultiClassNonMaxSuppression/Slice_1/begin"}, {"dtype": "float32", "shape": [], "name": "Postprocessor/BatchMultiClassNonMaxSuppression/map/while/MultiClassNonMaxSuppression/add_5/y"}, {"dtype": "float32", "shape": [], "name": "Postprocessor/BatchMultiClassNonMaxSuppression/map/while/MultiClassNonMaxSuppression/add_7/y"}, {"dtype": "float32", "shape": [], "name": "Postprocessor/BatchMultiClassNonMaxSuppression/map/while/MultiClassNonMaxSuppression/add_9/y"}, {"dtype": "float32", "shape": [], "name": "Postprocessor/BatchMultiClassNonMaxSuppression/map/while/MultiClassNonMaxSuppression/add_11/y"}, {"dtype": "float32", "shape": [], "name": "Postprocessor/BatchMultiClassNonMaxSuppression/map/while/MultiClassNonMaxSuppression/add_13/y"}, {"dtype": "float32", "shape": [], "name": "Postprocessor/BatchMultiClassNonMaxSuppression/map/while/MultiClassNonMaxSuppression/add_15/y"}, {"dtype": "float32", "shape": [], "name": "Postprocessor/BatchMultiClassNonMaxSuppression/map/while/MultiClassNonMaxSuppression/add_17/y"}, {"dtype": "float32", "shape": [], "name": "Postprocessor/BatchMultiClassNonMaxSuppression/map/while/MultiClassNonMaxSuppression/add_19/y"}, {"dtype": "float32", "shape": [], "name": "Postprocessor/BatchMultiClassNonMaxSuppression/map/while/MultiClassNonMaxSuppression/add_21/y"}, {"dtype": "float32", "shape": [], "name": "Postprocessor/BatchMultiClassNonMaxSuppression/map/while/MultiClassNonMaxSuppression/add_23/y"}, {"dtype": "float32", "shape": [], "name": "Postprocessor/BatchMultiClassNonMaxSuppression/map/while/MultiClassNonMaxSuppression/add_25/y"}, {"dtype": "int32", "shape": [2], "name": "Postprocessor/BatchMultiClassNonMaxSuppression/map/while/MultiClassNonMaxSuppression/Slice_2/begin"}, {"dtype": "float32", "shape": [], "name": "Postprocessor/BatchMultiClassNonMaxSuppression/map/while/MultiClassNonMaxSuppression/add_27/y"}, {"dtype": "float32", "shape": [], "name": "Postprocessor/BatchMultiClassNonMaxSuppression/map/while/MultiClassNonMaxSuppression/add_29/y"}, {"dtype": "float32", "shape": [], "name": "Postprocessor/BatchMultiClassNonMaxSuppression/map/while/MultiClassNonMaxSuppression/add_31/y"}, {"dtype": "float32", "shape": [], "name": "Postprocessor/BatchMultiClassNonMaxSuppression/map/while/MultiClassNonMaxSuppression/add_33/y"}, {"dtype": "float32", "shape": [], "name": "Postprocessor/BatchMultiClassNonMaxSuppression/map/while/MultiClassNonMaxSuppression/add_35/y"}, {"dtype": "float32", "shape": [], "name": "Postprocessor/BatchMultiClassNonMaxSuppression/map/while/MultiClassNonMaxSuppression/add_37/y"}, {"dtype": "float32", "shape": [], "name": "Postprocessor/BatchMultiClassNonMaxSuppression/map/while/MultiClassNonMaxSuppression/add_39/y"}, {"dtype": "float32", "shape": [], "name": "Postprocessor/BatchMultiClassNonMaxSuppression/map/while/MultiClassNonMaxSuppression/add_41/y"}, {"dtype": "int32", "shape": [2], "name": "Postprocessor/BatchMultiClassNonMaxSuppression/map/while/MultiClassNonMaxSuppression/Slice_3/begin"}, {"dtype": "int32", "shape": [2], "name": "Postprocessor/BatchMultiClassNonMaxSuppression/map/while/MultiClassNonMaxSuppression/Slice_4/begin"}, {"dtype": "int32", "shape": [2], "name": "Postprocessor/BatchMultiClassNonMaxSuppression/map/while/MultiClassNonMaxSuppression/Slice_5/begin"}, {"dtype": "int32", "shape": [2], "name": "Postprocessor/BatchMultiClassNonMaxSuppression/map/while/MultiClassNonMaxSuppression/Slice_6/begin"}, {"dtype": "int32", "shape": [2], "name": "Postprocessor/BatchMultiClassNonMaxSuppression/map/while/MultiClassNonMaxSuppression/Slice_8/begin"}, {"dtype": "int32", "shape": [2], "name": "Postprocessor/BatchMultiClassNonMaxSuppression/map/while/MultiClassNonMaxSuppression/Slice_9/begin"}, {"dtype": "int32", "shape": [2], "name": "Postprocessor/BatchMultiClassNonMaxSuppression/map/while/MultiClassNonMaxSuppression/Slice_10/begin"}, {"dtype": "int32", "shape": [2], "name": "Postprocessor/BatchMultiClassNonMaxSuppression/map/while/MultiClassNonMaxSuppression/Slice_11/begin"}, {"dtype": "int32", "shape": [2], "name": "Postprocessor/BatchMultiClassNonMaxSuppression/map/while/MultiClassNonMaxSuppression/Slice_12/begin"}, {"dtype": "int32", "shape": [2], "name": "Postprocessor/BatchMultiClassNonMaxSuppression/map/while/MultiClassNonMaxSuppression/Slice_13/begin"}, {"dtype": "int32", "shape": [2], "name": "Postprocessor/BatchMultiClassNonMaxSuppression/map/while/MultiClassNonMaxSuppression/Slice_15/begin"}, {"dtype": "int32", "shape": [2], "name": "Postprocessor/BatchMultiClassNonMaxSuppression/map/while/MultiClassNonMaxSuppression/Slice_16/begin"}, {"dtype": "int32", "shape": [2], "name": "Postprocessor/BatchMultiClassNonMaxSuppression/map/while/MultiClassNonMaxSuppression/Slice_18/begin"}, {"dtype": "int32", "shape": [2], "name": "Postprocessor/BatchMultiClassNonMaxSuppression/map/while/MultiClassNonMaxSuppression/Slice_19/begin"}, {"dtype": "int32", "shape": [2], "name": "Postprocessor/BatchMultiClassNonMaxSuppression/map/while/MultiClassNonMaxSuppression/Slice_20/begin"}, {"dtype": "float32", "shape": [], "name": "Postprocessor/BatchMultiClassNonMaxSuppression/map/while/MultiClassNonMaxSuppression/mul/x"}, {"dtype": "float32", "shape": [], "name": "Postprocessor/BatchMultiClassNonMaxSuppression/map/while/MultiClassNonMaxSuppression/ones/Const"}, {"dtype": "int32", "shape": [2], "name": "Postprocessor/BatchMultiClassNonMaxSuppression/map/while/MultiClassNonMaxSuppression/Slice_7/begin"}, {"dtype": "int32", "shape": [2], "name": "Postprocessor/BatchMultiClassNonMaxSuppression/map/while/MultiClassNonMaxSuppression/Slice_14/begin"}, {"dtype": "int32", "shape": [2], "name": "Postprocessor/BatchMultiClassNonMaxSuppression/map/while/PadOrClipBoxList/zeros_3"}, {"dtype": "int32", "shape": [1], "name": "Postprocessor/BatchMultiClassNonMaxSuppression/map/while/PadOrClipBoxList/zeros_9"}, {"dtype": "int32", "shape": [], "name": "ConstantFolding/Postprocessor/BatchMultiClassNonMaxSuppression/map/while/PadOrClipBoxList/Slice_2/size_const_axis"}, {"dtype": "int32", "shape": [], "name": "ConstantFolding/Postprocessor/BatchMultiClassNonMaxSuppression/map/while/PadOrClipBoxList/Slice_4/size_const_axis"}, {"dtype": "int32", "shape": [], "name": "ConstantFolding/Postprocessor/BatchMultiClassNonMaxSuppression/map/while/PadOrClipBoxList/stack_2/values_1_const_axis"}, {"dtype": "int32", "shape": [], "name": "ConstantFolding/Postprocessor/BatchMultiClassNonMaxSuppression/map/while/PadOrClipBoxList/stack_4/values_1_const_axis"}]}], "modelTopology": {"node": [{"attr": {"dtype": {"type": "DT_FLOAT"}, "value": {"tensor": {"dtype": "DT_FLOAT", "tensorShape": {"dim": [{"size": "1"}, {"size": "1284"}, {"size": "4"}]}}}}, "name": "Postprocessor/ExpandDims", "op": "Const"}, {"attr": {"dtype": {"type": "DT_FLOAT"}, "value": {"tensor": {"dtype": "DT_FLOAT", "tensorShape": {}}}}, "name": "ConstantFolding/Postprocessor/Decode/get_center_coordinates_and_sizes/div_recip", "op": "Const"}, {"attr": {"dtype": {"type": "DT_FLOAT"}, "value": {"tensor": {"dtype": "DT_FLOAT", "tensorShape": {}}}}, "name": "ConstantFolding/Postprocessor/Decode/div_2_recip", "op": "Const"}, {"attr": {"dtype": {"type": "DT_FLOAT"}, "value": {"tensor": {"dtype": "DT_FLOAT", "tensorShape": {}}}}, "name": "ConstantFolding/Postprocessor/Decode/div_recip", "op": "Const"}, {"attr": {"dtype": {"type": "DT_FLOAT"}, "value": {"tensor": {"dtype": "DT_FLOAT", "tensorShape": {}}}}, "name": "ConstantFolding/Postprocessor/div_recip", "op": "Const"}, {"attr": {"dtype": {"type": "DT_UINT8"}, "shape": {"shape": {"dim": [{"size": "-1"}, {"size": "-1"}, {"size": "-1"}, {"size": "3"}]}}}, "name": "image_tensor", "op": "Placeholder"}, {"attr": {"dtype": {"type": "DT_INT32"}, "shape": {"shape": {"unknownRank": true}}}, "name": "unused_control_flow_input", "op": "Placeholder"}, {"attr": {"dtype": {"type": "DT_BOOL"}, "shape": {"shape": {}}}, "name": "unused_control_flow_input_1", "op": "Placeholder"}, {"attr": {"dtype": {"type": "DT_INT32"}, "shape": {"shape": {}}}, "name": "unused_control_flow_input_2", "op": "Placeholder"}, {"attr": {"dtype": {"type": "DT_INT32"}, "shape": {"shape": {}}}, "name": "unused_control_flow_input_3", "op": "Placeholder"}, {"attr": {"dtype": {"type": "DT_FLOAT"}, "shape": {"shape": {"unknownRank": true}}}, "name": "unused_control_flow_input_4", "op": "Placeholder"}, {"attr": {"dtype": {"type": "DT_BOOL"}, "shape": {"shape": {}}}, "name": "unused_control_flow_input_5", "op": "Placeholder"}, {"attr": {"dtype": {"type": "DT_INT32"}, "shape": {"shape": {"unknownRank": true}}}, "name": "unused_control_flow_input_6", "op": "Placeholder"}, {"attr": {"dtype": {"type": "DT_FLOAT"}, "shape": {"shape": {"unknownRank": true}}}, "name": "unused_control_flow_input_7", "op": "Placeholder"}, {"attr": {"dtype": {"type": "DT_INT32"}, "shape": {"shape": {"unknownRank": true}}}, "name": "unused_control_flow_input_8", "op": "Placeholder"}, {"attr": {"dtype": {"type": "DT_INT32"}, "shape": {"shape": {}}}, "name": "unused_control_flow_input_9", "op": "Placeholder"}, {"attr": {"dtype": {"type": "DT_INT32"}, "shape": {"shape": {"unknownRank": true}}}, "name": "unused_control_flow_input_10", "op": "Placeholder"}, {"attr": {"dtype": {"type": "DT_INT32"}, "shape": {"shape": {"unknownRank": true}}}, "name": "unused_control_flow_input_11", "op": "Placeholder"}, {"attr": {"dtype": {"type": "DT_FLOAT"}, "shape": {"shape": {}}}, "name": "unused_control_flow_input_12", "op": "Placeholder"}, {"attr": {"dtype": {"type": "DT_RESOURCE"}, "shape": {"shape": {"dim": [{"size": "2"}]}}}, "name": "unused_control_flow_input_13", "op": "Placeholder"}, {"attr": {"dtype": {"type": "DT_INT32"}, "shape": {"shape": {}}}, "name": "unused_control_flow_input_14", "op": "Placeholder"}, {"attr": {"dtype": {"type": "DT_FLOAT"}, "shape": {"shape": {"dim": [{"size": "-1"}, {"size": "-1"}, {"size": "22"}]}}}, "name": "unused_control_flow_input_15", "op": "Placeholder"}, {"attr": {"dtype": {"type": "DT_FLOAT"}, "shape": {"shape": {"dim": [{"size": "-1"}, {"size": "-1"}, {"size": "22"}]}}}, "name": "unused_control_flow_input_16", "op": "Placeholder"}, {"attr": {"dtype": {"type": "DT_INT32"}, "shape": {"shape": {"unknownRank": true}}}, "name": "unused_control_flow_input_17", "op": "Placeholder"}, {"attr": {"dtype": {"type": "DT_INT32"}, "shape": {"shape": {}}}, "name": "unused_control_flow_input_18", "op": "Placeholder"}, {"attr": {"dtype": {"type": "DT_FLOAT"}, "value": {"tensor": {"dtype": "DT_FLOAT", "tensorShape": {}}}}, "name": "Preprocessor/mul/x", "op": "Const"}, {"attr": {"dtype": {"type": "DT_FLOAT"}, "value": {"tensor": {"dtype": "DT_FLOAT", "tensorShape": {"dim": [{"size": "7"}, {"size": "7"}, {"size": "3"}, {"size": "8"}]}}}}, "name": "FeatureExtractor/InceptionV2/Conv2d_1a_7x7/depthwise_weights", "op": "Const"}, {"attr": {"dtype": {"type": "DT_FLOAT"}, "value": {"tensor": {"dtype": "DT_FLOAT", "tensorShape": {"dim": [{"size": "1"}, {"size": "1"}, {"size": "24"}, {"size": "64"}]}}}}, "name": "FeatureExtractor/InceptionV2/Conv2d_1a_7x7/pointwise_weights", "op": "Const"}, {"attr": {"dtype": {"type": "DT_FLOAT"}, "value": {"tensor": {"dtype": "DT_FLOAT", "tensorShape": {"dim": [{"size": "64"}]}}}}, "name": "FeatureExtractor/InceptionV2/Conv2d_1a_7x7/BatchNorm/gamma", "op": "Const"}, {"attr": {"dtype": {"type": "DT_FLOAT"}, "value": {"tensor": {"dtype": "DT_FLOAT", "tensorShape": {"dim": [{"size": "64"}]}}}}, "name": "FeatureExtractor/InceptionV2/Conv2d_1a_7x7/BatchNorm/beta", "op": "Const"}, {"attr": {"dtype": {"type": "DT_FLOAT"}, "value": {"tensor": {"dtype": "DT_FLOAT", "tensorShape": {"dim": [{"size": "64"}]}}}}, "name": "FeatureExtractor/InceptionV2/Conv2d_1a_7x7/BatchNorm/moving_mean", "op": "Const"}, {"attr": {"dtype": {"type": "DT_FLOAT"}, "value": {"tensor": {"dtype": "DT_FLOAT", "tensorShape": {"dim": [{"size": "64"}]}}}}, "name": "FeatureExtractor/InceptionV2/Conv2d_1a_7x7/BatchNorm/moving_variance", "op": "Const"}, {"attr": {"dtype": {"type": "DT_FLOAT"}, "value": {"tensor": {"dtype": "DT_FLOAT", "tensorShape": {"dim": [{"size": "1"}, {"size": "1"}, {"size": "64"}, {"size": "64"}]}}}}, "name": "FeatureExtractor/InceptionV2/Conv2d_2b_1x1/weights", "op": "Const"}, {"attr": {"dtype": {"type": "DT_FLOAT"}, "value": {"tensor": {"dtype": "DT_FLOAT", "tensorShape": {"dim": [{"size": "64"}]}}}}, "name": "FeatureExtractor/InceptionV2/Conv2d_2b_1x1/BatchNorm/gamma", "op": "Const"}, {"attr": {"dtype": {"type": "DT_FLOAT"}, "value": {"tensor": {"dtype": "DT_FLOAT", "tensorShape": {"dim": [{"size": "64"}]}}}}, "name": "FeatureExtractor/InceptionV2/Conv2d_2b_1x1/BatchNorm/beta", "op": "Const"}, {"attr": {"dtype": {"type": "DT_FLOAT"}, "value": {"tensor": {"dtype": "DT_FLOAT", "tensorShape": {"dim": [{"size": "64"}]}}}}, "name": "FeatureExtractor/InceptionV2/Conv2d_2b_1x1/BatchNorm/moving_mean", "op": "Const"}, {"attr": {"dtype": {"type": "DT_FLOAT"}, "value": {"tensor": {"dtype": "DT_FLOAT", "tensorShape": {"dim": [{"size": "64"}]}}}}, "name": "FeatureExtractor/InceptionV2/Conv2d_2b_1x1/BatchNorm/moving_variance", "op": "Const"}, {"attr": {"dtype": {"type": "DT_FLOAT"}, "value": {"tensor": {"dtype": "DT_FLOAT", "tensorShape": {"dim": [{"size": "3"}, {"size": "3"}, {"size": "64"}, {"size": "192"}]}}}}, "name": "FeatureExtractor/InceptionV2/Conv2d_2c_3x3/weights", "op": "Const"}, {"attr": {"dtype": {"type": "DT_FLOAT"}, "value": {"tensor": {"dtype": "DT_FLOAT", "tensorShape": {"dim": [{"size": "192"}]}}}}, "name": "FeatureExtractor/InceptionV2/Conv2d_2c_3x3/BatchNorm/gamma", "op": "Const"}, {"attr": {"dtype": {"type": "DT_FLOAT"}, "value": {"tensor": {"dtype": "DT_FLOAT", "tensorShape": {"dim": [{"size": "192"}]}}}}, "name": "FeatureExtractor/InceptionV2/Conv2d_2c_3x3/BatchNorm/beta", "op": "Const"}, {"attr": {"dtype": {"type": "DT_FLOAT"}, "value": {"tensor": {"dtype": "DT_FLOAT", "tensorShape": {"dim": [{"size": "192"}]}}}}, "name": "FeatureExtractor/InceptionV2/Conv2d_2c_3x3/BatchNorm/moving_mean", "op": "Const"}, {"attr": {"dtype": {"type": "DT_FLOAT"}, "value": {"tensor": {"dtype": "DT_FLOAT", "tensorShape": {"dim": [{"size": "192"}]}}}}, "name": "FeatureExtractor/InceptionV2/Conv2d_2c_3x3/BatchNorm/moving_variance", "op": "Const"}, {"attr": {"dtype": {"type": "DT_FLOAT"}, "value": {"tensor": {"dtype": "DT_FLOAT", "tensorShape": {"dim": [{"size": "1"}, {"size": "1"}, {"size": "192"}, {"size": "64"}]}}}}, "name": "FeatureExtractor/InceptionV2/Mixed_3b/Branch_0/Conv2d_0a_1x1/weights", "op": "Const"}, {"attr": {"dtype": {"type": "DT_FLOAT"}, "value": {"tensor": {"dtype": "DT_FLOAT", "tensorShape": {"dim": [{"size": "64"}]}}}}, "name": "FeatureExtractor/InceptionV2/Mixed_3b/Branch_0/Conv2d_0a_1x1/BatchNorm/gamma", "op": "Const"}, {"attr": {"dtype": {"type": "DT_FLOAT"}, "value": {"tensor": {"dtype": "DT_FLOAT", "tensorShape": {"dim": [{"size": "64"}]}}}}, "name": "FeatureExtractor/InceptionV2/Mixed_3b/Branch_0/Conv2d_0a_1x1/BatchNorm/beta", "op": "Const"}, {"attr": {"dtype": {"type": "DT_FLOAT"}, "value": {"tensor": {"dtype": "DT_FLOAT", "tensorShape": {"dim": [{"size": "64"}]}}}}, "name": "FeatureExtractor/InceptionV2/Mixed_3b/Branch_0/Conv2d_0a_1x1/BatchNorm/moving_mean", "op": "Const"}, {"attr": {"dtype": {"type": "DT_FLOAT"}, "value": {"tensor": {"dtype": "DT_FLOAT", "tensorShape": {"dim": [{"size": "64"}]}}}}, "name": "FeatureExtractor/InceptionV2/Mixed_3b/Branch_0/Conv2d_0a_1x1/BatchNorm/moving_variance", "op": "Const"}, {"attr": {"dtype": {"type": "DT_FLOAT"}, "value": {"tensor": {"dtype": "DT_FLOAT", "tensorShape": {"dim": [{"size": "1"}, {"size": "1"}, {"size": "192"}, {"size": "64"}]}}}}, "name": "FeatureExtractor/InceptionV2/Mixed_3b/Branch_1/Conv2d_0a_1x1/weights", "op": "Const"}, {"attr": {"dtype": {"type": "DT_FLOAT"}, "value": {"tensor": {"dtype": "DT_FLOAT", "tensorShape": {"dim": [{"size": "64"}]}}}}, "name": "FeatureExtractor/InceptionV2/Mixed_3b/Branch_1/Conv2d_0a_1x1/BatchNorm/gamma", "op": "Const"}, {"attr": {"dtype": {"type": "DT_FLOAT"}, "value": {"tensor": {"dtype": "DT_FLOAT", "tensorShape": {"dim": [{"size": "64"}]}}}}, "name": "FeatureExtractor/InceptionV2/Mixed_3b/Branch_1/Conv2d_0a_1x1/BatchNorm/beta", "op": "Const"}, {"attr": {"dtype": {"type": "DT_FLOAT"}, "value": {"tensor": {"dtype": "DT_FLOAT", "tensorShape": {"dim": [{"size": "64"}]}}}}, "name": "FeatureExtractor/InceptionV2/Mixed_3b/Branch_1/Conv2d_0a_1x1/BatchNorm/moving_mean", "op": "Const"}, {"attr": {"dtype": {"type": "DT_FLOAT"}, "value": {"tensor": {"dtype": "DT_FLOAT", "tensorShape": {"dim": [{"size": "64"}]}}}}, "name": "FeatureExtractor/InceptionV2/Mixed_3b/Branch_1/Conv2d_0a_1x1/BatchNorm/moving_variance", "op": "Const"}, {"attr": {"dtype": {"type": "DT_FLOAT"}, "value": {"tensor": {"dtype": "DT_FLOAT", "tensorShape": {"dim": [{"size": "3"}, {"size": "3"}, {"size": "64"}, {"size": "64"}]}}}}, "name": "FeatureExtractor/InceptionV2/Mixed_3b/Branch_1/Conv2d_0b_3x3/weights", "op": "Const"}, {"attr": {"dtype": {"type": "DT_FLOAT"}, "value": {"tensor": {"dtype": "DT_FLOAT", "tensorShape": {"dim": [{"size": "64"}]}}}}, "name": "FeatureExtractor/InceptionV2/Mixed_3b/Branch_1/Conv2d_0b_3x3/BatchNorm/gamma", "op": "Const"}, {"attr": {"dtype": {"type": "DT_FLOAT"}, "value": {"tensor": {"dtype": "DT_FLOAT", "tensorShape": {"dim": [{"size": "64"}]}}}}, "name": "FeatureExtractor/InceptionV2/Mixed_3b/Branch_1/Conv2d_0b_3x3/BatchNorm/beta", "op": "Const"}, {"attr": {"dtype": {"type": "DT_FLOAT"}, "value": {"tensor": {"dtype": "DT_FLOAT", "tensorShape": {"dim": [{"size": "64"}]}}}}, "name": "FeatureExtractor/InceptionV2/Mixed_3b/Branch_1/Conv2d_0b_3x3/BatchNorm/moving_mean", "op": "Const"}, {"attr": {"dtype": {"type": "DT_FLOAT"}, "value": {"tensor": {"dtype": "DT_FLOAT", "tensorShape": {"dim": [{"size": "64"}]}}}}, "name": "FeatureExtractor/InceptionV2/Mixed_3b/Branch_1/Conv2d_0b_3x3/BatchNorm/moving_variance", "op": "Const"}, {"attr": {"dtype": {"type": "DT_FLOAT"}, "value": {"tensor": {"dtype": "DT_FLOAT", "tensorShape": {"dim": [{"size": "1"}, {"size": "1"}, {"size": "192"}, {"size": "64"}]}}}}, "name": "FeatureExtractor/InceptionV2/Mixed_3b/Branch_2/Conv2d_0a_1x1/weights", "op": "Const"}, {"attr": {"dtype": {"type": "DT_FLOAT"}, "value": {"tensor": {"dtype": "DT_FLOAT", "tensorShape": {"dim": [{"size": "64"}]}}}}, "name": "FeatureExtractor/InceptionV2/Mixed_3b/Branch_2/Conv2d_0a_1x1/BatchNorm/gamma", "op": "Const"}, {"attr": {"dtype": {"type": "DT_FLOAT"}, "value": {"tensor": {"dtype": "DT_FLOAT", "tensorShape": {"dim": [{"size": "64"}]}}}}, "name": "FeatureExtractor/InceptionV2/Mixed_3b/Branch_2/Conv2d_0a_1x1/BatchNorm/beta", "op": "Const"}, {"attr": {"dtype": {"type": "DT_FLOAT"}, "value": {"tensor": {"dtype": "DT_FLOAT", "tensorShape": {"dim": [{"size": "64"}]}}}}, "name": "FeatureExtractor/InceptionV2/Mixed_3b/Branch_2/Conv2d_0a_1x1/BatchNorm/moving_mean", "op": "Const"}, {"attr": {"dtype": {"type": "DT_FLOAT"}, "value": {"tensor": {"dtype": "DT_FLOAT", "tensorShape": {"dim": [{"size": "64"}]}}}}, "name": "FeatureExtractor/InceptionV2/Mixed_3b/Branch_2/Conv2d_0a_1x1/BatchNorm/moving_variance", "op": "Const"}, {"attr": {"dtype": {"type": "DT_FLOAT"}, "value": {"tensor": {"dtype": "DT_FLOAT", "tensorShape": {"dim": [{"size": "3"}, {"size": "3"}, {"size": "64"}, {"size": "96"}]}}}}, "name": "FeatureExtractor/InceptionV2/Mixed_3b/Branch_2/Conv2d_0b_3x3/weights", "op": "Const"}, {"attr": {"dtype": {"type": "DT_FLOAT"}, "value": {"tensor": {"dtype": "DT_FLOAT", "tensorShape": {"dim": [{"size": "96"}]}}}}, "name": "FeatureExtractor/InceptionV2/Mixed_3b/Branch_2/Conv2d_0b_3x3/BatchNorm/gamma", "op": "Const"}, {"attr": {"dtype": {"type": "DT_FLOAT"}, "value": {"tensor": {"dtype": "DT_FLOAT", "tensorShape": {"dim": [{"size": "96"}]}}}}, "name": "FeatureExtractor/InceptionV2/Mixed_3b/Branch_2/Conv2d_0b_3x3/BatchNorm/beta", "op": "Const"}, {"attr": {"dtype": {"type": "DT_FLOAT"}, "value": {"tensor": {"dtype": "DT_FLOAT", "tensorShape": {"dim": [{"size": "96"}]}}}}, "name": "FeatureExtractor/InceptionV2/Mixed_3b/Branch_2/Conv2d_0b_3x3/BatchNorm/moving_mean", "op": "Const"}, {"attr": {"dtype": {"type": "DT_FLOAT"}, "value": {"tensor": {"dtype": "DT_FLOAT", "tensorShape": {"dim": [{"size": "96"}]}}}}, "name": "FeatureExtractor/InceptionV2/Mixed_3b/Branch_2/Conv2d_0b_3x3/BatchNorm/moving_variance", "op": "Const"}, {"attr": {"dtype": {"type": "DT_FLOAT"}, "value": {"tensor": {"dtype": "DT_FLOAT", "tensorShape": {"dim": [{"size": "3"}, {"size": "3"}, {"size": "96"}, {"size": "96"}]}}}}, "name": "FeatureExtractor/InceptionV2/Mixed_3b/Branch_2/Conv2d_0c_3x3/weights", "op": "Const"}, {"attr": {"dtype": {"type": "DT_FLOAT"}, "value": {"tensor": {"dtype": "DT_FLOAT", "tensorShape": {"dim": [{"size": "96"}]}}}}, "name": "FeatureExtractor/InceptionV2/Mixed_3b/Branch_2/Conv2d_0c_3x3/BatchNorm/gamma", "op": "Const"}, {"attr": {"dtype": {"type": "DT_FLOAT"}, "value": {"tensor": {"dtype": "DT_FLOAT", "tensorShape": {"dim": [{"size": "96"}]}}}}, "name": "FeatureExtractor/InceptionV2/Mixed_3b/Branch_2/Conv2d_0c_3x3/BatchNorm/beta", "op": "Const"}, {"attr": {"dtype": {"type": "DT_FLOAT"}, "value": {"tensor": {"dtype": "DT_FLOAT", "tensorShape": {"dim": [{"size": "96"}]}}}}, "name": "FeatureExtractor/InceptionV2/Mixed_3b/Branch_2/Conv2d_0c_3x3/BatchNorm/moving_mean", "op": "Const"}, {"attr": {"dtype": {"type": "DT_FLOAT"}, "value": {"tensor": {"dtype": "DT_FLOAT", "tensorShape": {"dim": [{"size": "96"}]}}}}, "name": "FeatureExtractor/InceptionV2/Mixed_3b/Branch_2/Conv2d_0c_3x3/BatchNorm/moving_variance", "op": "Const"}, {"attr": {"dtype": {"type": "DT_FLOAT"}, "value": {"tensor": {"dtype": "DT_FLOAT", "tensorShape": {"dim": [{"size": "1"}, {"size": "1"}, {"size": "192"}, {"size": "32"}]}}}}, "name": "FeatureExtractor/InceptionV2/Mixed_3b/Branch_3/Conv2d_0b_1x1/weights", "op": "Const"}, {"attr": {"dtype": {"type": "DT_FLOAT"}, "value": {"tensor": {"dtype": "DT_FLOAT", "tensorShape": {"dim": [{"size": "32"}]}}}}, "name": "FeatureExtractor/InceptionV2/Mixed_3b/Branch_3/Conv2d_0b_1x1/BatchNorm/gamma", "op": "Const"}, {"attr": {"dtype": {"type": "DT_FLOAT"}, "value": {"tensor": {"dtype": "DT_FLOAT", "tensorShape": {"dim": [{"size": "32"}]}}}}, "name": "FeatureExtractor/InceptionV2/Mixed_3b/Branch_3/Conv2d_0b_1x1/BatchNorm/beta", "op": "Const"}, {"attr": {"dtype": {"type": "DT_FLOAT"}, "value": {"tensor": {"dtype": "DT_FLOAT", "tensorShape": {"dim": [{"size": "32"}]}}}}, "name": "FeatureExtractor/InceptionV2/Mixed_3b/Branch_3/Conv2d_0b_1x1/BatchNorm/moving_mean", "op": "Const"}, {"attr": {"dtype": {"type": "DT_FLOAT"}, "value": {"tensor": {"dtype": "DT_FLOAT", "tensorShape": {"dim": [{"size": "32"}]}}}}, "name": "FeatureExtractor/InceptionV2/Mixed_3b/Branch_3/Conv2d_0b_1x1/BatchNorm/moving_variance", "op": "Const"}, {"attr": {"dtype": {"type": "DT_FLOAT"}, "value": {"tensor": {"dtype": "DT_FLOAT", "tensorShape": {"dim": [{"size": "1"}, {"size": "1"}, {"size": "256"}, {"size": "64"}]}}}}, "name": "FeatureExtractor/InceptionV2/Mixed_3c/Branch_0/Conv2d_0a_1x1/weights", "op": "Const"}, {"attr": {"dtype": {"type": "DT_FLOAT"}, "value": {"tensor": {"dtype": "DT_FLOAT", "tensorShape": {"dim": [{"size": "64"}]}}}}, "name": "FeatureExtractor/InceptionV2/Mixed_3c/Branch_0/Conv2d_0a_1x1/BatchNorm/gamma", "op": "Const"}, {"attr": {"dtype": {"type": "DT_FLOAT"}, "value": {"tensor": {"dtype": "DT_FLOAT", "tensorShape": {"dim": [{"size": "64"}]}}}}, "name": "FeatureExtractor/InceptionV2/Mixed_3c/Branch_0/Conv2d_0a_1x1/BatchNorm/beta", "op": "Const"}, {"attr": {"dtype": {"type": "DT_FLOAT"}, "value": {"tensor": {"dtype": "DT_FLOAT", "tensorShape": {"dim": [{"size": "64"}]}}}}, "name": "FeatureExtractor/InceptionV2/Mixed_3c/Branch_0/Conv2d_0a_1x1/BatchNorm/moving_mean", "op": "Const"}, {"attr": {"dtype": {"type": "DT_FLOAT"}, "value": {"tensor": {"dtype": "DT_FLOAT", "tensorShape": {"dim": [{"size": "64"}]}}}}, "name": "FeatureExtractor/InceptionV2/Mixed_3c/Branch_0/Conv2d_0a_1x1/BatchNorm/moving_variance", "op": "Const"}, {"attr": {"dtype": {"type": "DT_FLOAT"}, "value": {"tensor": {"dtype": "DT_FLOAT", "tensorShape": {"dim": [{"size": "1"}, {"size": "1"}, {"size": "256"}, {"size": "64"}]}}}}, "name": "FeatureExtractor/InceptionV2/Mixed_3c/Branch_1/Conv2d_0a_1x1/weights", "op": "Const"}, {"attr": {"dtype": {"type": "DT_FLOAT"}, "value": {"tensor": {"dtype": "DT_FLOAT", "tensorShape": {"dim": [{"size": "64"}]}}}}, "name": "FeatureExtractor/InceptionV2/Mixed_3c/Branch_1/Conv2d_0a_1x1/BatchNorm/gamma", "op": "Const"}, {"attr": {"dtype": {"type": "DT_FLOAT"}, "value": {"tensor": {"dtype": "DT_FLOAT", "tensorShape": {"dim": [{"size": "64"}]}}}}, "name": "FeatureExtractor/InceptionV2/Mixed_3c/Branch_1/Conv2d_0a_1x1/BatchNorm/beta", "op": "Const"}, {"attr": {"dtype": {"type": "DT_FLOAT"}, "value": {"tensor": {"dtype": "DT_FLOAT", "tensorShape": {"dim": [{"size": "64"}]}}}}, "name": "FeatureExtractor/InceptionV2/Mixed_3c/Branch_1/Conv2d_0a_1x1/BatchNorm/moving_mean", "op": "Const"}, {"attr": {"dtype": {"type": "DT_FLOAT"}, "value": {"tensor": {"dtype": "DT_FLOAT", "tensorShape": {"dim": [{"size": "64"}]}}}}, "name": "FeatureExtractor/InceptionV2/Mixed_3c/Branch_1/Conv2d_0a_1x1/BatchNorm/moving_variance", "op": "Const"}, {"attr": {"dtype": {"type": "DT_FLOAT"}, "value": {"tensor": {"dtype": "DT_FLOAT", "tensorShape": {"dim": [{"size": "3"}, {"size": "3"}, {"size": "64"}, {"size": "96"}]}}}}, "name": "FeatureExtractor/InceptionV2/Mixed_3c/Branch_1/Conv2d_0b_3x3/weights", "op": "Const"}, {"attr": {"dtype": {"type": "DT_FLOAT"}, "value": {"tensor": {"dtype": "DT_FLOAT", "tensorShape": {"dim": [{"size": "96"}]}}}}, "name": "FeatureExtractor/InceptionV2/Mixed_3c/Branch_1/Conv2d_0b_3x3/BatchNorm/gamma", "op": "Const"}, {"attr": {"dtype": {"type": "DT_FLOAT"}, "value": {"tensor": {"dtype": "DT_FLOAT", "tensorShape": {"dim": [{"size": "96"}]}}}}, "name": "FeatureExtractor/InceptionV2/Mixed_3c/Branch_1/Conv2d_0b_3x3/BatchNorm/beta", "op": "Const"}, {"attr": {"dtype": {"type": "DT_FLOAT"}, "value": {"tensor": {"dtype": "DT_FLOAT", "tensorShape": {"dim": [{"size": "96"}]}}}}, "name": "FeatureExtractor/InceptionV2/Mixed_3c/Branch_1/Conv2d_0b_3x3/BatchNorm/moving_mean", "op": "Const"}, {"attr": {"dtype": {"type": "DT_FLOAT"}, "value": {"tensor": {"dtype": "DT_FLOAT", "tensorShape": {"dim": [{"size": "96"}]}}}}, "name": "FeatureExtractor/InceptionV2/Mixed_3c/Branch_1/Conv2d_0b_3x3/BatchNorm/moving_variance", "op": "Const"}, {"attr": {"dtype": {"type": "DT_FLOAT"}, "value": {"tensor": {"dtype": "DT_FLOAT", "tensorShape": {"dim": [{"size": "1"}, {"size": "1"}, {"size": "256"}, {"size": "64"}]}}}}, "name": "FeatureExtractor/InceptionV2/Mixed_3c/Branch_2/Conv2d_0a_1x1/weights", "op": "Const"}, {"attr": {"dtype": {"type": "DT_FLOAT"}, "value": {"tensor": {"dtype": "DT_FLOAT", "tensorShape": {"dim": [{"size": "64"}]}}}}, "name": "FeatureExtractor/InceptionV2/Mixed_3c/Branch_2/Conv2d_0a_1x1/BatchNorm/gamma", "op": "Const"}, {"attr": {"dtype": {"type": "DT_FLOAT"}, "value": {"tensor": {"dtype": "DT_FLOAT", "tensorShape": {"dim": [{"size": "64"}]}}}}, "name": "FeatureExtractor/InceptionV2/Mixed_3c/Branch_2/Conv2d_0a_1x1/BatchNorm/beta", "op": "Const"}, {"attr": {"dtype": {"type": "DT_FLOAT"}, "value": {"tensor": {"dtype": "DT_FLOAT", "tensorShape": {"dim": [{"size": "64"}]}}}}, "name": "FeatureExtractor/InceptionV2/Mixed_3c/Branch_2/Conv2d_0a_1x1/BatchNorm/moving_mean", "op": "Const"}, {"attr": {"dtype": {"type": "DT_FLOAT"}, "value": {"tensor": {"dtype": "DT_FLOAT", "tensorShape": {"dim": [{"size": "64"}]}}}}, "name": "FeatureExtractor/InceptionV2/Mixed_3c/Branch_2/Conv2d_0a_1x1/BatchNorm/moving_variance", "op": "Const"}, {"attr": {"dtype": {"type": "DT_FLOAT"}, "value": {"tensor": {"dtype": "DT_FLOAT", "tensorShape": {"dim": [{"size": "3"}, {"size": "3"}, {"size": "64"}, {"size": "96"}]}}}}, "name": "FeatureExtractor/InceptionV2/Mixed_3c/Branch_2/Conv2d_0b_3x3/weights", "op": "Const"}, {"attr": {"dtype": {"type": "DT_FLOAT"}, "value": {"tensor": {"dtype": "DT_FLOAT", "tensorShape": {"dim": [{"size": "96"}]}}}}, "name": "FeatureExtractor/InceptionV2/Mixed_3c/Branch_2/Conv2d_0b_3x3/BatchNorm/gamma", "op": "Const"}, {"attr": {"dtype": {"type": "DT_FLOAT"}, "value": {"tensor": {"dtype": "DT_FLOAT", "tensorShape": {"dim": [{"size": "96"}]}}}}, "name": "FeatureExtractor/InceptionV2/Mixed_3c/Branch_2/Conv2d_0b_3x3/BatchNorm/beta", "op": "Const"}, {"attr": {"dtype": {"type": "DT_FLOAT"}, "value": {"tensor": {"dtype": "DT_FLOAT", "tensorShape": {"dim": [{"size": "96"}]}}}}, "name": "FeatureExtractor/InceptionV2/Mixed_3c/Branch_2/Conv2d_0b_3x3/BatchNorm/moving_mean", "op": "Const"}, {"attr": {"dtype": {"type": "DT_FLOAT"}, "value": {"tensor": {"dtype": "DT_FLOAT", "tensorShape": {"dim": [{"size": "96"}]}}}}, "name": "FeatureExtractor/InceptionV2/Mixed_3c/Branch_2/Conv2d_0b_3x3/BatchNorm/moving_variance", "op": "Const"}, {"attr": {"dtype": {"type": "DT_FLOAT"}, "value": {"tensor": {"dtype": "DT_FLOAT", "tensorShape": {"dim": [{"size": "3"}, {"size": "3"}, {"size": "96"}, {"size": "96"}]}}}}, "name": "FeatureExtractor/InceptionV2/Mixed_3c/Branch_2/Conv2d_0c_3x3/weights", "op": "Const"}, {"attr": {"dtype": {"type": "DT_FLOAT"}, "value": {"tensor": {"dtype": "DT_FLOAT", "tensorShape": {"dim": [{"size": "96"}]}}}}, "name": "FeatureExtractor/InceptionV2/Mixed_3c/Branch_2/Conv2d_0c_3x3/BatchNorm/gamma", "op": "Const"}, {"attr": {"dtype": {"type": "DT_FLOAT"}, "value": {"tensor": {"dtype": "DT_FLOAT", "tensorShape": {"dim": [{"size": "96"}]}}}}, "name": "FeatureExtractor/InceptionV2/Mixed_3c/Branch_2/Conv2d_0c_3x3/BatchNorm/beta", "op": "Const"}, {"attr": {"dtype": {"type": "DT_FLOAT"}, "value": {"tensor": {"dtype": "DT_FLOAT", "tensorShape": {"dim": [{"size": "96"}]}}}}, "name": "FeatureExtractor/InceptionV2/Mixed_3c/Branch_2/Conv2d_0c_3x3/BatchNorm/moving_mean", "op": "Const"}, {"attr": {"dtype": {"type": "DT_FLOAT"}, "value": {"tensor": {"dtype": "DT_FLOAT", "tensorShape": {"dim": [{"size": "96"}]}}}}, "name": "FeatureExtractor/InceptionV2/Mixed_3c/Branch_2/Conv2d_0c_3x3/BatchNorm/moving_variance", "op": "Const"}, {"attr": {"dtype": {"type": "DT_FLOAT"}, "value": {"tensor": {"dtype": "DT_FLOAT", "tensorShape": {"dim": [{"size": "1"}, {"size": "1"}, {"size": "256"}, {"size": "64"}]}}}}, "name": "FeatureExtractor/InceptionV2/Mixed_3c/Branch_3/Conv2d_0b_1x1/weights", "op": "Const"}, {"attr": {"dtype": {"type": "DT_FLOAT"}, "value": {"tensor": {"dtype": "DT_FLOAT", "tensorShape": {"dim": [{"size": "64"}]}}}}, "name": "FeatureExtractor/InceptionV2/Mixed_3c/Branch_3/Conv2d_0b_1x1/BatchNorm/gamma", "op": "Const"}, {"attr": {"dtype": {"type": "DT_FLOAT"}, "value": {"tensor": {"dtype": "DT_FLOAT", "tensorShape": {"dim": [{"size": "64"}]}}}}, "name": "FeatureExtractor/InceptionV2/Mixed_3c/Branch_3/Conv2d_0b_1x1/BatchNorm/beta", "op": "Const"}, {"attr": {"dtype": {"type": "DT_FLOAT"}, "value": {"tensor": {"dtype": "DT_FLOAT", "tensorShape": {"dim": [{"size": "64"}]}}}}, "name": "FeatureExtractor/InceptionV2/Mixed_3c/Branch_3/Conv2d_0b_1x1/BatchNorm/moving_mean", "op": "Const"}, {"attr": {"dtype": {"type": "DT_FLOAT"}, "value": {"tensor": {"dtype": "DT_FLOAT", "tensorShape": {"dim": [{"size": "64"}]}}}}, "name": "FeatureExtractor/InceptionV2/Mixed_3c/Branch_3/Conv2d_0b_1x1/BatchNorm/moving_variance", "op": "Const"}, {"attr": {"dtype": {"type": "DT_FLOAT"}, "value": {"tensor": {"dtype": "DT_FLOAT", "tensorShape": {"dim": [{"size": "1"}, {"size": "1"}, {"size": "320"}, {"size": "128"}]}}}}, "name": "FeatureExtractor/InceptionV2/Mixed_4a/Branch_0/Conv2d_0a_1x1/weights", "op": "Const"}, {"attr": {"dtype": {"type": "DT_FLOAT"}, "value": {"tensor": {"dtype": "DT_FLOAT", "tensorShape": {"dim": [{"size": "128"}]}}}}, "name": "FeatureExtractor/InceptionV2/Mixed_4a/Branch_0/Conv2d_0a_1x1/BatchNorm/gamma", "op": "Const"}, {"attr": {"dtype": {"type": "DT_FLOAT"}, "value": {"tensor": {"dtype": "DT_FLOAT", "tensorShape": {"dim": [{"size": "128"}]}}}}, "name": "FeatureExtractor/InceptionV2/Mixed_4a/Branch_0/Conv2d_0a_1x1/BatchNorm/beta", "op": "Const"}, {"attr": {"dtype": {"type": "DT_FLOAT"}, "value": {"tensor": {"dtype": "DT_FLOAT", "tensorShape": {"dim": [{"size": "128"}]}}}}, "name": "FeatureExtractor/InceptionV2/Mixed_4a/Branch_0/Conv2d_0a_1x1/BatchNorm/moving_mean", "op": "Const"}, {"attr": {"dtype": {"type": "DT_FLOAT"}, "value": {"tensor": {"dtype": "DT_FLOAT", "tensorShape": {"dim": [{"size": "128"}]}}}}, "name": "FeatureExtractor/InceptionV2/Mixed_4a/Branch_0/Conv2d_0a_1x1/BatchNorm/moving_variance", "op": "Const"}, {"attr": {"dtype": {"type": "DT_FLOAT"}, "value": {"tensor": {"dtype": "DT_FLOAT", "tensorShape": {"dim": [{"size": "3"}, {"size": "3"}, {"size": "128"}, {"size": "160"}]}}}}, "name": "FeatureExtractor/InceptionV2/Mixed_4a/Branch_0/Conv2d_1a_3x3/weights", "op": "Const"}, {"attr": {"dtype": {"type": "DT_FLOAT"}, "value": {"tensor": {"dtype": "DT_FLOAT", "tensorShape": {"dim": [{"size": "160"}]}}}}, "name": "FeatureExtractor/InceptionV2/Mixed_4a/Branch_0/Conv2d_1a_3x3/BatchNorm/gamma", "op": "Const"}, {"attr": {"dtype": {"type": "DT_FLOAT"}, "value": {"tensor": {"dtype": "DT_FLOAT", "tensorShape": {"dim": [{"size": "160"}]}}}}, "name": "FeatureExtractor/InceptionV2/Mixed_4a/Branch_0/Conv2d_1a_3x3/BatchNorm/beta", "op": "Const"}, {"attr": {"dtype": {"type": "DT_FLOAT"}, "value": {"tensor": {"dtype": "DT_FLOAT", "tensorShape": {"dim": [{"size": "160"}]}}}}, "name": "FeatureExtractor/InceptionV2/Mixed_4a/Branch_0/Conv2d_1a_3x3/BatchNorm/moving_mean", "op": "Const"}, {"attr": {"dtype": {"type": "DT_FLOAT"}, "value": {"tensor": {"dtype": "DT_FLOAT", "tensorShape": {"dim": [{"size": "160"}]}}}}, "name": "FeatureExtractor/InceptionV2/Mixed_4a/Branch_0/Conv2d_1a_3x3/BatchNorm/moving_variance", "op": "Const"}, {"attr": {"dtype": {"type": "DT_FLOAT"}, "value": {"tensor": {"dtype": "DT_FLOAT", "tensorShape": {"dim": [{"size": "1"}, {"size": "1"}, {"size": "320"}, {"size": "64"}]}}}}, "name": "FeatureExtractor/InceptionV2/Mixed_4a/Branch_1/Conv2d_0a_1x1/weights", "op": "Const"}, {"attr": {"dtype": {"type": "DT_FLOAT"}, "value": {"tensor": {"dtype": "DT_FLOAT", "tensorShape": {"dim": [{"size": "64"}]}}}}, "name": "FeatureExtractor/InceptionV2/Mixed_4a/Branch_1/Conv2d_0a_1x1/BatchNorm/gamma", "op": "Const"}, {"attr": {"dtype": {"type": "DT_FLOAT"}, "value": {"tensor": {"dtype": "DT_FLOAT", "tensorShape": {"dim": [{"size": "64"}]}}}}, "name": "FeatureExtractor/InceptionV2/Mixed_4a/Branch_1/Conv2d_0a_1x1/BatchNorm/beta", "op": "Const"}, {"attr": {"dtype": {"type": "DT_FLOAT"}, "value": {"tensor": {"dtype": "DT_FLOAT", "tensorShape": {"dim": [{"size": "64"}]}}}}, "name": "FeatureExtractor/InceptionV2/Mixed_4a/Branch_1/Conv2d_0a_1x1/BatchNorm/moving_mean", "op": "Const"}, {"attr": {"dtype": {"type": "DT_FLOAT"}, "value": {"tensor": {"dtype": "DT_FLOAT", "tensorShape": {"dim": [{"size": "64"}]}}}}, "name": "FeatureExtractor/InceptionV2/Mixed_4a/Branch_1/Conv2d_0a_1x1/BatchNorm/moving_variance", "op": "Const"}, {"attr": {"dtype": {"type": "DT_FLOAT"}, "value": {"tensor": {"dtype": "DT_FLOAT", "tensorShape": {"dim": [{"size": "3"}, {"size": "3"}, {"size": "64"}, {"size": "96"}]}}}}, "name": "FeatureExtractor/InceptionV2/Mixed_4a/Branch_1/Conv2d_0b_3x3/weights", "op": "Const"}, {"attr": {"dtype": {"type": "DT_FLOAT"}, "value": {"tensor": {"dtype": "DT_FLOAT", "tensorShape": {"dim": [{"size": "96"}]}}}}, "name": "FeatureExtractor/InceptionV2/Mixed_4a/Branch_1/Conv2d_0b_3x3/BatchNorm/gamma", "op": "Const"}, {"attr": {"dtype": {"type": "DT_FLOAT"}, "value": {"tensor": {"dtype": "DT_FLOAT", "tensorShape": {"dim": [{"size": "96"}]}}}}, "name": "FeatureExtractor/InceptionV2/Mixed_4a/Branch_1/Conv2d_0b_3x3/BatchNorm/beta", "op": "Const"}, {"attr": {"dtype": {"type": "DT_FLOAT"}, "value": {"tensor": {"dtype": "DT_FLOAT", "tensorShape": {"dim": [{"size": "96"}]}}}}, "name": "FeatureExtractor/InceptionV2/Mixed_4a/Branch_1/Conv2d_0b_3x3/BatchNorm/moving_mean", "op": "Const"}, {"attr": {"dtype": {"type": "DT_FLOAT"}, "value": {"tensor": {"dtype": "DT_FLOAT", "tensorShape": {"dim": [{"size": "96"}]}}}}, "name": "FeatureExtractor/InceptionV2/Mixed_4a/Branch_1/Conv2d_0b_3x3/BatchNorm/moving_variance", "op": "Const"}, {"attr": {"dtype": {"type": "DT_FLOAT"}, "value": {"tensor": {"dtype": "DT_FLOAT", "tensorShape": {"dim": [{"size": "3"}, {"size": "3"}, {"size": "96"}, {"size": "96"}]}}}}, "name": "FeatureExtractor/InceptionV2/Mixed_4a/Branch_1/Conv2d_1a_3x3/weights", "op": "Const"}, {"attr": {"dtype": {"type": "DT_FLOAT"}, "value": {"tensor": {"dtype": "DT_FLOAT", "tensorShape": {"dim": [{"size": "96"}]}}}}, "name": "FeatureExtractor/InceptionV2/Mixed_4a/Branch_1/Conv2d_1a_3x3/BatchNorm/gamma", "op": "Const"}, {"attr": {"dtype": {"type": "DT_FLOAT"}, "value": {"tensor": {"dtype": "DT_FLOAT", "tensorShape": {"dim": [{"size": "96"}]}}}}, "name": "FeatureExtractor/InceptionV2/Mixed_4a/Branch_1/Conv2d_1a_3x3/BatchNorm/beta", "op": "Const"}, {"attr": {"dtype": {"type": "DT_FLOAT"}, "value": {"tensor": {"dtype": "DT_FLOAT", "tensorShape": {"dim": [{"size": "96"}]}}}}, "name": "FeatureExtractor/InceptionV2/Mixed_4a/Branch_1/Conv2d_1a_3x3/BatchNorm/moving_mean", "op": "Const"}, {"attr": {"dtype": {"type": "DT_FLOAT"}, "value": {"tensor": {"dtype": "DT_FLOAT", "tensorShape": {"dim": [{"size": "96"}]}}}}, "name": "FeatureExtractor/InceptionV2/Mixed_4a/Branch_1/Conv2d_1a_3x3/BatchNorm/moving_variance", "op": "Const"}, {"attr": {"dtype": {"type": "DT_FLOAT"}, "value": {"tensor": {"dtype": "DT_FLOAT", "tensorShape": {"dim": [{"size": "1"}, {"size": "1"}, {"size": "576"}, {"size": "224"}]}}}}, "name": "FeatureExtractor/InceptionV2/Mixed_4b/Branch_0/Conv2d_0a_1x1/weights", "op": "Const"}, {"attr": {"dtype": {"type": "DT_FLOAT"}, "value": {"tensor": {"dtype": "DT_FLOAT", "tensorShape": {"dim": [{"size": "224"}]}}}}, "name": "FeatureExtractor/InceptionV2/Mixed_4b/Branch_0/Conv2d_0a_1x1/BatchNorm/gamma", "op": "Const"}, {"attr": {"dtype": {"type": "DT_FLOAT"}, "value": {"tensor": {"dtype": "DT_FLOAT", "tensorShape": {"dim": [{"size": "224"}]}}}}, "name": "FeatureExtractor/InceptionV2/Mixed_4b/Branch_0/Conv2d_0a_1x1/BatchNorm/beta", "op": "Const"}, {"attr": {"dtype": {"type": "DT_FLOAT"}, "value": {"tensor": {"dtype": "DT_FLOAT", "tensorShape": {"dim": [{"size": "224"}]}}}}, "name": "FeatureExtractor/InceptionV2/Mixed_4b/Branch_0/Conv2d_0a_1x1/BatchNorm/moving_mean", "op": "Const"}, {"attr": {"dtype": {"type": "DT_FLOAT"}, "value": {"tensor": {"dtype": "DT_FLOAT", "tensorShape": {"dim": [{"size": "224"}]}}}}, "name": "FeatureExtractor/InceptionV2/Mixed_4b/Branch_0/Conv2d_0a_1x1/BatchNorm/moving_variance", "op": "Const"}, {"attr": {"dtype": {"type": "DT_FLOAT"}, "value": {"tensor": {"dtype": "DT_FLOAT", "tensorShape": {"dim": [{"size": "1"}, {"size": "1"}, {"size": "576"}, {"size": "64"}]}}}}, "name": "FeatureExtractor/InceptionV2/Mixed_4b/Branch_1/Conv2d_0a_1x1/weights", "op": "Const"}, {"attr": {"dtype": {"type": "DT_FLOAT"}, "value": {"tensor": {"dtype": "DT_FLOAT", "tensorShape": {"dim": [{"size": "64"}]}}}}, "name": "FeatureExtractor/InceptionV2/Mixed_4b/Branch_1/Conv2d_0a_1x1/BatchNorm/gamma", "op": "Const"}, {"attr": {"dtype": {"type": "DT_FLOAT"}, "value": {"tensor": {"dtype": "DT_FLOAT", "tensorShape": {"dim": [{"size": "64"}]}}}}, "name": "FeatureExtractor/InceptionV2/Mixed_4b/Branch_1/Conv2d_0a_1x1/BatchNorm/beta", "op": "Const"}, {"attr": {"dtype": {"type": "DT_FLOAT"}, "value": {"tensor": {"dtype": "DT_FLOAT", "tensorShape": {"dim": [{"size": "64"}]}}}}, "name": "FeatureExtractor/InceptionV2/Mixed_4b/Branch_1/Conv2d_0a_1x1/BatchNorm/moving_mean", "op": "Const"}, {"attr": {"dtype": {"type": "DT_FLOAT"}, "value": {"tensor": {"dtype": "DT_FLOAT", "tensorShape": {"dim": [{"size": "64"}]}}}}, "name": "FeatureExtractor/InceptionV2/Mixed_4b/Branch_1/Conv2d_0a_1x1/BatchNorm/moving_variance", "op": "Const"}, {"attr": {"dtype": {"type": "DT_FLOAT"}, "value": {"tensor": {"dtype": "DT_FLOAT", "tensorShape": {"dim": [{"size": "3"}, {"size": "3"}, {"size": "64"}, {"size": "96"}]}}}}, "name": "FeatureExtractor/InceptionV2/Mixed_4b/Branch_1/Conv2d_0b_3x3/weights", "op": "Const"}, {"attr": {"dtype": {"type": "DT_FLOAT"}, "value": {"tensor": {"dtype": "DT_FLOAT", "tensorShape": {"dim": [{"size": "96"}]}}}}, "name": "FeatureExtractor/InceptionV2/Mixed_4b/Branch_1/Conv2d_0b_3x3/BatchNorm/gamma", "op": "Const"}, {"attr": {"dtype": {"type": "DT_FLOAT"}, "value": {"tensor": {"dtype": "DT_FLOAT", "tensorShape": {"dim": [{"size": "96"}]}}}}, "name": "FeatureExtractor/InceptionV2/Mixed_4b/Branch_1/Conv2d_0b_3x3/BatchNorm/beta", "op": "Const"}, {"attr": {"dtype": {"type": "DT_FLOAT"}, "value": {"tensor": {"dtype": "DT_FLOAT", "tensorShape": {"dim": [{"size": "96"}]}}}}, "name": "FeatureExtractor/InceptionV2/Mixed_4b/Branch_1/Conv2d_0b_3x3/BatchNorm/moving_mean", "op": "Const"}, {"attr": {"dtype": {"type": "DT_FLOAT"}, "value": {"tensor": {"dtype": "DT_FLOAT", "tensorShape": {"dim": [{"size": "96"}]}}}}, "name": "FeatureExtractor/InceptionV2/Mixed_4b/Branch_1/Conv2d_0b_3x3/BatchNorm/moving_variance", "op": "Const"}, {"attr": {"dtype": {"type": "DT_FLOAT"}, "value": {"tensor": {"dtype": "DT_FLOAT", "tensorShape": {"dim": [{"size": "1"}, {"size": "1"}, {"size": "576"}, {"size": "96"}]}}}}, "name": "FeatureExtractor/InceptionV2/Mixed_4b/Branch_2/Conv2d_0a_1x1/weights", "op": "Const"}, {"attr": {"dtype": {"type": "DT_FLOAT"}, "value": {"tensor": {"dtype": "DT_FLOAT", "tensorShape": {"dim": [{"size": "96"}]}}}}, "name": "FeatureExtractor/InceptionV2/Mixed_4b/Branch_2/Conv2d_0a_1x1/BatchNorm/gamma", "op": "Const"}, {"attr": {"dtype": {"type": "DT_FLOAT"}, "value": {"tensor": {"dtype": "DT_FLOAT", "tensorShape": {"dim": [{"size": "96"}]}}}}, "name": "FeatureExtractor/InceptionV2/Mixed_4b/Branch_2/Conv2d_0a_1x1/BatchNorm/beta", "op": "Const"}, {"attr": {"dtype": {"type": "DT_FLOAT"}, "value": {"tensor": {"dtype": "DT_FLOAT", "tensorShape": {"dim": [{"size": "96"}]}}}}, "name": "FeatureExtractor/InceptionV2/Mixed_4b/Branch_2/Conv2d_0a_1x1/BatchNorm/moving_mean", "op": "Const"}, {"attr": {"dtype": {"type": "DT_FLOAT"}, "value": {"tensor": {"dtype": "DT_FLOAT", "tensorShape": {"dim": [{"size": "96"}]}}}}, "name": "FeatureExtractor/InceptionV2/Mixed_4b/Branch_2/Conv2d_0a_1x1/BatchNorm/moving_variance", "op": "Const"}, {"attr": {"dtype": {"type": "DT_FLOAT"}, "value": {"tensor": {"dtype": "DT_FLOAT", "tensorShape": {"dim": [{"size": "3"}, {"size": "3"}, {"size": "96"}, {"size": "128"}]}}}}, "name": "FeatureExtractor/InceptionV2/Mixed_4b/Branch_2/Conv2d_0b_3x3/weights", "op": "Const"}, {"attr": {"dtype": {"type": "DT_FLOAT"}, "value": {"tensor": {"dtype": "DT_FLOAT", "tensorShape": {"dim": [{"size": "128"}]}}}}, "name": "FeatureExtractor/InceptionV2/Mixed_4b/Branch_2/Conv2d_0b_3x3/BatchNorm/gamma", "op": "Const"}, {"attr": {"dtype": {"type": "DT_FLOAT"}, "value": {"tensor": {"dtype": "DT_FLOAT", "tensorShape": {"dim": [{"size": "128"}]}}}}, "name": "FeatureExtractor/InceptionV2/Mixed_4b/Branch_2/Conv2d_0b_3x3/BatchNorm/beta", "op": "Const"}, {"attr": {"dtype": {"type": "DT_FLOAT"}, "value": {"tensor": {"dtype": "DT_FLOAT", "tensorShape": {"dim": [{"size": "128"}]}}}}, "name": "FeatureExtractor/InceptionV2/Mixed_4b/Branch_2/Conv2d_0b_3x3/BatchNorm/moving_mean", "op": "Const"}, {"attr": {"dtype": {"type": "DT_FLOAT"}, "value": {"tensor": {"dtype": "DT_FLOAT", "tensorShape": {"dim": [{"size": "128"}]}}}}, "name": "FeatureExtractor/InceptionV2/Mixed_4b/Branch_2/Conv2d_0b_3x3/BatchNorm/moving_variance", "op": "Const"}, {"attr": {"dtype": {"type": "DT_FLOAT"}, "value": {"tensor": {"dtype": "DT_FLOAT", "tensorShape": {"dim": [{"size": "3"}, {"size": "3"}, {"size": "128"}, {"size": "128"}]}}}}, "name": "FeatureExtractor/InceptionV2/Mixed_4b/Branch_2/Conv2d_0c_3x3/weights", "op": "Const"}, {"attr": {"dtype": {"type": "DT_FLOAT"}, "value": {"tensor": {"dtype": "DT_FLOAT", "tensorShape": {"dim": [{"size": "128"}]}}}}, "name": "FeatureExtractor/InceptionV2/Mixed_4b/Branch_2/Conv2d_0c_3x3/BatchNorm/gamma", "op": "Const"}, {"attr": {"dtype": {"type": "DT_FLOAT"}, "value": {"tensor": {"dtype": "DT_FLOAT", "tensorShape": {"dim": [{"size": "128"}]}}}}, "name": "FeatureExtractor/InceptionV2/Mixed_4b/Branch_2/Conv2d_0c_3x3/BatchNorm/beta", "op": "Const"}, {"attr": {"dtype": {"type": "DT_FLOAT"}, "value": {"tensor": {"dtype": "DT_FLOAT", "tensorShape": {"dim": [{"size": "128"}]}}}}, "name": "FeatureExtractor/InceptionV2/Mixed_4b/Branch_2/Conv2d_0c_3x3/BatchNorm/moving_mean", "op": "Const"}, {"attr": {"dtype": {"type": "DT_FLOAT"}, "value": {"tensor": {"dtype": "DT_FLOAT", "tensorShape": {"dim": [{"size": "128"}]}}}}, "name": "FeatureExtractor/InceptionV2/Mixed_4b/Branch_2/Conv2d_0c_3x3/BatchNorm/moving_variance", "op": "Const"}, {"attr": {"dtype": {"type": "DT_FLOAT"}, "value": {"tensor": {"dtype": "DT_FLOAT", "tensorShape": {"dim": [{"size": "1"}, {"size": "1"}, {"size": "576"}, {"size": "128"}]}}}}, "name": "FeatureExtractor/InceptionV2/Mixed_4b/Branch_3/Conv2d_0b_1x1/weights", "op": "Const"}, {"attr": {"dtype": {"type": "DT_FLOAT"}, "value": {"tensor": {"dtype": "DT_FLOAT", "tensorShape": {"dim": [{"size": "128"}]}}}}, "name": "FeatureExtractor/InceptionV2/Mixed_4b/Branch_3/Conv2d_0b_1x1/BatchNorm/gamma", "op": "Const"}, {"attr": {"dtype": {"type": "DT_FLOAT"}, "value": {"tensor": {"dtype": "DT_FLOAT", "tensorShape": {"dim": [{"size": "128"}]}}}}, "name": "FeatureExtractor/InceptionV2/Mixed_4b/Branch_3/Conv2d_0b_1x1/BatchNorm/beta", "op": "Const"}, {"attr": {"dtype": {"type": "DT_FLOAT"}, "value": {"tensor": {"dtype": "DT_FLOAT", "tensorShape": {"dim": [{"size": "128"}]}}}}, "name": "FeatureExtractor/InceptionV2/Mixed_4b/Branch_3/Conv2d_0b_1x1/BatchNorm/moving_mean", "op": "Const"}, {"attr": {"dtype": {"type": "DT_FLOAT"}, "value": {"tensor": {"dtype": "DT_FLOAT", "tensorShape": {"dim": [{"size": "128"}]}}}}, "name": "FeatureExtractor/InceptionV2/Mixed_4b/Branch_3/Conv2d_0b_1x1/BatchNorm/moving_variance", "op": "Const"}, {"attr": {"dtype": {"type": "DT_FLOAT"}, "value": {"tensor": {"dtype": "DT_FLOAT", "tensorShape": {"dim": [{"size": "1"}, {"size": "1"}, {"size": "576"}, {"size": "192"}]}}}}, "name": "FeatureExtractor/InceptionV2/Mixed_4c/Branch_0/Conv2d_0a_1x1/weights", "op": "Const"}, {"attr": {"dtype": {"type": "DT_FLOAT"}, "value": {"tensor": {"dtype": "DT_FLOAT", "tensorShape": {"dim": [{"size": "192"}]}}}}, "name": "FeatureExtractor/InceptionV2/Mixed_4c/Branch_0/Conv2d_0a_1x1/BatchNorm/gamma", "op": "Const"}, {"attr": {"dtype": {"type": "DT_FLOAT"}, "value": {"tensor": {"dtype": "DT_FLOAT", "tensorShape": {"dim": [{"size": "192"}]}}}}, "name": "FeatureExtractor/InceptionV2/Mixed_4c/Branch_0/Conv2d_0a_1x1/BatchNorm/beta", "op": "Const"}, {"attr": {"dtype": {"type": "DT_FLOAT"}, "value": {"tensor": {"dtype": "DT_FLOAT", "tensorShape": {"dim": [{"size": "192"}]}}}}, "name": "FeatureExtractor/InceptionV2/Mixed_4c/Branch_0/Conv2d_0a_1x1/BatchNorm/moving_mean", "op": "Const"}, {"attr": {"dtype": {"type": "DT_FLOAT"}, "value": {"tensor": {"dtype": "DT_FLOAT", "tensorShape": {"dim": [{"size": "192"}]}}}}, "name": "FeatureExtractor/InceptionV2/Mixed_4c/Branch_0/Conv2d_0a_1x1/BatchNorm/moving_variance", "op": "Const"}, {"attr": {"dtype": {"type": "DT_FLOAT"}, "value": {"tensor": {"dtype": "DT_FLOAT", "tensorShape": {"dim": [{"size": "1"}, {"size": "1"}, {"size": "576"}, {"size": "96"}]}}}}, "name": "FeatureExtractor/InceptionV2/Mixed_4c/Branch_1/Conv2d_0a_1x1/weights", "op": "Const"}, {"attr": {"dtype": {"type": "DT_FLOAT"}, "value": {"tensor": {"dtype": "DT_FLOAT", "tensorShape": {"dim": [{"size": "96"}]}}}}, "name": "FeatureExtractor/InceptionV2/Mixed_4c/Branch_1/Conv2d_0a_1x1/BatchNorm/gamma", "op": "Const"}, {"attr": {"dtype": {"type": "DT_FLOAT"}, "value": {"tensor": {"dtype": "DT_FLOAT", "tensorShape": {"dim": [{"size": "96"}]}}}}, "name": "FeatureExtractor/InceptionV2/Mixed_4c/Branch_1/Conv2d_0a_1x1/BatchNorm/beta", "op": "Const"}, {"attr": {"dtype": {"type": "DT_FLOAT"}, "value": {"tensor": {"dtype": "DT_FLOAT", "tensorShape": {"dim": [{"size": "96"}]}}}}, "name": "FeatureExtractor/InceptionV2/Mixed_4c/Branch_1/Conv2d_0a_1x1/BatchNorm/moving_mean", "op": "Const"}, {"attr": {"dtype": {"type": "DT_FLOAT"}, "value": {"tensor": {"dtype": "DT_FLOAT", "tensorShape": {"dim": [{"size": "96"}]}}}}, "name": "FeatureExtractor/InceptionV2/Mixed_4c/Branch_1/Conv2d_0a_1x1/BatchNorm/moving_variance", "op": "Const"}, {"attr": {"dtype": {"type": "DT_FLOAT"}, "value": {"tensor": {"dtype": "DT_FLOAT", "tensorShape": {"dim": [{"size": "3"}, {"size": "3"}, {"size": "96"}, {"size": "128"}]}}}}, "name": "FeatureExtractor/InceptionV2/Mixed_4c/Branch_1/Conv2d_0b_3x3/weights", "op": "Const"}, {"attr": {"dtype": {"type": "DT_FLOAT"}, "value": {"tensor": {"dtype": "DT_FLOAT", "tensorShape": {"dim": [{"size": "128"}]}}}}, "name": "FeatureExtractor/InceptionV2/Mixed_4c/Branch_1/Conv2d_0b_3x3/BatchNorm/gamma", "op": "Const"}, {"attr": {"dtype": {"type": "DT_FLOAT"}, "value": {"tensor": {"dtype": "DT_FLOAT", "tensorShape": {"dim": [{"size": "128"}]}}}}, "name": "FeatureExtractor/InceptionV2/Mixed_4c/Branch_1/Conv2d_0b_3x3/BatchNorm/beta", "op": "Const"}, {"attr": {"dtype": {"type": "DT_FLOAT"}, "value": {"tensor": {"dtype": "DT_FLOAT", "tensorShape": {"dim": [{"size": "128"}]}}}}, "name": "FeatureExtractor/InceptionV2/Mixed_4c/Branch_1/Conv2d_0b_3x3/BatchNorm/moving_mean", "op": "Const"}, {"attr": {"dtype": {"type": "DT_FLOAT"}, "value": {"tensor": {"dtype": "DT_FLOAT", "tensorShape": {"dim": [{"size": "128"}]}}}}, "name": "FeatureExtractor/InceptionV2/Mixed_4c/Branch_1/Conv2d_0b_3x3/BatchNorm/moving_variance", "op": "Const"}, {"attr": {"dtype": {"type": "DT_FLOAT"}, "value": {"tensor": {"dtype": "DT_FLOAT", "tensorShape": {"dim": [{"size": "1"}, {"size": "1"}, {"size": "576"}, {"size": "96"}]}}}}, "name": "FeatureExtractor/InceptionV2/Mixed_4c/Branch_2/Conv2d_0a_1x1/weights", "op": "Const"}, {"attr": {"dtype": {"type": "DT_FLOAT"}, "value": {"tensor": {"dtype": "DT_FLOAT", "tensorShape": {"dim": [{"size": "96"}]}}}}, "name": "FeatureExtractor/InceptionV2/Mixed_4c/Branch_2/Conv2d_0a_1x1/BatchNorm/gamma", "op": "Const"}, {"attr": {"dtype": {"type": "DT_FLOAT"}, "value": {"tensor": {"dtype": "DT_FLOAT", "tensorShape": {"dim": [{"size": "96"}]}}}}, "name": "FeatureExtractor/InceptionV2/Mixed_4c/Branch_2/Conv2d_0a_1x1/BatchNorm/beta", "op": "Const"}, {"attr": {"dtype": {"type": "DT_FLOAT"}, "value": {"tensor": {"dtype": "DT_FLOAT", "tensorShape": {"dim": [{"size": "96"}]}}}}, "name": "FeatureExtractor/InceptionV2/Mixed_4c/Branch_2/Conv2d_0a_1x1/BatchNorm/moving_mean", "op": "Const"}, {"attr": {"dtype": {"type": "DT_FLOAT"}, "value": {"tensor": {"dtype": "DT_FLOAT", "tensorShape": {"dim": [{"size": "96"}]}}}}, "name": "FeatureExtractor/InceptionV2/Mixed_4c/Branch_2/Conv2d_0a_1x1/BatchNorm/moving_variance", "op": "Const"}, {"attr": {"dtype": {"type": "DT_FLOAT"}, "value": {"tensor": {"dtype": "DT_FLOAT", "tensorShape": {"dim": [{"size": "3"}, {"size": "3"}, {"size": "96"}, {"size": "128"}]}}}}, "name": "FeatureExtractor/InceptionV2/Mixed_4c/Branch_2/Conv2d_0b_3x3/weights", "op": "Const"}, {"attr": {"dtype": {"type": "DT_FLOAT"}, "value": {"tensor": {"dtype": "DT_FLOAT", "tensorShape": {"dim": [{"size": "128"}]}}}}, "name": "FeatureExtractor/InceptionV2/Mixed_4c/Branch_2/Conv2d_0b_3x3/BatchNorm/gamma", "op": "Const"}, {"attr": {"dtype": {"type": "DT_FLOAT"}, "value": {"tensor": {"dtype": "DT_FLOAT", "tensorShape": {"dim": [{"size": "128"}]}}}}, "name": "FeatureExtractor/InceptionV2/Mixed_4c/Branch_2/Conv2d_0b_3x3/BatchNorm/beta", "op": "Const"}, {"attr": {"dtype": {"type": "DT_FLOAT"}, "value": {"tensor": {"dtype": "DT_FLOAT", "tensorShape": {"dim": [{"size": "128"}]}}}}, "name": "FeatureExtractor/InceptionV2/Mixed_4c/Branch_2/Conv2d_0b_3x3/BatchNorm/moving_mean", "op": "Const"}, {"attr": {"dtype": {"type": "DT_FLOAT"}, "value": {"tensor": {"dtype": "DT_FLOAT", "tensorShape": {"dim": [{"size": "128"}]}}}}, "name": "FeatureExtractor/InceptionV2/Mixed_4c/Branch_2/Conv2d_0b_3x3/BatchNorm/moving_variance", "op": "Const"}, {"attr": {"dtype": {"type": "DT_FLOAT"}, "value": {"tensor": {"dtype": "DT_FLOAT", "tensorShape": {"dim": [{"size": "3"}, {"size": "3"}, {"size": "128"}, {"size": "128"}]}}}}, "name": "FeatureExtractor/InceptionV2/Mixed_4c/Branch_2/Conv2d_0c_3x3/weights", "op": "Const"}, {"attr": {"dtype": {"type": "DT_FLOAT"}, "value": {"tensor": {"dtype": "DT_FLOAT", "tensorShape": {"dim": [{"size": "128"}]}}}}, "name": "FeatureExtractor/InceptionV2/Mixed_4c/Branch_2/Conv2d_0c_3x3/BatchNorm/gamma", "op": "Const"}, {"attr": {"dtype": {"type": "DT_FLOAT"}, "value": {"tensor": {"dtype": "DT_FLOAT", "tensorShape": {"dim": [{"size": "128"}]}}}}, "name": "FeatureExtractor/InceptionV2/Mixed_4c/Branch_2/Conv2d_0c_3x3/BatchNorm/beta", "op": "Const"}, {"attr": {"dtype": {"type": "DT_FLOAT"}, "value": {"tensor": {"dtype": "DT_FLOAT", "tensorShape": {"dim": [{"size": "128"}]}}}}, "name": "FeatureExtractor/InceptionV2/Mixed_4c/Branch_2/Conv2d_0c_3x3/BatchNorm/moving_mean", "op": "Const"}, {"attr": {"dtype": {"type": "DT_FLOAT"}, "value": {"tensor": {"dtype": "DT_FLOAT", "tensorShape": {"dim": [{"size": "128"}]}}}}, "name": "FeatureExtractor/InceptionV2/Mixed_4c/Branch_2/Conv2d_0c_3x3/BatchNorm/moving_variance", "op": "Const"}, {"attr": {"dtype": {"type": "DT_FLOAT"}, "value": {"tensor": {"dtype": "DT_FLOAT", "tensorShape": {"dim": [{"size": "1"}, {"size": "1"}, {"size": "576"}, {"size": "128"}]}}}}, "name": "FeatureExtractor/InceptionV2/Mixed_4c/Branch_3/Conv2d_0b_1x1/weights", "op": "Const"}, {"attr": {"dtype": {"type": "DT_FLOAT"}, "value": {"tensor": {"dtype": "DT_FLOAT", "tensorShape": {"dim": [{"size": "128"}]}}}}, "name": "FeatureExtractor/InceptionV2/Mixed_4c/Branch_3/Conv2d_0b_1x1/BatchNorm/gamma", "op": "Const"}, {"attr": {"dtype": {"type": "DT_FLOAT"}, "value": {"tensor": {"dtype": "DT_FLOAT", "tensorShape": {"dim": [{"size": "128"}]}}}}, "name": "FeatureExtractor/InceptionV2/Mixed_4c/Branch_3/Conv2d_0b_1x1/BatchNorm/beta", "op": "Const"}, {"attr": {"dtype": {"type": "DT_FLOAT"}, "value": {"tensor": {"dtype": "DT_FLOAT", "tensorShape": {"dim": [{"size": "128"}]}}}}, "name": "FeatureExtractor/InceptionV2/Mixed_4c/Branch_3/Conv2d_0b_1x1/BatchNorm/moving_mean", "op": "Const"}, {"attr": {"dtype": {"type": "DT_FLOAT"}, "value": {"tensor": {"dtype": "DT_FLOAT", "tensorShape": {"dim": [{"size": "128"}]}}}}, "name": "FeatureExtractor/InceptionV2/Mixed_4c/Branch_3/Conv2d_0b_1x1/BatchNorm/moving_variance", "op": "Const"}, {"attr": {"dtype": {"type": "DT_FLOAT"}, "value": {"tensor": {"dtype": "DT_FLOAT", "tensorShape": {"dim": [{"size": "3"}, {"size": "3"}, {"size": "576"}, {"size": "12"}]}}}}, "name": "BoxPredictor_0/BoxEncodingPredictor/weights", "op": "Const"}, {"attr": {"dtype": {"type": "DT_FLOAT"}, "value": {"tensor": {"dtype": "DT_FLOAT", "tensorShape": {"dim": [{"size": "12"}]}}}}, "name": "BoxPredictor_0/BoxEncodingPredictor/biases", "op": "Const"}, {"attr": {"dtype": {"type": "DT_FLOAT"}, "value": {"tensor": {"dtype": "DT_FLOAT", "tensorShape": {"dim": [{"size": "1"}, {"size": "1"}, {"size": "576"}, {"size": "160"}]}}}}, "name": "FeatureExtractor/InceptionV2/Mixed_4d/Branch_0/Conv2d_0a_1x1/weights", "op": "Const"}, {"attr": {"dtype": {"type": "DT_FLOAT"}, "value": {"tensor": {"dtype": "DT_FLOAT", "tensorShape": {"dim": [{"size": "160"}]}}}}, "name": "FeatureExtractor/InceptionV2/Mixed_4d/Branch_0/Conv2d_0a_1x1/BatchNorm/gamma", "op": "Const"}, {"attr": {"dtype": {"type": "DT_FLOAT"}, "value": {"tensor": {"dtype": "DT_FLOAT", "tensorShape": {"dim": [{"size": "160"}]}}}}, "name": "FeatureExtractor/InceptionV2/Mixed_4d/Branch_0/Conv2d_0a_1x1/BatchNorm/beta", "op": "Const"}, {"attr": {"dtype": {"type": "DT_FLOAT"}, "value": {"tensor": {"dtype": "DT_FLOAT", "tensorShape": {"dim": [{"size": "160"}]}}}}, "name": "FeatureExtractor/InceptionV2/Mixed_4d/Branch_0/Conv2d_0a_1x1/BatchNorm/moving_mean", "op": "Const"}, {"attr": {"dtype": {"type": "DT_FLOAT"}, "value": {"tensor": {"dtype": "DT_FLOAT", "tensorShape": {"dim": [{"size": "160"}]}}}}, "name": "FeatureExtractor/InceptionV2/Mixed_4d/Branch_0/Conv2d_0a_1x1/BatchNorm/moving_variance", "op": "Const"}, {"attr": {"dtype": {"type": "DT_FLOAT"}, "value": {"tensor": {"dtype": "DT_FLOAT", "tensorShape": {"dim": [{"size": "1"}, {"size": "1"}, {"size": "576"}, {"size": "128"}]}}}}, "name": "FeatureExtractor/InceptionV2/Mixed_4d/Branch_1/Conv2d_0a_1x1/weights", "op": "Const"}, {"attr": {"dtype": {"type": "DT_FLOAT"}, "value": {"tensor": {"dtype": "DT_FLOAT", "tensorShape": {"dim": [{"size": "128"}]}}}}, "name": "FeatureExtractor/InceptionV2/Mixed_4d/Branch_1/Conv2d_0a_1x1/BatchNorm/gamma", "op": "Const"}, {"attr": {"dtype": {"type": "DT_FLOAT"}, "value": {"tensor": {"dtype": "DT_FLOAT", "tensorShape": {"dim": [{"size": "128"}]}}}}, "name": "FeatureExtractor/InceptionV2/Mixed_4d/Branch_1/Conv2d_0a_1x1/BatchNorm/beta", "op": "Const"}, {"attr": {"dtype": {"type": "DT_FLOAT"}, "value": {"tensor": {"dtype": "DT_FLOAT", "tensorShape": {"dim": [{"size": "128"}]}}}}, "name": "FeatureExtractor/InceptionV2/Mixed_4d/Branch_1/Conv2d_0a_1x1/BatchNorm/moving_mean", "op": "Const"}, {"attr": {"dtype": {"type": "DT_FLOAT"}, "value": {"tensor": {"dtype": "DT_FLOAT", "tensorShape": {"dim": [{"size": "128"}]}}}}, "name": "FeatureExtractor/InceptionV2/Mixed_4d/Branch_1/Conv2d_0a_1x1/BatchNorm/moving_variance", "op": "Const"}, {"attr": {"dtype": {"type": "DT_FLOAT"}, "value": {"tensor": {"dtype": "DT_FLOAT", "tensorShape": {"dim": [{"size": "3"}, {"size": "3"}, {"size": "128"}, {"size": "160"}]}}}}, "name": "FeatureExtractor/InceptionV2/Mixed_4d/Branch_1/Conv2d_0b_3x3/weights", "op": "Const"}, {"attr": {"dtype": {"type": "DT_FLOAT"}, "value": {"tensor": {"dtype": "DT_FLOAT", "tensorShape": {"dim": [{"size": "160"}]}}}}, "name": "FeatureExtractor/InceptionV2/Mixed_4d/Branch_1/Conv2d_0b_3x3/BatchNorm/gamma", "op": "Const"}, {"attr": {"dtype": {"type": "DT_FLOAT"}, "value": {"tensor": {"dtype": "DT_FLOAT", "tensorShape": {"dim": [{"size": "160"}]}}}}, "name": "FeatureExtractor/InceptionV2/Mixed_4d/Branch_1/Conv2d_0b_3x3/BatchNorm/beta", "op": "Const"}, {"attr": {"dtype": {"type": "DT_FLOAT"}, "value": {"tensor": {"dtype": "DT_FLOAT", "tensorShape": {"dim": [{"size": "160"}]}}}}, "name": "FeatureExtractor/InceptionV2/Mixed_4d/Branch_1/Conv2d_0b_3x3/BatchNorm/moving_mean", "op": "Const"}, {"attr": {"dtype": {"type": "DT_FLOAT"}, "value": {"tensor": {"dtype": "DT_FLOAT", "tensorShape": {"dim": [{"size": "160"}]}}}}, "name": "FeatureExtractor/InceptionV2/Mixed_4d/Branch_1/Conv2d_0b_3x3/BatchNorm/moving_variance", "op": "Const"}, {"attr": {"dtype": {"type": "DT_FLOAT"}, "value": {"tensor": {"dtype": "DT_FLOAT", "tensorShape": {"dim": [{"size": "1"}, {"size": "1"}, {"size": "576"}, {"size": "128"}]}}}}, "name": "FeatureExtractor/InceptionV2/Mixed_4d/Branch_2/Conv2d_0a_1x1/weights", "op": "Const"}, {"attr": {"dtype": {"type": "DT_FLOAT"}, "value": {"tensor": {"dtype": "DT_FLOAT", "tensorShape": {"dim": [{"size": "128"}]}}}}, "name": "FeatureExtractor/InceptionV2/Mixed_4d/Branch_2/Conv2d_0a_1x1/BatchNorm/gamma", "op": "Const"}, {"attr": {"dtype": {"type": "DT_FLOAT"}, "value": {"tensor": {"dtype": "DT_FLOAT", "tensorShape": {"dim": [{"size": "128"}]}}}}, "name": "FeatureExtractor/InceptionV2/Mixed_4d/Branch_2/Conv2d_0a_1x1/BatchNorm/beta", "op": "Const"}, {"attr": {"dtype": {"type": "DT_FLOAT"}, "value": {"tensor": {"dtype": "DT_FLOAT", "tensorShape": {"dim": [{"size": "128"}]}}}}, "name": "FeatureExtractor/InceptionV2/Mixed_4d/Branch_2/Conv2d_0a_1x1/BatchNorm/moving_mean", "op": "Const"}, {"attr": {"dtype": {"type": "DT_FLOAT"}, "value": {"tensor": {"dtype": "DT_FLOAT", "tensorShape": {"dim": [{"size": "128"}]}}}}, "name": "FeatureExtractor/InceptionV2/Mixed_4d/Branch_2/Conv2d_0a_1x1/BatchNorm/moving_variance", "op": "Const"}, {"attr": {"dtype": {"type": "DT_FLOAT"}, "value": {"tensor": {"dtype": "DT_FLOAT", "tensorShape": {"dim": [{"size": "3"}, {"size": "3"}, {"size": "128"}, {"size": "160"}]}}}}, "name": "FeatureExtractor/InceptionV2/Mixed_4d/Branch_2/Conv2d_0b_3x3/weights", "op": "Const"}, {"attr": {"dtype": {"type": "DT_FLOAT"}, "value": {"tensor": {"dtype": "DT_FLOAT", "tensorShape": {"dim": [{"size": "160"}]}}}}, "name": "FeatureExtractor/InceptionV2/Mixed_4d/Branch_2/Conv2d_0b_3x3/BatchNorm/gamma", "op": "Const"}, {"attr": {"dtype": {"type": "DT_FLOAT"}, "value": {"tensor": {"dtype": "DT_FLOAT", "tensorShape": {"dim": [{"size": "160"}]}}}}, "name": "FeatureExtractor/InceptionV2/Mixed_4d/Branch_2/Conv2d_0b_3x3/BatchNorm/beta", "op": "Const"}, {"attr": {"dtype": {"type": "DT_FLOAT"}, "value": {"tensor": {"dtype": "DT_FLOAT", "tensorShape": {"dim": [{"size": "160"}]}}}}, "name": "FeatureExtractor/InceptionV2/Mixed_4d/Branch_2/Conv2d_0b_3x3/BatchNorm/moving_mean", "op": "Const"}, {"attr": {"dtype": {"type": "DT_FLOAT"}, "value": {"tensor": {"dtype": "DT_FLOAT", "tensorShape": {"dim": [{"size": "160"}]}}}}, "name": "FeatureExtractor/InceptionV2/Mixed_4d/Branch_2/Conv2d_0b_3x3/BatchNorm/moving_variance", "op": "Const"}, {"attr": {"dtype": {"type": "DT_FLOAT"}, "value": {"tensor": {"dtype": "DT_FLOAT", "tensorShape": {"dim": [{"size": "3"}, {"size": "3"}, {"size": "160"}, {"size": "160"}]}}}}, "name": "FeatureExtractor/InceptionV2/Mixed_4d/Branch_2/Conv2d_0c_3x3/weights", "op": "Const"}, {"attr": {"dtype": {"type": "DT_FLOAT"}, "value": {"tensor": {"dtype": "DT_FLOAT", "tensorShape": {"dim": [{"size": "160"}]}}}}, "name": "FeatureExtractor/InceptionV2/Mixed_4d/Branch_2/Conv2d_0c_3x3/BatchNorm/gamma", "op": "Const"}, {"attr": {"dtype": {"type": "DT_FLOAT"}, "value": {"tensor": {"dtype": "DT_FLOAT", "tensorShape": {"dim": [{"size": "160"}]}}}}, "name": "FeatureExtractor/InceptionV2/Mixed_4d/Branch_2/Conv2d_0c_3x3/BatchNorm/beta", "op": "Const"}, {"attr": {"dtype": {"type": "DT_FLOAT"}, "value": {"tensor": {"dtype": "DT_FLOAT", "tensorShape": {"dim": [{"size": "160"}]}}}}, "name": "FeatureExtractor/InceptionV2/Mixed_4d/Branch_2/Conv2d_0c_3x3/BatchNorm/moving_mean", "op": "Const"}, {"attr": {"dtype": {"type": "DT_FLOAT"}, "value": {"tensor": {"dtype": "DT_FLOAT", "tensorShape": {"dim": [{"size": "160"}]}}}}, "name": "FeatureExtractor/InceptionV2/Mixed_4d/Branch_2/Conv2d_0c_3x3/BatchNorm/moving_variance", "op": "Const"}, {"attr": {"dtype": {"type": "DT_FLOAT"}, "value": {"tensor": {"dtype": "DT_FLOAT", "tensorShape": {"dim": [{"size": "1"}, {"size": "1"}, {"size": "576"}, {"size": "96"}]}}}}, "name": "FeatureExtractor/InceptionV2/Mixed_4d/Branch_3/Conv2d_0b_1x1/weights", "op": "Const"}, {"attr": {"dtype": {"type": "DT_FLOAT"}, "value": {"tensor": {"dtype": "DT_FLOAT", "tensorShape": {"dim": [{"size": "96"}]}}}}, "name": "FeatureExtractor/InceptionV2/Mixed_4d/Branch_3/Conv2d_0b_1x1/BatchNorm/gamma", "op": "Const"}, {"attr": {"dtype": {"type": "DT_FLOAT"}, "value": {"tensor": {"dtype": "DT_FLOAT", "tensorShape": {"dim": [{"size": "96"}]}}}}, "name": "FeatureExtractor/InceptionV2/Mixed_4d/Branch_3/Conv2d_0b_1x1/BatchNorm/beta", "op": "Const"}, {"attr": {"dtype": {"type": "DT_FLOAT"}, "value": {"tensor": {"dtype": "DT_FLOAT", "tensorShape": {"dim": [{"size": "96"}]}}}}, "name": "FeatureExtractor/InceptionV2/Mixed_4d/Branch_3/Conv2d_0b_1x1/BatchNorm/moving_mean", "op": "Const"}, {"attr": {"dtype": {"type": "DT_FLOAT"}, "value": {"tensor": {"dtype": "DT_FLOAT", "tensorShape": {"dim": [{"size": "96"}]}}}}, "name": "FeatureExtractor/InceptionV2/Mixed_4d/Branch_3/Conv2d_0b_1x1/BatchNorm/moving_variance", "op": "Const"}, {"attr": {"dtype": {"type": "DT_FLOAT"}, "value": {"tensor": {"dtype": "DT_FLOAT", "tensorShape": {"dim": [{"size": "1"}, {"size": "1"}, {"size": "576"}, {"size": "96"}]}}}}, "name": "FeatureExtractor/InceptionV2/Mixed_4e/Branch_0/Conv2d_0a_1x1/weights", "op": "Const"}, {"attr": {"dtype": {"type": "DT_FLOAT"}, "value": {"tensor": {"dtype": "DT_FLOAT", "tensorShape": {"dim": [{"size": "96"}]}}}}, "name": "FeatureExtractor/InceptionV2/Mixed_4e/Branch_0/Conv2d_0a_1x1/BatchNorm/gamma", "op": "Const"}, {"attr": {"dtype": {"type": "DT_FLOAT"}, "value": {"tensor": {"dtype": "DT_FLOAT", "tensorShape": {"dim": [{"size": "96"}]}}}}, "name": "FeatureExtractor/InceptionV2/Mixed_4e/Branch_0/Conv2d_0a_1x1/BatchNorm/beta", "op": "Const"}, {"attr": {"dtype": {"type": "DT_FLOAT"}, "value": {"tensor": {"dtype": "DT_FLOAT", "tensorShape": {"dim": [{"size": "96"}]}}}}, "name": "FeatureExtractor/InceptionV2/Mixed_4e/Branch_0/Conv2d_0a_1x1/BatchNorm/moving_mean", "op": "Const"}, {"attr": {"dtype": {"type": "DT_FLOAT"}, "value": {"tensor": {"dtype": "DT_FLOAT", "tensorShape": {"dim": [{"size": "96"}]}}}}, "name": "FeatureExtractor/InceptionV2/Mixed_4e/Branch_0/Conv2d_0a_1x1/BatchNorm/moving_variance", "op": "Const"}, {"attr": {"dtype": {"type": "DT_FLOAT"}, "value": {"tensor": {"dtype": "DT_FLOAT", "tensorShape": {"dim": [{"size": "1"}, {"size": "1"}, {"size": "576"}, {"size": "128"}]}}}}, "name": "FeatureExtractor/InceptionV2/Mixed_4e/Branch_1/Conv2d_0a_1x1/weights", "op": "Const"}, {"attr": {"dtype": {"type": "DT_FLOAT"}, "value": {"tensor": {"dtype": "DT_FLOAT", "tensorShape": {"dim": [{"size": "128"}]}}}}, "name": "FeatureExtractor/InceptionV2/Mixed_4e/Branch_1/Conv2d_0a_1x1/BatchNorm/gamma", "op": "Const"}, {"attr": {"dtype": {"type": "DT_FLOAT"}, "value": {"tensor": {"dtype": "DT_FLOAT", "tensorShape": {"dim": [{"size": "128"}]}}}}, "name": "FeatureExtractor/InceptionV2/Mixed_4e/Branch_1/Conv2d_0a_1x1/BatchNorm/beta", "op": "Const"}, {"attr": {"dtype": {"type": "DT_FLOAT"}, "value": {"tensor": {"dtype": "DT_FLOAT", "tensorShape": {"dim": [{"size": "128"}]}}}}, "name": "FeatureExtractor/InceptionV2/Mixed_4e/Branch_1/Conv2d_0a_1x1/BatchNorm/moving_mean", "op": "Const"}, {"attr": {"dtype": {"type": "DT_FLOAT"}, "value": {"tensor": {"dtype": "DT_FLOAT", "tensorShape": {"dim": [{"size": "128"}]}}}}, "name": "FeatureExtractor/InceptionV2/Mixed_4e/Branch_1/Conv2d_0a_1x1/BatchNorm/moving_variance", "op": "Const"}, {"attr": {"dtype": {"type": "DT_FLOAT"}, "value": {"tensor": {"dtype": "DT_FLOAT", "tensorShape": {"dim": [{"size": "3"}, {"size": "3"}, {"size": "128"}, {"size": "192"}]}}}}, "name": "FeatureExtractor/InceptionV2/Mixed_4e/Branch_1/Conv2d_0b_3x3/weights", "op": "Const"}, {"attr": {"dtype": {"type": "DT_FLOAT"}, "value": {"tensor": {"dtype": "DT_FLOAT", "tensorShape": {"dim": [{"size": "192"}]}}}}, "name": "FeatureExtractor/InceptionV2/Mixed_4e/Branch_1/Conv2d_0b_3x3/BatchNorm/gamma", "op": "Const"}, {"attr": {"dtype": {"type": "DT_FLOAT"}, "value": {"tensor": {"dtype": "DT_FLOAT", "tensorShape": {"dim": [{"size": "192"}]}}}}, "name": "FeatureExtractor/InceptionV2/Mixed_4e/Branch_1/Conv2d_0b_3x3/BatchNorm/beta", "op": "Const"}, {"attr": {"dtype": {"type": "DT_FLOAT"}, "value": {"tensor": {"dtype": "DT_FLOAT", "tensorShape": {"dim": [{"size": "192"}]}}}}, "name": "FeatureExtractor/InceptionV2/Mixed_4e/Branch_1/Conv2d_0b_3x3/BatchNorm/moving_mean", "op": "Const"}, {"attr": {"dtype": {"type": "DT_FLOAT"}, "value": {"tensor": {"dtype": "DT_FLOAT", "tensorShape": {"dim": [{"size": "192"}]}}}}, "name": "FeatureExtractor/InceptionV2/Mixed_4e/Branch_1/Conv2d_0b_3x3/BatchNorm/moving_variance", "op": "Const"}, {"attr": {"dtype": {"type": "DT_FLOAT"}, "value": {"tensor": {"dtype": "DT_FLOAT", "tensorShape": {"dim": [{"size": "1"}, {"size": "1"}, {"size": "576"}, {"size": "160"}]}}}}, "name": "FeatureExtractor/InceptionV2/Mixed_4e/Branch_2/Conv2d_0a_1x1/weights", "op": "Const"}, {"attr": {"dtype": {"type": "DT_FLOAT"}, "value": {"tensor": {"dtype": "DT_FLOAT", "tensorShape": {"dim": [{"size": "160"}]}}}}, "name": "FeatureExtractor/InceptionV2/Mixed_4e/Branch_2/Conv2d_0a_1x1/BatchNorm/gamma", "op": "Const"}, {"attr": {"dtype": {"type": "DT_FLOAT"}, "value": {"tensor": {"dtype": "DT_FLOAT", "tensorShape": {"dim": [{"size": "160"}]}}}}, "name": "FeatureExtractor/InceptionV2/Mixed_4e/Branch_2/Conv2d_0a_1x1/BatchNorm/beta", "op": "Const"}, {"attr": {"dtype": {"type": "DT_FLOAT"}, "value": {"tensor": {"dtype": "DT_FLOAT", "tensorShape": {"dim": [{"size": "160"}]}}}}, "name": "FeatureExtractor/InceptionV2/Mixed_4e/Branch_2/Conv2d_0a_1x1/BatchNorm/moving_mean", "op": "Const"}, {"attr": {"dtype": {"type": "DT_FLOAT"}, "value": {"tensor": {"dtype": "DT_FLOAT", "tensorShape": {"dim": [{"size": "160"}]}}}}, "name": "FeatureExtractor/InceptionV2/Mixed_4e/Branch_2/Conv2d_0a_1x1/BatchNorm/moving_variance", "op": "Const"}, {"attr": {"dtype": {"type": "DT_FLOAT"}, "value": {"tensor": {"dtype": "DT_FLOAT", "tensorShape": {"dim": [{"size": "3"}, {"size": "3"}, {"size": "160"}, {"size": "192"}]}}}}, "name": "FeatureExtractor/InceptionV2/Mixed_4e/Branch_2/Conv2d_0b_3x3/weights", "op": "Const"}, {"attr": {"dtype": {"type": "DT_FLOAT"}, "value": {"tensor": {"dtype": "DT_FLOAT", "tensorShape": {"dim": [{"size": "192"}]}}}}, "name": "FeatureExtractor/InceptionV2/Mixed_4e/Branch_2/Conv2d_0b_3x3/BatchNorm/gamma", "op": "Const"}, {"attr": {"dtype": {"type": "DT_FLOAT"}, "value": {"tensor": {"dtype": "DT_FLOAT", "tensorShape": {"dim": [{"size": "192"}]}}}}, "name": "FeatureExtractor/InceptionV2/Mixed_4e/Branch_2/Conv2d_0b_3x3/BatchNorm/beta", "op": "Const"}, {"attr": {"dtype": {"type": "DT_FLOAT"}, "value": {"tensor": {"dtype": "DT_FLOAT", "tensorShape": {"dim": [{"size": "192"}]}}}}, "name": "FeatureExtractor/InceptionV2/Mixed_4e/Branch_2/Conv2d_0b_3x3/BatchNorm/moving_mean", "op": "Const"}, {"attr": {"dtype": {"type": "DT_FLOAT"}, "value": {"tensor": {"dtype": "DT_FLOAT", "tensorShape": {"dim": [{"size": "192"}]}}}}, "name": "FeatureExtractor/InceptionV2/Mixed_4e/Branch_2/Conv2d_0b_3x3/BatchNorm/moving_variance", "op": "Const"}, {"attr": {"dtype": {"type": "DT_FLOAT"}, "value": {"tensor": {"dtype": "DT_FLOAT", "tensorShape": {"dim": [{"size": "3"}, {"size": "3"}, {"size": "192"}, {"size": "192"}]}}}}, "name": "FeatureExtractor/InceptionV2/Mixed_4e/Branch_2/Conv2d_0c_3x3/weights", "op": "Const"}, {"attr": {"dtype": {"type": "DT_FLOAT"}, "value": {"tensor": {"dtype": "DT_FLOAT", "tensorShape": {"dim": [{"size": "192"}]}}}}, "name": "FeatureExtractor/InceptionV2/Mixed_4e/Branch_2/Conv2d_0c_3x3/BatchNorm/gamma", "op": "Const"}, {"attr": {"dtype": {"type": "DT_FLOAT"}, "value": {"tensor": {"dtype": "DT_FLOAT", "tensorShape": {"dim": [{"size": "192"}]}}}}, "name": "FeatureExtractor/InceptionV2/Mixed_4e/Branch_2/Conv2d_0c_3x3/BatchNorm/beta", "op": "Const"}, {"attr": {"dtype": {"type": "DT_FLOAT"}, "value": {"tensor": {"dtype": "DT_FLOAT", "tensorShape": {"dim": [{"size": "192"}]}}}}, "name": "FeatureExtractor/InceptionV2/Mixed_4e/Branch_2/Conv2d_0c_3x3/BatchNorm/moving_mean", "op": "Const"}, {"attr": {"dtype": {"type": "DT_FLOAT"}, "value": {"tensor": {"dtype": "DT_FLOAT", "tensorShape": {"dim": [{"size": "192"}]}}}}, "name": "FeatureExtractor/InceptionV2/Mixed_4e/Branch_2/Conv2d_0c_3x3/BatchNorm/moving_variance", "op": "Const"}, {"attr": {"dtype": {"type": "DT_FLOAT"}, "value": {"tensor": {"dtype": "DT_FLOAT", "tensorShape": {"dim": [{"size": "1"}, {"size": "1"}, {"size": "576"}, {"size": "96"}]}}}}, "name": "FeatureExtractor/InceptionV2/Mixed_4e/Branch_3/Conv2d_0b_1x1/weights", "op": "Const"}, {"attr": {"dtype": {"type": "DT_FLOAT"}, "value": {"tensor": {"dtype": "DT_FLOAT", "tensorShape": {"dim": [{"size": "96"}]}}}}, "name": "FeatureExtractor/InceptionV2/Mixed_4e/Branch_3/Conv2d_0b_1x1/BatchNorm/gamma", "op": "Const"}, {"attr": {"dtype": {"type": "DT_FLOAT"}, "value": {"tensor": {"dtype": "DT_FLOAT", "tensorShape": {"dim": [{"size": "96"}]}}}}, "name": "FeatureExtractor/InceptionV2/Mixed_4e/Branch_3/Conv2d_0b_1x1/BatchNorm/beta", "op": "Const"}, {"attr": {"dtype": {"type": "DT_FLOAT"}, "value": {"tensor": {"dtype": "DT_FLOAT", "tensorShape": {"dim": [{"size": "96"}]}}}}, "name": "FeatureExtractor/InceptionV2/Mixed_4e/Branch_3/Conv2d_0b_1x1/BatchNorm/moving_mean", "op": "Const"}, {"attr": {"dtype": {"type": "DT_FLOAT"}, "value": {"tensor": {"dtype": "DT_FLOAT", "tensorShape": {"dim": [{"size": "96"}]}}}}, "name": "FeatureExtractor/InceptionV2/Mixed_4e/Branch_3/Conv2d_0b_1x1/BatchNorm/moving_variance", "op": "Const"}, {"attr": {"dtype": {"type": "DT_FLOAT"}, "value": {"tensor": {"dtype": "DT_FLOAT", "tensorShape": {"dim": [{"size": "1"}, {"size": "1"}, {"size": "576"}, {"size": "128"}]}}}}, "name": "FeatureExtractor/InceptionV2/Mixed_5a/Branch_0/Conv2d_0a_1x1/weights", "op": "Const"}, {"attr": {"dtype": {"type": "DT_FLOAT"}, "value": {"tensor": {"dtype": "DT_FLOAT", "tensorShape": {"dim": [{"size": "128"}]}}}}, "name": "FeatureExtractor/InceptionV2/Mixed_5a/Branch_0/Conv2d_0a_1x1/BatchNorm/gamma", "op": "Const"}, {"attr": {"dtype": {"type": "DT_FLOAT"}, "value": {"tensor": {"dtype": "DT_FLOAT", "tensorShape": {"dim": [{"size": "128"}]}}}}, "name": "FeatureExtractor/InceptionV2/Mixed_5a/Branch_0/Conv2d_0a_1x1/BatchNorm/beta", "op": "Const"}, {"attr": {"dtype": {"type": "DT_FLOAT"}, "value": {"tensor": {"dtype": "DT_FLOAT", "tensorShape": {"dim": [{"size": "128"}]}}}}, "name": "FeatureExtractor/InceptionV2/Mixed_5a/Branch_0/Conv2d_0a_1x1/BatchNorm/moving_mean", "op": "Const"}, {"attr": {"dtype": {"type": "DT_FLOAT"}, "value": {"tensor": {"dtype": "DT_FLOAT", "tensorShape": {"dim": [{"size": "128"}]}}}}, "name": "FeatureExtractor/InceptionV2/Mixed_5a/Branch_0/Conv2d_0a_1x1/BatchNorm/moving_variance", "op": "Const"}, {"attr": {"dtype": {"type": "DT_FLOAT"}, "value": {"tensor": {"dtype": "DT_FLOAT", "tensorShape": {"dim": [{"size": "3"}, {"size": "3"}, {"size": "128"}, {"size": "192"}]}}}}, "name": "FeatureExtractor/InceptionV2/Mixed_5a/Branch_0/Conv2d_1a_3x3/weights", "op": "Const"}, {"attr": {"dtype": {"type": "DT_FLOAT"}, "value": {"tensor": {"dtype": "DT_FLOAT", "tensorShape": {"dim": [{"size": "192"}]}}}}, "name": "FeatureExtractor/InceptionV2/Mixed_5a/Branch_0/Conv2d_1a_3x3/BatchNorm/gamma", "op": "Const"}, {"attr": {"dtype": {"type": "DT_FLOAT"}, "value": {"tensor": {"dtype": "DT_FLOAT", "tensorShape": {"dim": [{"size": "192"}]}}}}, "name": "FeatureExtractor/InceptionV2/Mixed_5a/Branch_0/Conv2d_1a_3x3/BatchNorm/beta", "op": "Const"}, {"attr": {"dtype": {"type": "DT_FLOAT"}, "value": {"tensor": {"dtype": "DT_FLOAT", "tensorShape": {"dim": [{"size": "192"}]}}}}, "name": "FeatureExtractor/InceptionV2/Mixed_5a/Branch_0/Conv2d_1a_3x3/BatchNorm/moving_mean", "op": "Const"}, {"attr": {"dtype": {"type": "DT_FLOAT"}, "value": {"tensor": {"dtype": "DT_FLOAT", "tensorShape": {"dim": [{"size": "192"}]}}}}, "name": "FeatureExtractor/InceptionV2/Mixed_5a/Branch_0/Conv2d_1a_3x3/BatchNorm/moving_variance", "op": "Const"}, {"attr": {"dtype": {"type": "DT_FLOAT"}, "value": {"tensor": {"dtype": "DT_FLOAT", "tensorShape": {"dim": [{"size": "1"}, {"size": "1"}, {"size": "576"}, {"size": "192"}]}}}}, "name": "FeatureExtractor/InceptionV2/Mixed_5a/Branch_1/Conv2d_0a_1x1/weights", "op": "Const"}, {"attr": {"dtype": {"type": "DT_FLOAT"}, "value": {"tensor": {"dtype": "DT_FLOAT", "tensorShape": {"dim": [{"size": "192"}]}}}}, "name": "FeatureExtractor/InceptionV2/Mixed_5a/Branch_1/Conv2d_0a_1x1/BatchNorm/gamma", "op": "Const"}, {"attr": {"dtype": {"type": "DT_FLOAT"}, "value": {"tensor": {"dtype": "DT_FLOAT", "tensorShape": {"dim": [{"size": "192"}]}}}}, "name": "FeatureExtractor/InceptionV2/Mixed_5a/Branch_1/Conv2d_0a_1x1/BatchNorm/beta", "op": "Const"}, {"attr": {"dtype": {"type": "DT_FLOAT"}, "value": {"tensor": {"dtype": "DT_FLOAT", "tensorShape": {"dim": [{"size": "192"}]}}}}, "name": "FeatureExtractor/InceptionV2/Mixed_5a/Branch_1/Conv2d_0a_1x1/BatchNorm/moving_mean", "op": "Const"}, {"attr": {"dtype": {"type": "DT_FLOAT"}, "value": {"tensor": {"dtype": "DT_FLOAT", "tensorShape": {"dim": [{"size": "192"}]}}}}, "name": "FeatureExtractor/InceptionV2/Mixed_5a/Branch_1/Conv2d_0a_1x1/BatchNorm/moving_variance", "op": "Const"}, {"attr": {"dtype": {"type": "DT_FLOAT"}, "value": {"tensor": {"dtype": "DT_FLOAT", "tensorShape": {"dim": [{"size": "3"}, {"size": "3"}, {"size": "192"}, {"size": "256"}]}}}}, "name": "FeatureExtractor/InceptionV2/Mixed_5a/Branch_1/Conv2d_0b_3x3/weights", "op": "Const"}, {"attr": {"dtype": {"type": "DT_FLOAT"}, "value": {"tensor": {"dtype": "DT_FLOAT", "tensorShape": {"dim": [{"size": "256"}]}}}}, "name": "FeatureExtractor/InceptionV2/Mixed_5a/Branch_1/Conv2d_0b_3x3/BatchNorm/gamma", "op": "Const"}, {"attr": {"dtype": {"type": "DT_FLOAT"}, "value": {"tensor": {"dtype": "DT_FLOAT", "tensorShape": {"dim": [{"size": "256"}]}}}}, "name": "FeatureExtractor/InceptionV2/Mixed_5a/Branch_1/Conv2d_0b_3x3/BatchNorm/beta", "op": "Const"}, {"attr": {"dtype": {"type": "DT_FLOAT"}, "value": {"tensor": {"dtype": "DT_FLOAT", "tensorShape": {"dim": [{"size": "256"}]}}}}, "name": "FeatureExtractor/InceptionV2/Mixed_5a/Branch_1/Conv2d_0b_3x3/BatchNorm/moving_mean", "op": "Const"}, {"attr": {"dtype": {"type": "DT_FLOAT"}, "value": {"tensor": {"dtype": "DT_FLOAT", "tensorShape": {"dim": [{"size": "256"}]}}}}, "name": "FeatureExtractor/InceptionV2/Mixed_5a/Branch_1/Conv2d_0b_3x3/BatchNorm/moving_variance", "op": "Const"}, {"attr": {"dtype": {"type": "DT_FLOAT"}, "value": {"tensor": {"dtype": "DT_FLOAT", "tensorShape": {"dim": [{"size": "3"}, {"size": "3"}, {"size": "256"}, {"size": "256"}]}}}}, "name": "FeatureExtractor/InceptionV2/Mixed_5a/Branch_1/Conv2d_1a_3x3/weights", "op": "Const"}, {"attr": {"dtype": {"type": "DT_FLOAT"}, "value": {"tensor": {"dtype": "DT_FLOAT", "tensorShape": {"dim": [{"size": "256"}]}}}}, "name": "FeatureExtractor/InceptionV2/Mixed_5a/Branch_1/Conv2d_1a_3x3/BatchNorm/gamma", "op": "Const"}, {"attr": {"dtype": {"type": "DT_FLOAT"}, "value": {"tensor": {"dtype": "DT_FLOAT", "tensorShape": {"dim": [{"size": "256"}]}}}}, "name": "FeatureExtractor/InceptionV2/Mixed_5a/Branch_1/Conv2d_1a_3x3/BatchNorm/beta", "op": "Const"}, {"attr": {"dtype": {"type": "DT_FLOAT"}, "value": {"tensor": {"dtype": "DT_FLOAT", "tensorShape": {"dim": [{"size": "256"}]}}}}, "name": "FeatureExtractor/InceptionV2/Mixed_5a/Branch_1/Conv2d_1a_3x3/BatchNorm/moving_mean", "op": "Const"}, {"attr": {"dtype": {"type": "DT_FLOAT"}, "value": {"tensor": {"dtype": "DT_FLOAT", "tensorShape": {"dim": [{"size": "256"}]}}}}, "name": "FeatureExtractor/InceptionV2/Mixed_5a/Branch_1/Conv2d_1a_3x3/BatchNorm/moving_variance", "op": "Const"}, {"attr": {"dtype": {"type": "DT_FLOAT"}, "value": {"tensor": {"dtype": "DT_FLOAT", "tensorShape": {"dim": [{"size": "1"}, {"size": "1"}, {"size": "1024"}, {"size": "352"}]}}}}, "name": "FeatureExtractor/InceptionV2/Mixed_5b/Branch_0/Conv2d_0a_1x1/weights", "op": "Const"}, {"attr": {"dtype": {"type": "DT_FLOAT"}, "value": {"tensor": {"dtype": "DT_FLOAT", "tensorShape": {"dim": [{"size": "352"}]}}}}, "name": "FeatureExtractor/InceptionV2/Mixed_5b/Branch_0/Conv2d_0a_1x1/BatchNorm/gamma", "op": "Const"}, {"attr": {"dtype": {"type": "DT_FLOAT"}, "value": {"tensor": {"dtype": "DT_FLOAT", "tensorShape": {"dim": [{"size": "352"}]}}}}, "name": "FeatureExtractor/InceptionV2/Mixed_5b/Branch_0/Conv2d_0a_1x1/BatchNorm/beta", "op": "Const"}, {"attr": {"dtype": {"type": "DT_FLOAT"}, "value": {"tensor": {"dtype": "DT_FLOAT", "tensorShape": {"dim": [{"size": "352"}]}}}}, "name": "FeatureExtractor/InceptionV2/Mixed_5b/Branch_0/Conv2d_0a_1x1/BatchNorm/moving_mean", "op": "Const"}, {"attr": {"dtype": {"type": "DT_FLOAT"}, "value": {"tensor": {"dtype": "DT_FLOAT", "tensorShape": {"dim": [{"size": "352"}]}}}}, "name": "FeatureExtractor/InceptionV2/Mixed_5b/Branch_0/Conv2d_0a_1x1/BatchNorm/moving_variance", "op": "Const"}, {"attr": {"dtype": {"type": "DT_FLOAT"}, "value": {"tensor": {"dtype": "DT_FLOAT", "tensorShape": {"dim": [{"size": "1"}, {"size": "1"}, {"size": "1024"}, {"size": "192"}]}}}}, "name": "FeatureExtractor/InceptionV2/Mixed_5b/Branch_1/Conv2d_0a_1x1/weights", "op": "Const"}, {"attr": {"dtype": {"type": "DT_FLOAT"}, "value": {"tensor": {"dtype": "DT_FLOAT", "tensorShape": {"dim": [{"size": "192"}]}}}}, "name": "FeatureExtractor/InceptionV2/Mixed_5b/Branch_1/Conv2d_0a_1x1/BatchNorm/gamma", "op": "Const"}, {"attr": {"dtype": {"type": "DT_FLOAT"}, "value": {"tensor": {"dtype": "DT_FLOAT", "tensorShape": {"dim": [{"size": "192"}]}}}}, "name": "FeatureExtractor/InceptionV2/Mixed_5b/Branch_1/Conv2d_0a_1x1/BatchNorm/beta", "op": "Const"}, {"attr": {"dtype": {"type": "DT_FLOAT"}, "value": {"tensor": {"dtype": "DT_FLOAT", "tensorShape": {"dim": [{"size": "192"}]}}}}, "name": "FeatureExtractor/InceptionV2/Mixed_5b/Branch_1/Conv2d_0a_1x1/BatchNorm/moving_mean", "op": "Const"}, {"attr": {"dtype": {"type": "DT_FLOAT"}, "value": {"tensor": {"dtype": "DT_FLOAT", "tensorShape": {"dim": [{"size": "192"}]}}}}, "name": "FeatureExtractor/InceptionV2/Mixed_5b/Branch_1/Conv2d_0a_1x1/BatchNorm/moving_variance", "op": "Const"}, {"attr": {"dtype": {"type": "DT_FLOAT"}, "value": {"tensor": {"dtype": "DT_FLOAT", "tensorShape": {"dim": [{"size": "3"}, {"size": "3"}, {"size": "192"}, {"size": "320"}]}}}}, "name": "FeatureExtractor/InceptionV2/Mixed_5b/Branch_1/Conv2d_0b_3x3/weights", "op": "Const"}, {"attr": {"dtype": {"type": "DT_FLOAT"}, "value": {"tensor": {"dtype": "DT_FLOAT", "tensorShape": {"dim": [{"size": "320"}]}}}}, "name": "FeatureExtractor/InceptionV2/Mixed_5b/Branch_1/Conv2d_0b_3x3/BatchNorm/gamma", "op": "Const"}, {"attr": {"dtype": {"type": "DT_FLOAT"}, "value": {"tensor": {"dtype": "DT_FLOAT", "tensorShape": {"dim": [{"size": "320"}]}}}}, "name": "FeatureExtractor/InceptionV2/Mixed_5b/Branch_1/Conv2d_0b_3x3/BatchNorm/beta", "op": "Const"}, {"attr": {"dtype": {"type": "DT_FLOAT"}, "value": {"tensor": {"dtype": "DT_FLOAT", "tensorShape": {"dim": [{"size": "320"}]}}}}, "name": "FeatureExtractor/InceptionV2/Mixed_5b/Branch_1/Conv2d_0b_3x3/BatchNorm/moving_mean", "op": "Const"}, {"attr": {"dtype": {"type": "DT_FLOAT"}, "value": {"tensor": {"dtype": "DT_FLOAT", "tensorShape": {"dim": [{"size": "320"}]}}}}, "name": "FeatureExtractor/InceptionV2/Mixed_5b/Branch_1/Conv2d_0b_3x3/BatchNorm/moving_variance", "op": "Const"}, {"attr": {"dtype": {"type": "DT_FLOAT"}, "value": {"tensor": {"dtype": "DT_FLOAT", "tensorShape": {"dim": [{"size": "1"}, {"size": "1"}, {"size": "1024"}, {"size": "160"}]}}}}, "name": "FeatureExtractor/InceptionV2/Mixed_5b/Branch_2/Conv2d_0a_1x1/weights", "op": "Const"}, {"attr": {"dtype": {"type": "DT_FLOAT"}, "value": {"tensor": {"dtype": "DT_FLOAT", "tensorShape": {"dim": [{"size": "160"}]}}}}, "name": "FeatureExtractor/InceptionV2/Mixed_5b/Branch_2/Conv2d_0a_1x1/BatchNorm/gamma", "op": "Const"}, {"attr": {"dtype": {"type": "DT_FLOAT"}, "value": {"tensor": {"dtype": "DT_FLOAT", "tensorShape": {"dim": [{"size": "160"}]}}}}, "name": "FeatureExtractor/InceptionV2/Mixed_5b/Branch_2/Conv2d_0a_1x1/BatchNorm/beta", "op": "Const"}, {"attr": {"dtype": {"type": "DT_FLOAT"}, "value": {"tensor": {"dtype": "DT_FLOAT", "tensorShape": {"dim": [{"size": "160"}]}}}}, "name": "FeatureExtractor/InceptionV2/Mixed_5b/Branch_2/Conv2d_0a_1x1/BatchNorm/moving_mean", "op": "Const"}, {"attr": {"dtype": {"type": "DT_FLOAT"}, "value": {"tensor": {"dtype": "DT_FLOAT", "tensorShape": {"dim": [{"size": "160"}]}}}}, "name": "FeatureExtractor/InceptionV2/Mixed_5b/Branch_2/Conv2d_0a_1x1/BatchNorm/moving_variance", "op": "Const"}, {"attr": {"dtype": {"type": "DT_FLOAT"}, "value": {"tensor": {"dtype": "DT_FLOAT", "tensorShape": {"dim": [{"size": "3"}, {"size": "3"}, {"size": "160"}, {"size": "224"}]}}}}, "name": "FeatureExtractor/InceptionV2/Mixed_5b/Branch_2/Conv2d_0b_3x3/weights", "op": "Const"}, {"attr": {"dtype": {"type": "DT_FLOAT"}, "value": {"tensor": {"dtype": "DT_FLOAT", "tensorShape": {"dim": [{"size": "224"}]}}}}, "name": "FeatureExtractor/InceptionV2/Mixed_5b/Branch_2/Conv2d_0b_3x3/BatchNorm/gamma", "op": "Const"}, {"attr": {"dtype": {"type": "DT_FLOAT"}, "value": {"tensor": {"dtype": "DT_FLOAT", "tensorShape": {"dim": [{"size": "224"}]}}}}, "name": "FeatureExtractor/InceptionV2/Mixed_5b/Branch_2/Conv2d_0b_3x3/BatchNorm/beta", "op": "Const"}, {"attr": {"dtype": {"type": "DT_FLOAT"}, "value": {"tensor": {"dtype": "DT_FLOAT", "tensorShape": {"dim": [{"size": "224"}]}}}}, "name": "FeatureExtractor/InceptionV2/Mixed_5b/Branch_2/Conv2d_0b_3x3/BatchNorm/moving_mean", "op": "Const"}, {"attr": {"dtype": {"type": "DT_FLOAT"}, "value": {"tensor": {"dtype": "DT_FLOAT", "tensorShape": {"dim": [{"size": "224"}]}}}}, "name": "FeatureExtractor/InceptionV2/Mixed_5b/Branch_2/Conv2d_0b_3x3/BatchNorm/moving_variance", "op": "Const"}, {"attr": {"dtype": {"type": "DT_FLOAT"}, "value": {"tensor": {"dtype": "DT_FLOAT", "tensorShape": {"dim": [{"size": "3"}, {"size": "3"}, {"size": "224"}, {"size": "224"}]}}}}, "name": "FeatureExtractor/InceptionV2/Mixed_5b/Branch_2/Conv2d_0c_3x3/weights", "op": "Const"}, {"attr": {"dtype": {"type": "DT_FLOAT"}, "value": {"tensor": {"dtype": "DT_FLOAT", "tensorShape": {"dim": [{"size": "224"}]}}}}, "name": "FeatureExtractor/InceptionV2/Mixed_5b/Branch_2/Conv2d_0c_3x3/BatchNorm/gamma", "op": "Const"}, {"attr": {"dtype": {"type": "DT_FLOAT"}, "value": {"tensor": {"dtype": "DT_FLOAT", "tensorShape": {"dim": [{"size": "224"}]}}}}, "name": "FeatureExtractor/InceptionV2/Mixed_5b/Branch_2/Conv2d_0c_3x3/BatchNorm/beta", "op": "Const"}, {"attr": {"dtype": {"type": "DT_FLOAT"}, "value": {"tensor": {"dtype": "DT_FLOAT", "tensorShape": {"dim": [{"size": "224"}]}}}}, "name": "FeatureExtractor/InceptionV2/Mixed_5b/Branch_2/Conv2d_0c_3x3/BatchNorm/moving_mean", "op": "Const"}, {"attr": {"dtype": {"type": "DT_FLOAT"}, "value": {"tensor": {"dtype": "DT_FLOAT", "tensorShape": {"dim": [{"size": "224"}]}}}}, "name": "FeatureExtractor/InceptionV2/Mixed_5b/Branch_2/Conv2d_0c_3x3/BatchNorm/moving_variance", "op": "Const"}, {"attr": {"dtype": {"type": "DT_FLOAT"}, "value": {"tensor": {"dtype": "DT_FLOAT", "tensorShape": {"dim": [{"size": "1"}, {"size": "1"}, {"size": "1024"}, {"size": "128"}]}}}}, "name": "FeatureExtractor/InceptionV2/Mixed_5b/Branch_3/Conv2d_0b_1x1/weights", "op": "Const"}, {"attr": {"dtype": {"type": "DT_FLOAT"}, "value": {"tensor": {"dtype": "DT_FLOAT", "tensorShape": {"dim": [{"size": "128"}]}}}}, "name": "FeatureExtractor/InceptionV2/Mixed_5b/Branch_3/Conv2d_0b_1x1/BatchNorm/gamma", "op": "Const"}, {"attr": {"dtype": {"type": "DT_FLOAT"}, "value": {"tensor": {"dtype": "DT_FLOAT", "tensorShape": {"dim": [{"size": "128"}]}}}}, "name": "FeatureExtractor/InceptionV2/Mixed_5b/Branch_3/Conv2d_0b_1x1/BatchNorm/beta", "op": "Const"}, {"attr": {"dtype": {"type": "DT_FLOAT"}, "value": {"tensor": {"dtype": "DT_FLOAT", "tensorShape": {"dim": [{"size": "128"}]}}}}, "name": "FeatureExtractor/InceptionV2/Mixed_5b/Branch_3/Conv2d_0b_1x1/BatchNorm/moving_mean", "op": "Const"}, {"attr": {"dtype": {"type": "DT_FLOAT"}, "value": {"tensor": {"dtype": "DT_FLOAT", "tensorShape": {"dim": [{"size": "128"}]}}}}, "name": "FeatureExtractor/InceptionV2/Mixed_5b/Branch_3/Conv2d_0b_1x1/BatchNorm/moving_variance", "op": "Const"}, {"attr": {"dtype": {"type": "DT_FLOAT"}, "value": {"tensor": {"dtype": "DT_FLOAT", "tensorShape": {"dim": [{"size": "1"}, {"size": "1"}, {"size": "1024"}, {"size": "352"}]}}}}, "name": "FeatureExtractor/InceptionV2/Mixed_5c/Branch_0/Conv2d_0a_1x1/weights", "op": "Const"}, {"attr": {"dtype": {"type": "DT_FLOAT"}, "value": {"tensor": {"dtype": "DT_FLOAT", "tensorShape": {"dim": [{"size": "352"}]}}}}, "name": "FeatureExtractor/InceptionV2/Mixed_5c/Branch_0/Conv2d_0a_1x1/BatchNorm/gamma", "op": "Const"}, {"attr": {"dtype": {"type": "DT_FLOAT"}, "value": {"tensor": {"dtype": "DT_FLOAT", "tensorShape": {"dim": [{"size": "352"}]}}}}, "name": "FeatureExtractor/InceptionV2/Mixed_5c/Branch_0/Conv2d_0a_1x1/BatchNorm/beta", "op": "Const"}, {"attr": {"dtype": {"type": "DT_FLOAT"}, "value": {"tensor": {"dtype": "DT_FLOAT", "tensorShape": {"dim": [{"size": "352"}]}}}}, "name": "FeatureExtractor/InceptionV2/Mixed_5c/Branch_0/Conv2d_0a_1x1/BatchNorm/moving_mean", "op": "Const"}, {"attr": {"dtype": {"type": "DT_FLOAT"}, "value": {"tensor": {"dtype": "DT_FLOAT", "tensorShape": {"dim": [{"size": "352"}]}}}}, "name": "FeatureExtractor/InceptionV2/Mixed_5c/Branch_0/Conv2d_0a_1x1/BatchNorm/moving_variance", "op": "Const"}, {"attr": {"dtype": {"type": "DT_FLOAT"}, "value": {"tensor": {"dtype": "DT_FLOAT", "tensorShape": {"dim": [{"size": "1"}, {"size": "1"}, {"size": "1024"}, {"size": "192"}]}}}}, "name": "FeatureExtractor/InceptionV2/Mixed_5c/Branch_1/Conv2d_0a_1x1/weights", "op": "Const"}, {"attr": {"dtype": {"type": "DT_FLOAT"}, "value": {"tensor": {"dtype": "DT_FLOAT", "tensorShape": {"dim": [{"size": "192"}]}}}}, "name": "FeatureExtractor/InceptionV2/Mixed_5c/Branch_1/Conv2d_0a_1x1/BatchNorm/gamma", "op": "Const"}, {"attr": {"dtype": {"type": "DT_FLOAT"}, "value": {"tensor": {"dtype": "DT_FLOAT", "tensorShape": {"dim": [{"size": "192"}]}}}}, "name": "FeatureExtractor/InceptionV2/Mixed_5c/Branch_1/Conv2d_0a_1x1/BatchNorm/beta", "op": "Const"}, {"attr": {"dtype": {"type": "DT_FLOAT"}, "value": {"tensor": {"dtype": "DT_FLOAT", "tensorShape": {"dim": [{"size": "192"}]}}}}, "name": "FeatureExtractor/InceptionV2/Mixed_5c/Branch_1/Conv2d_0a_1x1/BatchNorm/moving_mean", "op": "Const"}, {"attr": {"dtype": {"type": "DT_FLOAT"}, "value": {"tensor": {"dtype": "DT_FLOAT", "tensorShape": {"dim": [{"size": "192"}]}}}}, "name": "FeatureExtractor/InceptionV2/Mixed_5c/Branch_1/Conv2d_0a_1x1/BatchNorm/moving_variance", "op": "Const"}, {"attr": {"dtype": {"type": "DT_FLOAT"}, "value": {"tensor": {"dtype": "DT_FLOAT", "tensorShape": {"dim": [{"size": "3"}, {"size": "3"}, {"size": "192"}, {"size": "320"}]}}}}, "name": "FeatureExtractor/InceptionV2/Mixed_5c/Branch_1/Conv2d_0b_3x3/weights", "op": "Const"}, {"attr": {"dtype": {"type": "DT_FLOAT"}, "value": {"tensor": {"dtype": "DT_FLOAT", "tensorShape": {"dim": [{"size": "320"}]}}}}, "name": "FeatureExtractor/InceptionV2/Mixed_5c/Branch_1/Conv2d_0b_3x3/BatchNorm/gamma", "op": "Const"}, {"attr": {"dtype": {"type": "DT_FLOAT"}, "value": {"tensor": {"dtype": "DT_FLOAT", "tensorShape": {"dim": [{"size": "320"}]}}}}, "name": "FeatureExtractor/InceptionV2/Mixed_5c/Branch_1/Conv2d_0b_3x3/BatchNorm/beta", "op": "Const"}, {"attr": {"dtype": {"type": "DT_FLOAT"}, "value": {"tensor": {"dtype": "DT_FLOAT", "tensorShape": {"dim": [{"size": "320"}]}}}}, "name": "FeatureExtractor/InceptionV2/Mixed_5c/Branch_1/Conv2d_0b_3x3/BatchNorm/moving_mean", "op": "Const"}, {"attr": {"dtype": {"type": "DT_FLOAT"}, "value": {"tensor": {"dtype": "DT_FLOAT", "tensorShape": {"dim": [{"size": "320"}]}}}}, "name": "FeatureExtractor/InceptionV2/Mixed_5c/Branch_1/Conv2d_0b_3x3/BatchNorm/moving_variance", "op": "Const"}, {"attr": {"dtype": {"type": "DT_FLOAT"}, "value": {"tensor": {"dtype": "DT_FLOAT", "tensorShape": {"dim": [{"size": "1"}, {"size": "1"}, {"size": "1024"}, {"size": "192"}]}}}}, "name": "FeatureExtractor/InceptionV2/Mixed_5c/Branch_2/Conv2d_0a_1x1/weights", "op": "Const"}, {"attr": {"dtype": {"type": "DT_FLOAT"}, "value": {"tensor": {"dtype": "DT_FLOAT", "tensorShape": {"dim": [{"size": "192"}]}}}}, "name": "FeatureExtractor/InceptionV2/Mixed_5c/Branch_2/Conv2d_0a_1x1/BatchNorm/gamma", "op": "Const"}, {"attr": {"dtype": {"type": "DT_FLOAT"}, "value": {"tensor": {"dtype": "DT_FLOAT", "tensorShape": {"dim": [{"size": "192"}]}}}}, "name": "FeatureExtractor/InceptionV2/Mixed_5c/Branch_2/Conv2d_0a_1x1/BatchNorm/beta", "op": "Const"}, {"attr": {"dtype": {"type": "DT_FLOAT"}, "value": {"tensor": {"dtype": "DT_FLOAT", "tensorShape": {"dim": [{"size": "192"}]}}}}, "name": "FeatureExtractor/InceptionV2/Mixed_5c/Branch_2/Conv2d_0a_1x1/BatchNorm/moving_mean", "op": "Const"}, {"attr": {"dtype": {"type": "DT_FLOAT"}, "value": {"tensor": {"dtype": "DT_FLOAT", "tensorShape": {"dim": [{"size": "192"}]}}}}, "name": "FeatureExtractor/InceptionV2/Mixed_5c/Branch_2/Conv2d_0a_1x1/BatchNorm/moving_variance", "op": "Const"}, {"attr": {"dtype": {"type": "DT_FLOAT"}, "value": {"tensor": {"dtype": "DT_FLOAT", "tensorShape": {"dim": [{"size": "3"}, {"size": "3"}, {"size": "192"}, {"size": "224"}]}}}}, "name": "FeatureExtractor/InceptionV2/Mixed_5c/Branch_2/Conv2d_0b_3x3/weights", "op": "Const"}, {"attr": {"dtype": {"type": "DT_FLOAT"}, "value": {"tensor": {"dtype": "DT_FLOAT", "tensorShape": {"dim": [{"size": "224"}]}}}}, "name": "FeatureExtractor/InceptionV2/Mixed_5c/Branch_2/Conv2d_0b_3x3/BatchNorm/gamma", "op": "Const"}, {"attr": {"dtype": {"type": "DT_FLOAT"}, "value": {"tensor": {"dtype": "DT_FLOAT", "tensorShape": {"dim": [{"size": "224"}]}}}}, "name": "FeatureExtractor/InceptionV2/Mixed_5c/Branch_2/Conv2d_0b_3x3/BatchNorm/beta", "op": "Const"}, {"attr": {"dtype": {"type": "DT_FLOAT"}, "value": {"tensor": {"dtype": "DT_FLOAT", "tensorShape": {"dim": [{"size": "224"}]}}}}, "name": "FeatureExtractor/InceptionV2/Mixed_5c/Branch_2/Conv2d_0b_3x3/BatchNorm/moving_mean", "op": "Const"}, {"attr": {"dtype": {"type": "DT_FLOAT"}, "value": {"tensor": {"dtype": "DT_FLOAT", "tensorShape": {"dim": [{"size": "224"}]}}}}, "name": "FeatureExtractor/InceptionV2/Mixed_5c/Branch_2/Conv2d_0b_3x3/BatchNorm/moving_variance", "op": "Const"}, {"attr": {"dtype": {"type": "DT_FLOAT"}, "value": {"tensor": {"dtype": "DT_FLOAT", "tensorShape": {"dim": [{"size": "3"}, {"size": "3"}, {"size": "224"}, {"size": "224"}]}}}}, "name": "FeatureExtractor/InceptionV2/Mixed_5c/Branch_2/Conv2d_0c_3x3/weights", "op": "Const"}, {"attr": {"dtype": {"type…
FLOAT"}, "Taxis": {"type": "DT_INT32"}, "Tindices": {"type": "DT_INT32"}}, "name": "Postprocessor/BatchMultiClassNonMaxSuppression/map/while/MultiClassNonMaxSuppression/ClipToWindow/Gather/GatherV2_5", "op": "GatherV2"}, {"input": ["Postprocessor/BatchMultiClassNonMaxSuppression/map/while/MultiClassNonMaxSuppression/ClipToWindow/Gather/GatherV2_5"], "attr": {"out_type": {"type": "DT_INT32"}, "T": {"type": "DT_FLOAT"}}, "name": "Postprocessor/BatchMultiClassNonMaxSuppression/map/while/MultiClassNonMaxSuppression/SortByField_1/Shape", "op": "Shape"}, {"input": ["Postprocessor/BatchMultiClassNonMaxSuppression/map/while/add/y", "Postprocessor/BatchMultiClassNonMaxSuppression/map/while/MultiClassNonMaxSuppression/ClipToWindow/Gather/GatherV2_5"], "attr": {"num_split": {"i": "4"}, "T": {"type": "DT_FLOAT"}}, "name": "Postprocessor/BatchMultiClassNonMaxSuppression/map/while/MultiClassNonMaxSuppression/Area/split", "op": "Split"}, {"input": ["Postprocessor/BatchMultiClassNonMaxSuppression/map/while/MultiClassNonMaxSuppression/SortByField_1/Shape", "Postprocessor/BatchMultiClassNonMaxSuppression/map/while/MultiClassNonMaxSuppression/strided_slice/stack", "Postprocessor/BatchMultiClassNonMaxSuppression/map/while/MultiClassNonMaxSuppression/strided_slice/stack_1", "Postprocessor/BatchMultiClassNonMaxSuppression/map/while/MultiClassNonMaxSuppression/strided_slice/stack_1"], "attr": {"new_axis_mask": {"i": "0"}, "Index": {"type": "DT_INT32"}, "begin_mask": {"i": "0"}, "ellipsis_mask": {"i": "0"}, "end_mask": {"i": "0"}, "T": {"type": "DT_INT32"}, "shrink_axis_mask": {"i": "1"}}, "name": "Postprocessor/BatchMultiClassNonMaxSuppression/map/while/MultiClassNonMaxSuppression/SortByField_1/strided_slice", "op": "StridedSlice"}, {"input": ["Postprocessor/BatchMultiClassNonMaxSuppression/map/while/MultiClassNonMaxSuppression/Area/split:2", "Postprocessor/BatchMultiClassNonMaxSuppression/map/while/MultiClassNonMaxSuppression/Area/split"], "attr": {"T": {"type": "DT_FLOAT"}}, "name": "Postprocessor/BatchMultiClassNonMaxSuppression/map/while/MultiClassNonMaxSuppression/Area/sub", "op": "Sub"}, {"input": ["Postprocessor/BatchMultiClassNonMaxSuppression/map/while/MultiClassNonMaxSuppression/Area/split:3", "Postprocessor/BatchMultiClassNonMaxSuppression/map/while/MultiClassNonMaxSuppression/Area/split:1"], "attr": {"T": {"type": "DT_FLOAT"}}, "name": "Postprocessor/BatchMultiClassNonMaxSuppression/map/while/MultiClassNonMaxSuppression/Area/sub_1", "op": "Sub"}, {"input": ["Postprocessor/BatchMultiClassNonMaxSuppression/map/while/MultiClassNonMaxSuppression/SortByField_1/strided_slice", "Postprocessor/BatchMultiClassNonMaxSuppression/map/while/MultiClassNonMaxSuppression/Reshape/shape"], "attr": {"T": {"type": "DT_INT32"}, "Tshape": {"type": "DT_INT32"}}, "name": "Postprocessor/BatchMultiClassNonMaxSuppression/map/while/MultiClassNonMaxSuppression/ones_21/Reshape", "op": "Reshape"}, {"input": ["Postprocessor/BatchMultiClassNonMaxSuppression/map/while/MultiClassNonMaxSuppression/Area/sub", "Postprocessor/BatchMultiClassNonMaxSuppression/map/while/MultiClassNonMaxSuppression/Area/sub_1"], "attr": {"T": {"type": "DT_FLOAT"}}, "name": "Postprocessor/BatchMultiClassNonMaxSuppression/map/while/MultiClassNonMaxSuppression/Area/mul", "op": "Mul"}, {"input": ["Postprocessor/BatchMultiClassNonMaxSuppression/map/while/MultiClassNonMaxSuppression/ones_21/Reshape", "Postprocessor/BatchMultiClassNonMaxSuppression/map/while/MultiClassNonMaxSuppression/ones/Const"], "attr": {"index_type": {"type": "DT_INT32"}, "T": {"type": "DT_FLOAT"}}, "name": "Postprocessor/BatchMultiClassNonMaxSuppression/map/while/MultiClassNonMaxSuppression/ones_21", "op": "Fill"}, {"input": ["Postprocessor/BatchMultiClassNonMaxSuppression/map/while/MultiClassNonMaxSuppression/Area/mul"], "attr": {"squeeze_dims": {"list": {"i": ["1"]}}, "T": {"type": "DT_FLOAT"}}, "name": "Postprocessor/BatchMultiClassNonMaxSuppression/map/while/MultiClassNonMaxSuppression/Area/Squeeze", "op": "Squeeze"}, {"input": ["Postprocessor/BatchMultiClassNonMaxSuppression/map/while/MultiClassNonMaxSuppression/mul/x", "Postprocessor/BatchMultiClassNonMaxSuppression/map/while/MultiClassNonMaxSuppression/ones_21"], "attr": {"T": {"type": "DT_FLOAT"}}, "name": "Postprocessor/BatchMultiClassNonMaxSuppression/map/while/MultiClassNonMaxSuppression/mul_21", "op": "Mul"}, {"input": ["Postprocessor/BatchMultiClassNonMaxSuppression/map/while/MultiClassNonMaxSuppression/Area/Squeeze"], "attr": {"DstT": {"type": "DT_BOOL"}, "Truncate": {"b": false}, "SrcT": {"type": "DT_FLOAT"}}, "name": "Postprocessor/BatchMultiClassNonMaxSuppression/map/while/MultiClassNonMaxSuppression/Cast", "op": "Cast"}, {"input": ["Postprocessor/BatchMultiClassNonMaxSuppression/map/while/MultiClassNonMaxSuppression/Cast", "Postprocessor/BatchMultiClassNonMaxSuppression/map/while/MultiClassNonMaxSuppression/ClipToWindow/Gather/GatherV2_4", "Postprocessor/BatchMultiClassNonMaxSuppression/map/while/MultiClassNonMaxSuppression/mul_21"], "attr": {"T": {"type": "DT_FLOAT"}}, "name": "Postprocessor/BatchMultiClassNonMaxSuppression/map/while/MultiClassNonMaxSuppression/Select_21", "op": "Select"}, {"input": ["Postprocessor/BatchMultiClassNonMaxSuppression/map/while/MultiClassNonMaxSuppression/Select_21", "Postprocessor/BatchMultiClassNonMaxSuppression/map/while/MultiClassNonMaxSuppression/ClipToWindow/Greater/y"], "attr": {"T": {"type": "DT_FLOAT"}}, "name": "Postprocessor/BatchMultiClassNonMaxSuppression/map/while/MultiClassNonMaxSuppression/GreaterEqual", "op": "GreaterEqual"}, {"input": ["Postprocessor/BatchMultiClassNonMaxSuppression/map/while/MultiClassNonMaxSuppression/Select_21", "Postprocessor/BatchMultiClassNonMaxSuppression/map/while/MultiClassNonMaxSuppression/SortByField_1/strided_slice"], "attr": {"sorted": {"b": true}, "T": {"type": "DT_FLOAT"}}, "name": "Postprocessor/BatchMultiClassNonMaxSuppression/map/while/MultiClassNonMaxSuppression/SortByField_1/TopKV2", "op": "TopKV2"}, {"input": ["Postprocessor/BatchMultiClassNonMaxSuppression/map/while/MultiClassNonMaxSuppression/GreaterEqual"], "attr": {"DstT": {"type": "DT_INT32"}, "Truncate": {"b": false}, "SrcT": {"type": "DT_BOOL"}}, "name": "Postprocessor/BatchMultiClassNonMaxSuppression/map/while/MultiClassNonMaxSuppression/Cast_1", "op": "Cast"}, {"input": ["Postprocessor/BatchMultiClassNonMaxSuppression/map/while/MultiClassNonMaxSuppression/ClipToWindow/Gather/GatherV2_1", "Postprocessor/BatchMultiClassNonMaxSuppression/map/while/MultiClassNonMaxSuppression/SortByField_1/TopKV2:1", "Postprocessor/BatchMultiClassNonMaxSuppression/map/while/PadOrClipBoxList/zeros_3/Const"], "attr": {"batch_dims": {"i": "0"}, "Tparams": {"type": "DT_FLOAT"}, "Taxis": {"type": "DT_INT32"}, "Tindices": {"type": "DT_INT32"}}, "name": "Postprocessor/BatchMultiClassNonMaxSuppression/map/while/MultiClassNonMaxSuppression/SortByField_1/Gather/GatherV2_1", "op": "GatherV2"}, {"input": ["Postprocessor/BatchMultiClassNonMaxSuppression/map/while/MultiClassNonMaxSuppression/ClipToWindow/Gather/GatherV2_2", "Postprocessor/BatchMultiClassNonMaxSuppression/map/while/MultiClassNonMaxSuppression/SortByField_1/TopKV2:1", "Postprocessor/BatchMultiClassNonMaxSuppression/map/while/PadOrClipBoxList/zeros_3/Const"], "attr": {"batch_dims": {"i": "0"}, "Tparams": {"type": "DT_FLOAT"}, "Taxis": {"type": "DT_INT32"}, "Tindices": {"type": "DT_INT32"}}, "name": "Postprocessor/BatchMultiClassNonMaxSuppression/map/while/MultiClassNonMaxSuppression/SortByField_1/Gather/GatherV2_2", "op": "GatherV2"}, {"input": ["Postprocessor/BatchMultiClassNonMaxSuppression/map/while/MultiClassNonMaxSuppression/Select_21", "Postprocessor/BatchMultiClassNonMaxSuppression/map/while/MultiClassNonMaxSuppression/SortByField_1/TopKV2:1", "Postprocessor/BatchMultiClassNonMaxSuppression/map/while/PadOrClipBoxList/zeros_3/Const"], "attr": {"batch_dims": {"i": "0"}, "Tparams": {"type": "DT_FLOAT"}, "Taxis": {"type": "DT_INT32"}, "Tindices": {"type": "DT_INT32"}}, "name": "Postprocessor/BatchMultiClassNonMaxSuppression/map/while/MultiClassNonMaxSuppression/SortByField_1/Gather/GatherV2_4", "op": "GatherV2"}, {"input": ["Postprocessor/BatchMultiClassNonMaxSuppression/map/while/MultiClassNonMaxSuppression/ClipToWindow/Gather/GatherV2_5", "Postprocessor/BatchMultiClassNonMaxSuppression/map/while/MultiClassNonMaxSuppression/SortByField_1/TopKV2:1", "Postprocessor/BatchMultiClassNonMaxSuppression/map/while/PadOrClipBoxList/zeros_3/Const"], "attr": {"batch_dims": {"i": "0"}, "Tparams": {"type": "DT_FLOAT"}, "Taxis": {"type": "DT_INT32"}, "Tindices": {"type": "DT_INT32"}}, "name": "Postprocessor/BatchMultiClassNonMaxSuppression/map/while/MultiClassNonMaxSuppression/SortByField_1/Gather/GatherV2_5", "op": "GatherV2"}, {"input": ["Postprocessor/BatchMultiClassNonMaxSuppression/map/while/MultiClassNonMaxSuppression/Cast_1", "Postprocessor/BatchMultiClassNonMaxSuppression/map/while/MultiClassNonMaxSuppression/strided_slice/stack"], "attr": {"Tidx": {"type": "DT_INT32"}, "keep_dims": {"b": false}, "T": {"type": "DT_INT32"}}, "name": "Postprocessor/BatchMultiClassNonMaxSuppression/map/while/MultiClassNonMaxSuppression/Sum", "op": "Sum"}, {"input": ["Postprocessor/BatchMultiClassNonMaxSuppression/map/while/MultiClassNonMaxSuppression/SortByField_1/Gather/GatherV2_5"], "attr": {"out_type": {"type": "DT_INT32"}, "T": {"type": "DT_FLOAT"}}, "name": "Postprocessor/BatchMultiClassNonMaxSuppression/map/while/MultiClassNonMaxSuppression/Shape_44", "op": "Shape"}, {"input": ["Postprocessor/BatchMultiClassNonMaxSuppression/map/while/MultiClassNonMaxSuppression/Shape_44", "Postprocessor/BatchMultiClassNonMaxSuppression/map/while/MultiClassNonMaxSuppression/strided_slice/stack", "Postprocessor/BatchMultiClassNonMaxSuppression/map/while/MultiClassNonMaxSuppression/strided_slice/stack_1", "Postprocessor/BatchMultiClassNonMaxSuppression/map/while/MultiClassNonMaxSuppression/strided_slice/stack_1"], "attr": {"new_axis_mask": {"i": "0"}, "Index": {"type": "DT_INT32"}, "begin_mask": {"i": "0"}, "ellipsis_mask": {"i": "0"}, "end_mask": {"i": "0"}, "T": {"type": "DT_INT32"}, "shrink_axis_mask": {"i": "1"}}, "name": "Postprocessor/BatchMultiClassNonMaxSuppression/map/while/MultiClassNonMaxSuppression/strided_slice_44", "op": "StridedSlice"}, {"input": ["Postprocessor/BatchMultiClassNonMaxSuppression/map/while/PadOrClipBoxList/sub_6/x", "Postprocessor/BatchMultiClassNonMaxSuppression/map/while/MultiClassNonMaxSuppression/strided_slice_44"], "attr": {"T": {"type": "DT_INT32"}}, "name": "Postprocessor/BatchMultiClassNonMaxSuppression/map/while/MultiClassNonMaxSuppression/Minimum_21", "op": "Minimum"}, {"input": ["Postprocessor/BatchMultiClassNonMaxSuppression/map/while/PadOrClipBoxList/zeros_3/Const", "Postprocessor/BatchMultiClassNonMaxSuppression/map/while/MultiClassNonMaxSuppression/Minimum_21", "Postprocessor/BatchMultiClassNonMaxSuppression/map/while/add/y"], "attr": {"Tidx": {"type": "DT_INT32"}}, "name": "Postprocessor/BatchMultiClassNonMaxSuppression/map/while/MultiClassNonMaxSuppression/range_21", "op": "Range"}, {"input": ["Postprocessor/BatchMultiClassNonMaxSuppression/map/while/MultiClassNonMaxSuppression/Minimum_21", "Postprocessor/BatchMultiClassNonMaxSuppression/map/while/MultiClassNonMaxSuppression/Sum"], "attr": {"T": {"type": "DT_INT32"}}, "name": "Postprocessor/BatchMultiClassNonMaxSuppression/map/while/MultiClassNonMaxSuppression/Greater", "op": "Greater"}, {"input": ["Postprocessor/BatchMultiClassNonMaxSuppression/map/while/MultiClassNonMaxSuppression/SortByField_1/Gather/GatherV2_1", "Postprocessor/BatchMultiClassNonMaxSuppression/map/while/MultiClassNonMaxSuppression/range_21", "Postprocessor/BatchMultiClassNonMaxSuppression/map/while/PadOrClipBoxList/zeros_3/Const"], "attr": {"batch_dims": {"i": "0"}, "Tparams": {"type": "DT_FLOAT"}, "Taxis": {"type": "DT_INT32"}, "Tindices": {"type": "DT_INT32"}}, "name": "Postprocessor/BatchMultiClassNonMaxSuppression/map/while/MultiClassNonMaxSuppression/Gather_21/GatherV2_1", "op": "GatherV2"}, {"input": ["Postprocessor/BatchMultiClassNonMaxSuppression/map/while/MultiClassNonMaxSuppression/SortByField_1/Gather/GatherV2_2", "Postprocessor/BatchMultiClassNonMaxSuppression/map/while/MultiClassNonMaxSuppression/range_21", "Postprocessor/BatchMultiClassNonMaxSuppression/map/while/PadOrClipBoxList/zeros_3/Const"], "attr": {"batch_dims": {"i": "0"}, "Tparams": {"type": "DT_FLOAT"}, "Taxis": {"type": "DT_INT32"}, "Tindices": {"type": "DT_INT32"}}, "name": "Postprocessor/BatchMultiClassNonMaxSuppression/map/while/MultiClassNonMaxSuppression/Gather_21/GatherV2_2", "op": "GatherV2"}, {"input": ["Postprocessor/BatchMultiClassNonMaxSuppression/map/while/MultiClassNonMaxSuppression/SortByField_1/Gather/GatherV2_4", "Postprocessor/BatchMultiClassNonMaxSuppression/map/while/MultiClassNonMaxSuppression/range_21", "Postprocessor/BatchMultiClassNonMaxSuppression/map/while/PadOrClipBoxList/zeros_3/Const"], "attr": {"batch_dims": {"i": "0"}, "Tparams": {"type": "DT_FLOAT"}, "Taxis": {"type": "DT_INT32"}, "Tindices": {"type": "DT_INT32"}}, "name": "Postprocessor/BatchMultiClassNonMaxSuppression/map/while/MultiClassNonMaxSuppression/Gather_21/GatherV2_4", "op": "GatherV2"}, {"input": ["Postprocessor/BatchMultiClassNonMaxSuppression/map/while/MultiClassNonMaxSuppression/SortByField_1/Gather/GatherV2_5", "Postprocessor/BatchMultiClassNonMaxSuppression/map/while/MultiClassNonMaxSuppression/range_21", "Postprocessor/BatchMultiClassNonMaxSuppression/map/while/PadOrClipBoxList/zeros_3/Const"], "attr": {"batch_dims": {"i": "0"}, "Tparams": {"type": "DT_FLOAT"}, "Taxis": {"type": "DT_INT32"}, "Tindices": {"type": "DT_INT32"}}, "name": "Postprocessor/BatchMultiClassNonMaxSuppression/map/while/MultiClassNonMaxSuppression/Gather_21/GatherV2_5", "op": "GatherV2"}, {"input": ["Postprocessor/BatchMultiClassNonMaxSuppression/map/while/MultiClassNonMaxSuppression/Greater", "Postprocessor/BatchMultiClassNonMaxSuppression/map/while/MultiClassNonMaxSuppression/Sum", "Postprocessor/BatchMultiClassNonMaxSuppression/map/while/MultiClassNonMaxSuppression/Minimum_21"], "attr": {"T": {"type": "DT_INT32"}}, "name": "Postprocessor/BatchMultiClassNonMaxSuppression/map/while/MultiClassNonMaxSuppression/Select_22", "op": "Select"}, {"input": ["Postprocessor/BatchMultiClassNonMaxSuppression/map/while/PadOrClipBoxList/zeros_3/Const", "Postprocessor/BatchMultiClassNonMaxSuppression/map/while/MultiClassNonMaxSuppression/Select_22", "Postprocessor/BatchMultiClassNonMaxSuppression/map/while/add/y"], "attr": {"Tidx": {"type": "DT_INT32"}}, "name": "Postprocessor/BatchMultiClassNonMaxSuppression/map/while/MultiClassNonMaxSuppression/range_22", "op": "Range"}, {"input": ["Postprocessor/BatchMultiClassNonMaxSuppression/map/while/TensorArrayWrite_5/TensorArrayWriteV3/Enter", "Postprocessor/BatchMultiClassNonMaxSuppression/map/while/Switch_1:1", "Postprocessor/BatchMultiClassNonMaxSuppression/map/while/MultiClassNonMaxSuppression/Select_22", "Postprocessor/BatchMultiClassNonMaxSuppression/map/while/Switch_7:1"], "attr": {"T": {"type": "DT_INT32"}}, "name": "Postprocessor/BatchMultiClassNonMaxSuppression/map/while/TensorArrayWrite_5/TensorArrayWriteV3", "op": "TensorArrayWriteV3"}, {"input": ["Postprocessor/BatchMultiClassNonMaxSuppression/map/while/MultiClassNonMaxSuppression/Gather_21/GatherV2_1", "Postprocessor/BatchMultiClassNonMaxSuppression/map/while/MultiClassNonMaxSuppression/range_22", "Postprocessor/BatchMultiClassNonMaxSuppression/map/while/PadOrClipBoxList/zeros_3/Const"], "attr": {"batch_dims": {"i": "0"}, "Tparams": {"type": "DT_FLOAT"}, "Taxis": {"type": "DT_INT32"}, "Tindices": {"type": "DT_INT32"}}, "name": "Postprocessor/BatchMultiClassNonMaxSuppression/map/while/MultiClassNonMaxSuppression/Gather_22/GatherV2_1", "op": "GatherV2"}, {"input": ["Postprocessor/BatchMultiClassNonMaxSuppression/map/while/MultiClassNonMaxSuppression/Gather_21/GatherV2_2", "Postprocessor/BatchMultiClassNonMaxSuppression/map/while/MultiClassNonMaxSuppression/range_22", "Postprocessor/BatchMultiClassNonMaxSuppression/map/while/PadOrClipBoxList/zeros_3/Const"], "attr": {"batch_dims": {"i": "0"}, "Tparams": {"type": "DT_FLOAT"}, "Taxis": {"type": "DT_INT32"}, "Tindices": {"type": "DT_INT32"}}, "name": "Postprocessor/BatchMultiClassNonMaxSuppression/map/while/MultiClassNonMaxSuppression/Gather_22/GatherV2_2", "op": "GatherV2"}, {"input": ["Postprocessor/BatchMultiClassNonMaxSuppression/map/while/MultiClassNonMaxSuppression/Gather_21/GatherV2_4", "Postprocessor/BatchMultiClassNonMaxSuppression/map/while/MultiClassNonMaxSuppression/range_22", "Postprocessor/BatchMultiClassNonMaxSuppression/map/while/PadOrClipBoxList/zeros_3/Const"], "attr": {"batch_dims": {"i": "0"}, "Tparams": {"type": "DT_FLOAT"}, "Taxis": {"type": "DT_INT32"}, "Tindices": {"type": "DT_INT32"}}, "name": "Postprocessor/BatchMultiClassNonMaxSuppression/map/while/MultiClassNonMaxSuppression/Gather_22/GatherV2_4", "op": "GatherV2"}, {"input": ["Postprocessor/BatchMultiClassNonMaxSuppression/map/while/MultiClassNonMaxSuppression/Gather_21/GatherV2_5", "Postprocessor/BatchMultiClassNonMaxSuppression/map/while/MultiClassNonMaxSuppression/range_22", "Postprocessor/BatchMultiClassNonMaxSuppression/map/while/PadOrClipBoxList/zeros_3/Const"], "attr": {"batch_dims": {"i": "0"}, "Tparams": {"type": "DT_FLOAT"}, "Taxis": {"type": "DT_INT32"}, "Tindices": {"type": "DT_INT32"}}, "name": "Postprocessor/BatchMultiClassNonMaxSuppression/map/while/MultiClassNonMaxSuppression/Gather_22/GatherV2_5", "op": "GatherV2"}, {"input": ["Postprocessor/BatchMultiClassNonMaxSuppression/map/while/TensorArrayWrite_5/TensorArrayWriteV3"], "attr": {"T": {"type": "DT_FLOAT"}}, "name": "Postprocessor/BatchMultiClassNonMaxSuppression/map/while/NextIteration_7", "op": "NextIteration"}, {"input": ["Postprocessor/BatchMultiClassNonMaxSuppression/map/while/MultiClassNonMaxSuppression/Gather_22/GatherV2_1"], "attr": {"out_type": {"type": "DT_INT32"}, "T": {"type": "DT_FLOAT"}}, "name": "Postprocessor/BatchMultiClassNonMaxSuppression/map/while/PadOrClipBoxList/Shape_2", "op": "Shape"}, {"input": ["Postprocessor/BatchMultiClassNonMaxSuppression/map/while/MultiClassNonMaxSuppression/Gather_22/GatherV2_2"], "attr": {"out_type": {"type": "DT_INT32"}, "T": {"type": "DT_FLOAT"}}, "name": "Postprocessor/BatchMultiClassNonMaxSuppression/map/while/PadOrClipBoxList/Shape_4", "op": "Shape"}, {"input": ["Postprocessor/BatchMultiClassNonMaxSuppression/map/while/MultiClassNonMaxSuppression/Gather_22/GatherV2_4"], "attr": {"out_type": {"type": "DT_INT32"}, "T": {"type": "DT_FLOAT"}}, "name": "Postprocessor/BatchMultiClassNonMaxSuppression/map/while/PadOrClipBoxList/Shape_8", "op": "Shape"}, {"input": ["Postprocessor/BatchMultiClassNonMaxSuppression/map/while/MultiClassNonMaxSuppression/Gather_22/GatherV2_5"], "attr": {"out_type": {"type": "DT_INT32"}, "T": {"type": "DT_FLOAT"}}, "name": "Postprocessor/BatchMultiClassNonMaxSuppression/map/while/PadOrClipBoxList/Shape", "op": "Shape"}, {"input": ["Postprocessor/BatchMultiClassNonMaxSuppression/map/while/PadOrClipBoxList/Shape_2", "Postprocessor/BatchMultiClassNonMaxSuppression/map/while/MultiClassNonMaxSuppression/strided_slice/stack", "Postprocessor/BatchMultiClassNonMaxSuppression/map/while/MultiClassNonMaxSuppression/strided_slice/stack_1", "Postprocessor/BatchMultiClassNonMaxSuppression/map/while/MultiClassNonMaxSuppression/strided_slice/stack_1"], "attr": {"new_axis_mask": {"i": "0"}, "Index": {"type": "DT_INT32"}, "begin_mask": {"i": "0"}, "ellipsis_mask": {"i": "0"}, "end_mask": {"i": "0"}, "T": {"type": "DT_INT32"}, "shrink_axis_mask": {"i": "1"}}, "name": "Postprocessor/BatchMultiClassNonMaxSuppression/map/while/PadOrClipBoxList/strided_slice_4", "op": "StridedSlice"}, {"input": ["Postprocessor/BatchMultiClassNonMaxSuppression/map/while/PadOrClipBoxList/Shape_2", "Postprocessor/BatchMultiClassNonMaxSuppression/map/while/MultiClassNonMaxSuppression/strided_slice/stack_1", "Postprocessor/BatchMultiClassNonMaxSuppression/map/while/PadOrClipBoxList/zeros_3/shape_as_tensor", "Postprocessor/BatchMultiClassNonMaxSuppression/map/while/MultiClassNonMaxSuppression/strided_slice/stack_1"], "attr": {"new_axis_mask": {"i": "0"}, "Index": {"type": "DT_INT32"}, "begin_mask": {"i": "0"}, "ellipsis_mask": {"i": "0"}, "end_mask": {"i": "0"}, "T": {"type": "DT_INT32"}, "shrink_axis_mask": {"i": "1"}}, "name": "Postprocessor/BatchMultiClassNonMaxSuppression/map/while/PadOrClipBoxList/strided_slice_5", "op": "StridedSlice"}, {"input": ["Postprocessor/BatchMultiClassNonMaxSuppression/map/while/PadOrClipBoxList/Shape_4", "Postprocessor/BatchMultiClassNonMaxSuppression/map/while/MultiClassNonMaxSuppression/strided_slice/stack", "Postprocessor/BatchMultiClassNonMaxSuppression/map/while/MultiClassNonMaxSuppression/strided_slice/stack_1", "Postprocessor/BatchMultiClassNonMaxSuppression/map/while/MultiClassNonMaxSuppression/strided_slice/stack_1"], "attr": {"new_axis_mask": {"i": "0"}, "Index": {"type": "DT_INT32"}, "begin_mask": {"i": "0"}, "ellipsis_mask": {"i": "0"}, "end_mask": {"i": "0"}, "T": {"type": "DT_INT32"}, "shrink_axis_mask": {"i": "1"}}, "name": "Postprocessor/BatchMultiClassNonMaxSuppression/map/while/PadOrClipBoxList/strided_slice_8", "op": "StridedSlice"}, {"input": ["Postprocessor/BatchMultiClassNonMaxSuppression/map/while/PadOrClipBoxList/Shape_8", "Postprocessor/BatchMultiClassNonMaxSuppression/map/while/MultiClassNonMaxSuppression/strided_slice/stack", "Postprocessor/BatchMultiClassNonMaxSuppression/map/while/MultiClassNonMaxSuppression/strided_slice/stack_1", "Postprocessor/BatchMultiClassNonMaxSuppression/map/while/MultiClassNonMaxSuppression/strided_slice/stack_1"], "attr": {"new_axis_mask": {"i": "0"}, "Index": {"type": "DT_INT32"}, "begin_mask": {"i": "0"}, "ellipsis_mask": {"i": "0"}, "end_mask": {"i": "0"}, "T": {"type": "DT_INT32"}, "shrink_axis_mask": {"i": "1"}}, "name": "Postprocessor/BatchMultiClassNonMaxSuppression/map/while/PadOrClipBoxList/strided_slice_16", "op": "StridedSlice"}, {"input": ["Postprocessor/BatchMultiClassNonMaxSuppression/map/while/PadOrClipBoxList/Shape", "Postprocessor/BatchMultiClassNonMaxSuppression/map/while/MultiClassNonMaxSuppression/strided_slice/stack", "Postprocessor/BatchMultiClassNonMaxSuppression/map/while/MultiClassNonMaxSuppression/strided_slice/stack_1", "Postprocessor/BatchMultiClassNonMaxSuppression/map/while/MultiClassNonMaxSuppression/strided_slice/stack_1"], "attr": {"new_axis_mask": {"i": "0"}, "Index": {"type": "DT_INT32"}, "begin_mask": {"i": "0"}, "ellipsis_mask": {"i": "0"}, "end_mask": {"i": "0"}, "T": {"type": "DT_INT32"}, "shrink_axis_mask": {"i": "1"}}, "name": "Postprocessor/BatchMultiClassNonMaxSuppression/map/while/PadOrClipBoxList/strided_slice", "op": "StridedSlice"}, {"input": ["Postprocessor/BatchMultiClassNonMaxSuppression/map/while/PadOrClipBoxList/Shape", "Postprocessor/BatchMultiClassNonMaxSuppression/map/while/MultiClassNonMaxSuppression/strided_slice/stack_1", "Postprocessor/BatchMultiClassNonMaxSuppression/map/while/PadOrClipBoxList/zeros_3/shape_as_tensor", "Postprocessor/BatchMultiClassNonMaxSuppression/map/while/MultiClassNonMaxSuppression/strided_slice/stack_1"], "attr": {"new_axis_mask": {"i": "0"}, "Index": {"type": "DT_INT32"}, "begin_mask": {"i": "0"}, "ellipsis_mask": {"i": "0"}, "end_mask": {"i": "0"}, "T": {"type": "DT_INT32"}, "shrink_axis_mask": {"i": "1"}}, "name": "Postprocessor/BatchMultiClassNonMaxSuppression/map/while/PadOrClipBoxList/strided_slice_1", "op": "StridedSlice"}, {"input": ["Postprocessor/BatchMultiClassNonMaxSuppression/map/while/PadOrClipBoxList/strided_slice_4", "Postprocessor/BatchMultiClassNonMaxSuppression/map/while/PadOrClipBoxList/sub_6/x"], "attr": {"T": {"type": "DT_INT32"}}, "name": "Postprocessor/BatchMultiClassNonMaxSuppression/map/while/PadOrClipBoxList/sub_4", "op": "Sub"}, {"input": ["Postprocessor/BatchMultiClassNonMaxSuppression/map/while/PadOrClipBoxList/strided_slice_5", "Postprocessor/BatchMultiClassNonMaxSuppression/map/while/PadOrClipBoxList/sub_5/y"], "attr": {"T": {"type": "DT_INT32"}}, "name": "Postprocessor/BatchMultiClassNonMaxSuppression/map/while/PadOrClipBoxList/sub_5", "op": "Sub"}, {"input": ["Postprocessor/BatchMultiClassNonMaxSuppression/map/while/PadOrClipBoxList/strided_slice_8", "Postprocessor/BatchMultiClassNonMaxSuppression/map/while/PadOrClipBoxList/sub_6/x"], "attr": {"T": {"type": "DT_INT32"}}, "name": "Postprocessor/BatchMultiClassNonMaxSuppression/map/while/PadOrClipBoxList/sub_8", "op": "Sub"}, {"input": ["Postprocessor/BatchMultiClassNonMaxSuppression/map/while/PadOrClipBoxList/strided_slice_16", "Postprocessor/BatchMultiClassNonMaxSuppression/map/while/PadOrClipBoxList/sub_6/x"], "attr": {"T": {"type": "DT_INT32"}}, "name": "Postprocessor/BatchMultiClassNonMaxSuppression/map/while/PadOrClipBoxList/sub_16", "op": "Sub"}, {"input": ["Postprocessor/BatchMultiClassNonMaxSuppression/map/while/PadOrClipBoxList/strided_slice", "Postprocessor/BatchMultiClassNonMaxSuppression/map/while/PadOrClipBoxList/sub_6/x"], "attr": {"T": {"type": "DT_INT32"}}, "name": "Postprocessor/BatchMultiClassNonMaxSuppression/map/while/PadOrClipBoxList/sub", "op": "Sub"}, {"input": ["Postprocessor/BatchMultiClassNonMaxSuppression/map/while/PadOrClipBoxList/strided_slice_1", "Postprocessor/BatchMultiClassNonMaxSuppression/map/while/PadOrClipBoxList/sub_1/y"], "attr": {"T": {"type": "DT_INT32"}}, "name": "Postprocessor/BatchMultiClassNonMaxSuppression/map/while/PadOrClipBoxList/sub_1", "op": "Sub"}, {"input": ["Postprocessor/BatchMultiClassNonMaxSuppression/map/while/PadOrClipBoxList/sub_4", "Postprocessor/BatchMultiClassNonMaxSuppression/map/while/PadOrClipBoxList/zeros_3/Const"], "attr": {"T": {"type": "DT_INT32"}}, "name": "Postprocessor/BatchMultiClassNonMaxSuppression/map/while/PadOrClipBoxList/Greater_2", "op": "Greater"}, {"input": ["Postprocessor/BatchMultiClassNonMaxSuppression/map/while/PadOrClipBoxList/sub_5", "Postprocessor/BatchMultiClassNonMaxSuppression/map/while/PadOrClipBoxList/zeros_3/Const"], "attr": {"T": {"type": "DT_INT32"}}, "name": "Postprocessor/BatchMultiClassNonMaxSuppression/map/while/PadOrClipBoxList/Greater_3", "op": "Greater"}, {"input": ["Postprocessor/BatchMultiClassNonMaxSuppression/map/while/PadOrClipBoxList/sub_8", "Postprocessor/BatchMultiClassNonMaxSuppression/map/while/PadOrClipBoxList/zeros_3/Const"], "attr": {"T": {"type": "DT_INT32"}}, "name": "Postprocessor/BatchMultiClassNonMaxSuppression/map/while/PadOrClipBoxList/Greater_4", "op": "Greater"}, {"input": ["Postprocessor/BatchMultiClassNonMaxSuppression/map/while/PadOrClipBoxList/sub_16", "Postprocessor/BatchMultiClassNonMaxSuppression/map/while/PadOrClipBoxList/zeros_3/Const"], "attr": {"T": {"type": "DT_INT32"}}, "name": "Postprocessor/BatchMultiClassNonMaxSuppression/map/while/PadOrClipBoxList/Greater_8", "op": "Greater"}, {"input": ["Postprocessor/BatchMultiClassNonMaxSuppression/map/while/PadOrClipBoxList/sub", "Postprocessor/BatchMultiClassNonMaxSuppression/map/while/PadOrClipBoxList/zeros_3/Const"], "attr": {"T": {"type": "DT_INT32"}}, "name": "Postprocessor/BatchMultiClassNonMaxSuppression/map/while/PadOrClipBoxList/Greater", "op": "Greater"}, {"input": ["Postprocessor/BatchMultiClassNonMaxSuppression/map/while/PadOrClipBoxList/sub_1", "Postprocessor/BatchMultiClassNonMaxSuppression/map/while/PadOrClipBoxList/zeros_3/Const"], "attr": {"T": {"type": "DT_INT32"}}, "name": "Postprocessor/BatchMultiClassNonMaxSuppression/map/while/PadOrClipBoxList/Greater_1", "op": "Greater"}, {"input": ["Postprocessor/BatchMultiClassNonMaxSuppression/map/while/PadOrClipBoxList/Greater_2", "Postprocessor/BatchMultiClassNonMaxSuppression/map/while/PadOrClipBoxList/sub_6/x", "Postprocessor/BatchMultiClassNonMaxSuppression/map/while/stack_3/1"], "attr": {"T": {"type": "DT_INT32"}}, "name": "Postprocessor/BatchMultiClassNonMaxSuppression/map/while/PadOrClipBoxList/Select_2", "op": "Select"}, {"input": ["Postprocessor/BatchMultiClassNonMaxSuppression/map/while/PadOrClipBoxList/Greater_3", "Postprocessor/BatchMultiClassNonMaxSuppression/map/while/PadOrClipBoxList/sub_5/y", "Postprocessor/BatchMultiClassNonMaxSuppression/map/while/stack_3/1"], "attr": {"T": {"type": "DT_INT32"}}, "name": "Postprocessor/BatchMultiClassNonMaxSuppression/map/while/PadOrClipBoxList/Select_3", "op": "Select"}, {"input": ["Postprocessor/BatchMultiClassNonMaxSuppression/map/while/PadOrClipBoxList/Greater_4", "Postprocessor/BatchMultiClassNonMaxSuppression/map/while/PadOrClipBoxList/sub_6/x", "Postprocessor/BatchMultiClassNonMaxSuppression/map/while/stack_3/1"], "attr": {"T": {"type": "DT_INT32"}}, "name": "Postprocessor/BatchMultiClassNonMaxSuppression/map/while/PadOrClipBoxList/Select_4", "op": "Select"}, {"input": ["Postprocessor/BatchMultiClassNonMaxSuppression/map/while/PadOrClipBoxList/Greater_8", "Postprocessor/BatchMultiClassNonMaxSuppression/map/while/PadOrClipBoxList/sub_6/x", "Postprocessor/BatchMultiClassNonMaxSuppression/map/while/stack_3/1"], "attr": {"T": {"type": "DT_INT32"}}, "name": "Postprocessor/BatchMultiClassNonMaxSuppression/map/while/PadOrClipBoxList/Select_8", "op": "Select"}, {"input": ["Postprocessor/BatchMultiClassNonMaxSuppression/map/while/PadOrClipBoxList/Greater", "Postprocessor/BatchMultiClassNonMaxSuppression/map/while/PadOrClipBoxList/sub_6/x", "Postprocessor/BatchMultiClassNonMaxSuppression/map/while/stack_3/1"], "attr": {"T": {"type": "DT_INT32"}}, "name": "Postprocessor/BatchMultiClassNonMaxSuppression/map/while/PadOrClipBoxList/Select", "op": "Select"}, {"input": ["Postprocessor/BatchMultiClassNonMaxSuppression/map/while/PadOrClipBoxList/Greater_1", "Postprocessor/BatchMultiClassNonMaxSuppression/map/while/PadOrClipBoxList/sub_1/y", "Postprocessor/BatchMultiClassNonMaxSuppression/map/while/stack_3/1"], "attr": {"T": {"type": "DT_INT32"}}, "name": "Postprocessor/BatchMultiClassNonMaxSuppression/map/while/PadOrClipBoxList/Select_1", "op": "Select"}, {"input": ["Postprocessor/BatchMultiClassNonMaxSuppression/map/while/PadOrClipBoxList/Select_2", "Postprocessor/BatchMultiClassNonMaxSuppression/map/while/PadOrClipBoxList/Select_3"], "attr": {"N": {"i": "2"}, "T": {"type": "DT_INT32"}, "axis": {"i": "0"}}, "name": "Postprocessor/BatchMultiClassNonMaxSuppression/map/while/PadOrClipBoxList/Slice_1/size", "op": "Pack"}, {"input": ["^Postprocessor/BatchMultiClassNonMaxSuppression/map/while/PadOrClipBoxList/Select_4"], "attr": {"dtype": {"type": "DT_INT32"}, "value": {"tensor": {"dtype": "DT_INT32", "tensorShape": {}}}}, "name": "ConstantFolding/Postprocessor/BatchMultiClassNonMaxSuppression/map/while/PadOrClipBoxList/Slice_2/size_const_axis", "op": "Const"}, {"input": ["^Postprocessor/BatchMultiClassNonMaxSuppression/map/while/PadOrClipBoxList/Select_8"], "attr": {"dtype": {"type": "DT_INT32"}, "value": {"tensor": {"dtype": "DT_INT32", "tensorShape": {}}}}, "name": "ConstantFolding/Postprocessor/BatchMultiClassNonMaxSuppression/map/while/PadOrClipBoxList/Slice_4/size_const_axis", "op": "Const"}, {"input": ["Postprocessor/BatchMultiClassNonMaxSuppression/map/while/PadOrClipBoxList/Select", "Postprocessor/BatchMultiClassNonMaxSuppression/map/while/PadOrClipBoxList/Select_1"], "attr": {"N": {"i": "2"}, "T": {"type": "DT_INT32"}, "axis": {"i": "0"}}, "name": "Postprocessor/BatchMultiClassNonMaxSuppression/map/while/PadOrClipBoxList/Slice/size", "op": "Pack"}, {"input": ["Postprocessor/BatchMultiClassNonMaxSuppression/map/while/MultiClassNonMaxSuppression/Gather_22/GatherV2_1", "Postprocessor/BatchMultiClassNonMaxSuppression/map/while/PadOrClipBoxList/zeros_3", "Postprocessor/BatchMultiClassNonMaxSuppression/map/while/PadOrClipBoxList/Slice_1/size"], "attr": {"Index": {"type": "DT_INT32"}, "T": {"type": "DT_FLOAT"}}, "name": "Postprocessor/BatchMultiClassNonMaxSuppression/map/while/PadOrClipBoxList/Slice_1", "op": "Slice"}, {"input": ["Postprocessor/BatchMultiClassNonMaxSuppression/map/while/PadOrClipBoxList/Select_4", "ConstantFolding/Postprocessor/BatchMultiClassNonMaxSuppression/map/while/PadOrClipBoxList/Slice_2/size_const_axis"], "attr": {"Tdim": {"type": "DT_INT32"}, "T": {"type": "DT_INT32"}}, "name": "Postprocessor/BatchMultiClassNonMaxSuppression/map/while/PadOrClipBoxList/Slice_2/size", "op": "ExpandDims"}, {"input": ["Postprocessor/BatchMultiClassNonMaxSuppression/map/while/PadOrClipBoxList/Select_8", "ConstantFolding/Postprocessor/BatchMultiClassNonMaxSuppression/map/while/PadOrClipBoxList/Slice_4/size_const_axis"], "attr": {"Tdim": {"type": "DT_INT32"}, "T": {"type": "DT_INT32"}}, "name": "Postprocessor/BatchMultiClassNonMaxSuppression/map/while/PadOrClipBoxList/Slice_4/size", "op": "ExpandDims"}, {"input": ["Postprocessor/BatchMultiClassNonMaxSuppression/map/while/MultiClassNonMaxSuppression/Gather_22/GatherV2_5", "Postprocessor/BatchMultiClassNonMaxSuppression/map/while/PadOrClipBoxList/zeros_3", "Postprocessor/BatchMultiClassNonMaxSuppression/map/while/PadOrClipBoxList/Slice/size"], "attr": {"Index": {"type": "DT_INT32"}, "T": {"type": "DT_FLOAT"}}, "name": "Postprocessor/BatchMultiClassNonMaxSuppression/map/while/PadOrClipBoxList/Slice", "op": "Slice"}, {"input": ["Postprocessor/BatchMultiClassNonMaxSuppression/map/while/PadOrClipBoxList/Slice_1"], "attr": {"out_type": {"type": "DT_INT32"}, "T": {"type": "DT_FLOAT"}}, "name": "Postprocessor/BatchMultiClassNonMaxSuppression/map/while/PadOrClipBoxList/Shape_3", "op": "Shape"}, {"input": ["Postprocessor/BatchMultiClassNonMaxSuppression/map/while/MultiClassNonMaxSuppression/Gather_22/GatherV2_2", "Postprocessor/BatchMultiClassNonMaxSuppression/map/while/PadOrClipBoxList/zeros_9", "Postprocessor/BatchMultiClassNonMaxSuppression/map/while/PadOrClipBoxList/Slice_2/size"], "attr": {"Index": {"type": "DT_INT32"}, "T": {"type": "DT_FLOAT"}}, "name": "Postprocessor/BatchMultiClassNonMaxSuppression/map/while/PadOrClipBoxList/Slice_2", "op": "Slice"}, {"input": ["Postprocessor/BatchMultiClassNonMaxSuppression/map/while/MultiClassNonMaxSuppression/Gather_22/GatherV2_4", "Postprocessor/BatchMultiClassNonMaxSuppression/map/while/PadOrClipBoxList/zeros_9", "Postprocessor/BatchMultiClassNonMaxSuppression/map/while/PadOrClipBoxList/Slice_4/size"], "attr": {"Index": {"type": "DT_INT32"}, "T": {"type": "DT_FLOAT"}}, "name": "Postprocessor/BatchMultiClassNonMaxSuppression/map/while/PadOrClipBoxList/Slice_4", "op": "Slice"}, {"input": ["Postprocessor/BatchMultiClassNonMaxSuppression/map/while/PadOrClipBoxList/Slice"], "attr": {"out_type": {"type": "DT_INT32"}, "T": {"type": "DT_FLOAT"}}, "name": "Postprocessor/BatchMultiClassNonMaxSuppression/map/while/PadOrClipBoxList/Shape_1", "op": "Shape"}, {"input": ["Postprocessor/BatchMultiClassNonMaxSuppression/map/while/PadOrClipBoxList/Shape_3", "Postprocessor/BatchMultiClassNonMaxSuppression/map/while/MultiClassNonMaxSuppression/strided_slice/stack", "Postprocessor/BatchMultiClassNonMaxSuppression/map/while/MultiClassNonMaxSuppression/strided_slice/stack_1", "Postprocessor/BatchMultiClassNonMaxSuppression/map/while/MultiClassNonMaxSuppression/strided_slice/stack_1"], "attr": {"new_axis_mask": {"i": "0"}, "Index": {"type": "DT_INT32"}, "begin_mask": {"i": "0"}, "ellipsis_mask": {"i": "0"}, "end_mask": {"i": "0"}, "T": {"type": "DT_INT32"}, "shrink_axis_mask": {"i": "1"}}, "name": "Postprocessor/BatchMultiClassNonMaxSuppression/map/while/PadOrClipBoxList/strided_slice_6", "op": "StridedSlice"}, {"input": ["Postprocessor/BatchMultiClassNonMaxSuppression/map/while/PadOrClipBoxList/Shape_3", "Postprocessor/BatchMultiClassNonMaxSuppression/map/while/MultiClassNonMaxSuppression/strided_slice/stack_1", "Postprocessor/BatchMultiClassNonMaxSuppression/map/while/PadOrClipBoxList/zeros_3/shape_as_tensor", "Postprocessor/BatchMultiClassNonMaxSuppression/map/while/MultiClassNonMaxSuppression/strided_slice/stack_1"], "attr": {"new_axis_mask": {"i": "0"}, "Index": {"type": "DT_INT32"}, "begin_mask": {"i": "0"}, "ellipsis_mask": {"i": "0"}, "end_mask": {"i": "0"}, "T": {"type": "DT_INT32"}, "shrink_axis_mask": {"i": "1"}}, "name": "Postprocessor/BatchMultiClassNonMaxSuppression/map/while/PadOrClipBoxList/strided_slice_7", "op": "StridedSlice"}, {"input": ["Postprocessor/BatchMultiClassNonMaxSuppression/map/while/PadOrClipBoxList/Slice_2"], "attr": {"out_type": {"type": "DT_INT32"}, "T": {"type": "DT_FLOAT"}}, "name": "Postprocessor/BatchMultiClassNonMaxSuppression/map/while/PadOrClipBoxList/Shape_5", "op": "Shape"}, {"input": ["Postprocessor/BatchMultiClassNonMaxSuppression/map/while/PadOrClipBoxList/Slice_4"], "attr": {"out_type": {"type": "DT_INT32"}, "T": {"type": "DT_FLOAT"}}, "name": "Postprocessor/BatchMultiClassNonMaxSuppression/map/while/PadOrClipBoxList/Shape_9", "op": "Shape"}, {"input": ["Postprocessor/BatchMultiClassNonMaxSuppression/map/while/PadOrClipBoxList/Shape_1", "Postprocessor/BatchMultiClassNonMaxSuppression/map/while/MultiClassNonMaxSuppression/strided_slice/stack", "Postprocessor/BatchMultiClassNonMaxSuppression/map/while/MultiClassNonMaxSuppression/strided_slice/stack_1", "Postprocessor/BatchMultiClassNonMaxSuppression/map/while/MultiClassNonMaxSuppression/strided_slice/stack_1"], "attr": {"new_axis_mask": {"i": "0"}, "Index": {"type": "DT_INT32"}, "begin_mask": {"i": "0"}, "ellipsis_mask": {"i": "0"}, "end_mask": {"i": "0"}, "T": {"type": "DT_INT32"}, "shrink_axis_mask": {"i": "1"}}, "name": "Postprocessor/BatchMultiClassNonMaxSuppression/map/while/PadOrClipBoxList/strided_slice_2", "op": "StridedSlice"}, {"input": ["Postprocessor/BatchMultiClassNonMaxSuppression/map/while/PadOrClipBoxList/Shape_1", "Postprocessor/BatchMultiClassNonMaxSuppression/map/while/MultiClassNonMaxSuppression/strided_slice/stack_1", "Postprocessor/BatchMultiClassNonMaxSuppression/map/while/PadOrClipBoxList/zeros_3/shape_as_tensor", "Postprocessor/BatchMultiClassNonMaxSuppression/map/while/MultiClassNonMaxSuppression/strided_slice/stack_1"], "attr": {"new_axis_mask": {"i": "0"}, "Index": {"type": "DT_INT32"}, "begin_mask": {"i": "0"}, "ellipsis_mask": {"i": "0"}, "end_mask": {"i": "0"}, "T": {"type": "DT_INT32"}, "shrink_axis_mask": {"i": "1"}}, "name": "Postprocessor/BatchMultiClassNonMaxSuppression/map/while/PadOrClipBoxList/strided_slice_3", "op": "StridedSlice"}, {"input": ["Postprocessor/BatchMultiClassNonMaxSuppression/map/while/PadOrClipBoxList/sub_6/x", "Postprocessor/BatchMultiClassNonMaxSuppression/map/while/PadOrClipBoxList/strided_slice_6"], "attr": {"T": {"type": "DT_INT32"}}, "name": "Postprocessor/BatchMultiClassNonMaxSuppression/map/while/PadOrClipBoxList/sub_6", "op": "Sub"}, {"input": ["Postprocessor/BatchMultiClassNonMaxSuppression/map/while/PadOrClipBoxList/sub_5/y", "Postprocessor/BatchMultiClassNonMaxSuppression/map/while/PadOrClipBoxList/strided_slice_7"], "attr": {"T": {"type": "DT_INT32"}}, "name": "Postprocessor/BatchMultiClassNonMaxSuppression/map/while/PadOrClipBoxList/sub_7", "op": "Sub"}, {"input": ["Postprocessor/BatchMultiClassNonMaxSuppression/map/while/PadOrClipBoxList/Shape_5", "Postprocessor/BatchMultiClassNonMaxSuppression/map/while/MultiClassNonMaxSuppression/strided_slice/stack", "Postprocessor/BatchMultiClassNonMaxSuppression/map/while/MultiClassNonMaxSuppression/strided_slice/stack_1", "Postprocessor/BatchMultiClassNonMaxSuppression/map/while/MultiClassNonMaxSuppression/strided_slice/stack_1"], "attr": {"new_axis_mask": {"i": "0"}, "Index": {"type": "DT_INT32"}, "begin_mask": {"i": "0"}, "ellipsis_mask": {"i": "0"}, "end_mask": {"i": "0"}, "T": {"type": "DT_INT32"}, "shrink_axis_mask": {"i": "1"}}, "name": "Postprocessor/BatchMultiClassNonMaxSuppression/map/while/PadOrClipBoxList/strided_slice_9", "op": "StridedSlice"}, {"input": ["Postprocessor/BatchMultiClassNonMaxSuppression/map/while/PadOrClipBoxList/Shape_9", "Postprocessor/BatchMultiClassNonMaxSuppression/map/while/MultiClassNonMaxSuppression/strided_slice/stack", "Postprocessor/BatchMultiClassNonMaxSuppression/map/while/MultiClassNonMaxSuppression/strided_slice/stack_1", "Postprocessor/BatchMultiClassNonMaxSuppression/map/while/MultiClassNonMaxSuppression/strided_slice/stack_1"], "attr": {"new_axis_mask": {"i": "0"}, "Index": {"type": "DT_INT32"}, "begin_mask": {"i": "0"}, "ellipsis_mask": {"i": "0"}, "end_mask": {"i": "0"}, "T": {"type": "DT_INT32"}, "shrink_axis_mask": {"i": "1"}}, "name": "Postprocessor/BatchMultiClassNonMaxSuppression/map/while/PadOrClipBoxList/strided_slice_17", "op": "StridedSlice"}, {"input": ["Postprocessor/BatchMultiClassNonMaxSuppression/map/while/PadOrClipBoxList/sub_6/x", "Postprocessor/BatchMultiClassNonMaxSuppression/map/while/PadOrClipBoxList/strided_slice_2"], "attr": {"T": {"type": "DT_INT32"}}, "name": "Postprocessor/BatchMultiClassNonMaxSuppression/map/while/PadOrClipBoxList/sub_2", "op": "Sub"}, {"input": ["Postprocessor/BatchMultiClassNonMaxSuppression/map/while/PadOrClipBoxList/sub_1/y", "Postprocessor/BatchMultiClassNonMaxSuppression/map/while/PadOrClipBoxList/strided_slice_3"], "attr": {"T": {"type": "DT_INT32"}}, "name": "Postprocessor/BatchMultiClassNonMaxSuppression/map/while/PadOrClipBoxList/sub_3", "op": "Sub"}, {"input": ["Postprocessor/BatchMultiClassNonMaxSuppression/map/while/PadOrClipBoxList/sub_6", "Postprocessor/BatchMultiClassNonMaxSuppression/map/while/PadOrClipBoxList/sub_7"], "attr": {"axis": {"i": "0"}, "T": {"type": "DT_INT32"}, "N": {"i": "2"}}, "name": "Postprocessor/BatchMultiClassNonMaxSuppression/map/while/PadOrClipBoxList/stack_1/values_1", "op": "Pack"}, {"input": ["Postprocessor/BatchMultiClassNonMaxSuppression/map/while/PadOrClipBoxList/sub_6/x", "Postprocessor/BatchMultiClassNonMaxSuppression/map/while/PadOrClipBoxList/strided_slice_9"], "attr": {"T": {"type": "DT_INT32"}}, "name": "Postprocessor/BatchMultiClassNonMaxSuppression/map/while/PadOrClipBoxList/sub_9", "op": "Sub"}, {"input": ["Postprocessor/BatchMultiClassNonMaxSuppression/map/while/PadOrClipBoxList/sub_6/x", "Postprocessor/BatchMultiClassNonMaxSuppression/map/while/PadOrClipBoxList/strided_slice_17"], "attr": {"T": {"type": "DT_INT32"}}, "name": "Postprocessor/BatchMultiClassNonMaxSuppression/map/while/PadOrClipBoxList/sub_17", "op": "Sub"}, {"input": ["Postprocessor/BatchMultiClassNonMaxSuppression/map/while/PadOrClipBoxList/sub_2", "Postprocessor/BatchMultiClassNonMaxSuppression/map/while/PadOrClipBoxList/sub_3"], "attr": {"N": {"i": "2"}, "T": {"type": "DT_INT32"}, "axis": {"i": "0"}}, "name": "Postprocessor/BatchMultiClassNonMaxSuppression/map/while/PadOrClipBoxList/stack/values_1", "op": "Pack"}, {"input": ["Postprocessor/BatchMultiClassNonMaxSuppression/map/while/PadOrClipBoxList/zeros_3", "Postprocessor/BatchMultiClassNonMaxSuppression/map/while/PadOrClipBoxList/stack_1/values_1"], "attr": {"N": {"i": "2"}, "T": {"type": "DT_INT32"}, "axis": {"i": "1"}}, "name": "Postprocessor/BatchMultiClassNonMaxSuppression/map/while/PadOrClipBoxList/stack_1", "op": "Pack"}, {"input": ["^Postprocessor/BatchMultiClassNonMaxSuppression/map/while/PadOrClipBoxList/sub_9"], "attr": {"dtype": {"type": "DT_INT32"}, "value": {"tensor": {"dtype": "DT_INT32", "tensorShape": {}}}}, "name": "ConstantFolding/Postprocessor/BatchMultiClassNonMaxSuppression/map/while/PadOrClipBoxList/stack_2/values_1_const_axis", "op": "Const"}, {"input": ["^Postprocessor/BatchMultiClassNonMaxSuppression/map/while/PadOrClipBoxList/sub_17"], "attr": {"dtype": {"type": "DT_INT32"}, "value": {"tensor": {"dtype": "DT_INT32", "tensorShape": {}}}}, "name": "ConstantFolding/Postprocessor/BatchMultiClassNonMaxSuppression/map/while/PadOrClipBoxList/stack_4/values_1_const_axis", "op": "Const"}, {"input": ["Postprocessor/BatchMultiClassNonMaxSuppression/map/while/PadOrClipBoxList/zeros_3", "Postprocessor/BatchMultiClassNonMaxSuppression/map/while/PadOrClipBoxList/stack/values_1"], "attr": {"N": {"i": "2"}, "T": {"type": "DT_INT32"}, "axis": {"i": "1"}}, "name": "Postprocessor/BatchMultiClassNonMaxSuppression/map/while/PadOrClipBoxList/stack", "op": "Pack"}, {"input": ["Postprocessor/BatchMultiClassNonMaxSuppression/map/while/PadOrClipBoxList/Slice_1", "Postprocessor/BatchMultiClassNonMaxSuppression/map/while/PadOrClipBoxList/stack_1"], "attr": {"Tpaddings": {"type": "DT_INT32"}, "T": {"type": "DT_FLOAT"}}, "name": "Postprocessor/BatchMultiClassNonMaxSuppression/map/while/PadOrClipBoxList/Pad_1", "op": "Pad"}, {"input": ["Postprocessor/BatchMultiClassNonMaxSuppression/map/while/PadOrClipBoxList/sub_9", "ConstantFolding/Postprocessor/BatchMultiClassNonMaxSuppression/map/while/PadOrClipBoxList/stack_2/values_1_const_axis"], "attr": {"Tdim": {"type": "DT_INT32"}, "T": {"type": "DT_INT32"}}, "name": "Postprocessor/BatchMultiClassNonMaxSuppression/map/while/PadOrClipBoxList/stack_2/values_1", "op": "ExpandDims"}, {"input": ["Postprocessor/BatchMultiClassNonMaxSuppression/map/while/PadOrClipBoxList/sub_17", "ConstantFolding/Postprocessor/BatchMultiClassNonMaxSuppression/map/while/PadOrClipBoxList/stack_4/values_1_const_axis"], "attr": {"Tdim": {"type": "DT_INT32"}, "T": {"type": "DT_INT32"}}, "name": "Postprocessor/BatchMultiClassNonMaxSuppression/map/while/PadOrClipBoxList/stack_4/values_1", "op": "ExpandDims"}, {"input": ["Postprocessor/BatchMultiClassNonMaxSuppression/map/while/PadOrClipBoxList/Slice", "Postprocessor/BatchMultiClassNonMaxSuppression/map/while/PadOrClipBoxList/stack"], "attr": {"Tpaddings": {"type": "DT_INT32"}, "T": {"type": "DT_FLOAT"}}, "name": "Postprocessor/BatchMultiClassNonMaxSuppression/map/while/PadOrClipBoxList/Pad", "op": "Pad"}, {"input": ["Postprocessor/BatchMultiClassNonMaxSuppression/map/while/TensorArrayWrite_4/TensorArrayWriteV3/Enter", "Postprocessor/BatchMultiClassNonMaxSuppression/map/while/Switch_1:1", "Postprocessor/BatchMultiClassNonMaxSuppression/map/while/PadOrClipBoxList/Pad_1", "Postprocessor/BatchMultiClassNonMaxSuppression/map/while/Switch_6:1"], "attr": {"T": {"type": "DT_FLOAT"}}, "name": "Postprocessor/BatchMultiClassNonMaxSuppression/map/while/TensorArrayWrite_4/TensorArrayWriteV3", "op": "TensorArrayWriteV3"}, {"input": ["Postprocessor/BatchMultiClassNonMaxSuppression/map/while/PadOrClipBoxList/zeros_9", "Postprocessor/BatchMultiClassNonMaxSuppression/map/while/PadOrClipBoxList/stack_2/values_1"], "attr": {"N": {"i": "2"}, "T": {"type": "DT_INT32"}, "axis": {"i": "1"}}, "name": "Postprocessor/BatchMultiClassNonMaxSuppression/map/while/PadOrClipBoxList/stack_2", "op": "Pack"}, {"input": ["Postprocessor/BatchMultiClassNonMaxSuppression/map/while/PadOrClipBoxList/zeros_9", "Postprocessor/BatchMultiClassNonMaxSuppression/map/while/PadOrClipBoxList/stack_4/values_1"], "attr": {"N": {"i": "2"}, "T": {"type": "DT_INT32"}, "axis": {"i": "1"}}, "name": "Postprocessor/BatchMultiClassNonMaxSuppression/map/while/PadOrClipBoxList/stack_4", "op": "Pack"}, {"input": ["Postprocessor/BatchMultiClassNonMaxSuppression/map/while/TensorArrayWrite/TensorArrayWriteV3/Enter", "Postprocessor/BatchMultiClassNonMaxSuppression/map/while/Switch_1:1", "Postprocessor/BatchMultiClassNonMaxSuppression/map/while/PadOrClipBoxList/Pad", "Postprocessor/BatchMultiClassNonMaxSuppression/map/while/Switch_2:1"], "attr": {"T": {"type": "DT_FLOAT"}}, "name": "Postprocessor/BatchMultiClassNonMaxSuppression/map/while/TensorArrayWrite/TensorArrayWriteV3", "op": "TensorArrayWriteV3"}, {"input": ["Postprocessor/BatchMultiClassNonMaxSuppression/map/while/TensorArrayWrite_4/TensorArrayWriteV3"], "attr": {"T": {"type": "DT_FLOAT"}}, "name": "Postprocessor/BatchMultiClassNonMaxSuppression/map/while/NextIteration_6", "op": "NextIteration"}, {"input": ["Postprocessor/BatchMultiClassNonMaxSuppression/map/while/PadOrClipBoxList/Slice_2", "Postprocessor/BatchMultiClassNonMaxSuppression/map/while/PadOrClipBoxList/stack_2"], "attr": {"Tpaddings": {"type": "DT_INT32"}, "T": {"type": "DT_FLOAT"}}, "name": "Postprocessor/BatchMultiClassNonMaxSuppression/map/while/PadOrClipBoxList/Pad_2", "op": "Pad"}, {"input": ["Postprocessor/BatchMultiClassNonMaxSuppression/map/while/PadOrClipBoxList/Slice_4", "Postprocessor/BatchMultiClassNonMaxSuppression/map/while/PadOrClipBoxList/stack_4"], "attr": {"Tpaddings": {"type": "DT_INT32"}, "T": {"type": "DT_FLOAT"}}, "name": "Postprocessor/BatchMultiClassNonMaxSuppression/map/while/PadOrClipBoxList/Pad_4", "op": "Pad"}, {"input": ["Postprocessor/BatchMultiClassNonMaxSuppression/map/while/TensorArrayWrite/TensorArrayWriteV3"], "attr": {"T": {"type": "DT_FLOAT"}}, "name": "Postprocessor/BatchMultiClassNonMaxSuppression/map/while/NextIteration_2", "op": "NextIteration"}, {"input": ["Postprocessor/BatchMultiClassNonMaxSuppression/map/while/TensorArrayWrite_2/TensorArrayWriteV3/Enter", "Postprocessor/BatchMultiClassNonMaxSuppression/map/while/Switch_1:1", "Postprocessor/BatchMultiClassNonMaxSuppression/map/while/PadOrClipBoxList/Pad_2", "Postprocessor/BatchMultiClassNonMaxSuppression/map/while/Switch_4:1"], "attr": {"T": {"type": "DT_FLOAT"}}, "name": "Postprocessor/BatchMultiClassNonMaxSuppression/map/while/TensorArrayWrite_2/TensorArrayWriteV3", "op": "TensorArrayWriteV3"}, {"input": ["Postprocessor/BatchMultiClassNonMaxSuppression/map/while/TensorArrayWrite_1/TensorArrayWriteV3/Enter", "Postprocessor/BatchMultiClassNonMaxSuppression/map/while/Switch_1:1", "Postprocessor/BatchMultiClassNonMaxSuppression/map/while/PadOrClipBoxList/Pad_4", "Postprocessor/BatchMultiClassNonMaxSuppression/map/while/Switch_3:1"], "attr": {"T": {"type": "DT_FLOAT"}}, "name": "Postprocessor/BatchMultiClassNonMaxSuppression/map/while/TensorArrayWrite_1/TensorArrayWriteV3", "op": "TensorArrayWriteV3"}, {"input": ["Postprocessor/BatchMultiClassNonMaxSuppression/map/while/TensorArrayWrite_2/TensorArrayWriteV3"], "attr": {"T": {"type": "DT_FLOAT"}}, "name": "Postprocessor/BatchMultiClassNonMaxSuppression/map/while/NextIteration_4", "op": "NextIteration"}, {"input": ["Postprocessor/BatchMultiClassNonMaxSuppression/map/while/TensorArrayWrite_1/TensorArrayWriteV3"], "attr": {"T": {"type": "DT_FLOAT"}}, "name": "Postprocessor/BatchMultiClassNonMaxSuppression/map/while/NextIteration_3", "op": "NextIteration"}], "library": {}, "versions": {"producer": 67}}, "generatedBy": "1.13.1", "convertedBy": "TensorFlow.js Converter v1.1.2", "format": "graph-model"}